assignment_3/outputs/models/L1.pth (torch, 50090 bytes, 20 tensors)

embedding.weight f4 [28, 30]
00000000: 0000 0000 0000 0000 0000 0000 0000 0000
00000010: 0000 0000 0000 0000 0000 0000 0000 0000
00000020: 0000 0000 0000 0000 0000 0000 0000 0000
00000030: 0000 0000 0000 0000 0000 0000 0000 0000
00000040: 0000 0000 0000 0000 0000 0000 0000 0000
00000050: 0000 0000 0000 0000 0000 0000 0000 0000
00000060: 0000 0000 0000 0000 0000 0000 0000 0000
00000070: 0000 0000 0000 0000 a6fa fb3d f04c b53d
00000080: 62ef 5ebf 2154 a73f b7f9 f4be 5836 323e
00000090: 4937 63be d3fe dabe bf0e 853f bc25 c2bf
000000a0: 252b 95be 2bfb 393f a093 b13f 5e0b 1fbf
000000b0: 790c 8a3f 415e 49be faa4 973f 82e3 4d3f
000000c0: 057b abbe ad05 87bd 3ed2 febd 9267 5abf
000000d0: ea08 9d3f e1f6 00c0 5937 483e b2ca cbbf
000000e0: aff0 10bf 3624 cd3e 299b 33bf b24b 093e
000000f0: 80b2 0140 d01f 833f b38f d7bf e03b 513f
00000100: 735c 893e 0425 83bf 30b2 a23f 3ac7 9bbe
00000110: a0a9 2cbf 751c a53f 7868 b5be a8b8 64bf
00000120: fabf 8fbf 672d 87bf 518b 82bf f751 14bf
00000130: 23e0 e5bd 530c a1bf 9499 0140 b0c3 b23e
00000140: 3ce4 83bf eda1 613f 9b52 9fbe 5672 00bf
00000150: b779 0dc0 d35f 0240 a0a6 d1bf 8690 cebf
00000160: 355a 8cbf 4667 e63f 2a89 64be 9e3b 8a3f
00000170: 4df2 5fbf 8269 d03f be38 2cbf ab41 4e3f
00000180: 6251 ad3f b920 8fbe 1a38 ac3f e29b e43f
00000190: 645a 81bf 21a4 ecbf a2c3 c43d 7e92 4bbf
000001a0: 5746 663f 3134 603e 16e6 87bf 9c38 d5be
000001b0: d67c d83f 7260 5abf a63d 803f fc79 b63e
000001c0: 3991 243f 3723 723f 6195 7b3c ecfb 8dbf
000001d0: cbf1 c3bf 3fcf a3bf 1d9d d93e ec49 8c3e
000001e0: 91c7 0f3e 5d4a 1a3e 6db7 4b3e c70b 3f3f
000001f0: d346 84bf 7693 85bf 5063 c03e 207a e6bf
00000200: 94a8 b63f d515 1bbf 29f2 96be 9fb7 dabe
00000210: 9d1d 1a3f b917 6a3e 4574 5a3f 6a11 ae3e
00000220: 2336 4bbe 26c8 9ebf bbd6 b63f 5999 f1bf
00000230: 023d ebbe 1311 3f3f 5b2f 1f3f 6af4 4040
00000240: 2fd0 03bf eef3 8ebf 440f 8bbe 24df 8fbd
00000250: f60f 15c0 d933 353f 2e43 cc3e d96a 913e
00000260: a77d 4c3f e183 60be ebc3 8bbe 4a54 28bf
00000270: 6f7e 6f3f 1fda 733f 185b 8ebf 27dc 293f
00000280: e09a b53e 9d3e a5be 6ff8 293f 6d72 f8bf
00000290: d191 b23f a4c6 6abe eac8 85bf 627a a93e
000002a0: 351e 6abf 31cb 1cbf 51f0 20bf a20a cc3d
000002b0: d58e 67bf 5701 96bf af41 013f 7854 083f
000002c0: 4998 bf3f f04f 8c3e 10cf 993e 9c6e 8dbf
000002d0: 7d1d 45c0 bf05 323f 9a52 73bf 5768 df3f
000002e0: b261 0c3f 0669 d23f 3eae af3f 0837 4f3f
000002f0: 3fb4 11bf 8272 1cbf e3f9 8bbf 3e16 d83f
00000300: d395 02bf 81e9 4fbf d726 2dbf 428d a2be
00000310: 9fac efbf 35eb 643f 78e2 45bf 2afe 94bf
00000320: e791 1dc0 8ed5 8cbf a1ae fa3d 1edb d33f
00000330: 8720 cf3d 3ae5 68bf 6bb2 ebbf aaba c83f
00000340: 1739 433e 6a35 923f 1ea6 5740 7997 6e3f
00000350: 3494 7b3f e10a 403f 5cd1 77bf 8535 d13e
00000360: 67be 673f c243 293f 39ab d5bd 886c 63bf
00000370: 651a 9abc 7c7a 0e3f 247f a3bf 65d6 b4bf
00000380: b5d9 98bf 1a60 253f bdca 6f3f c3fe a93f
00000390: ead8 8f3f 7c06 993f 7c59 233f e91c 03bf
000003a0: a61d b53f 2979 523f 34b4 9d3f 592e a3be
000003b0: b454 d9be 23c4 1d3f 13a4 0140 471a 4abf
000003c0: ff1f 713c 852a 633f 0f85 ae3f 3ed0 af3f
000003d0: 42f8 87bf 17d5 35bf 0028 82be f003 da3e
000003e0: 072e c63f 1c76 a83f 2f42 aebf 2cd9 a4bf
000003f0: 89a6 e5be 557a 7bbf 71a5 9ebf d9e2 eabe
0.0 0.0 0.0 0.0 0.0 0.0 0.0 0.0
0.0 0.0 0.0 0.0 0.0 0.0 0.0 0.0
0.0 0.0 0.0 0.0 0.0 0.0 0.0 0.0
0.0 0.0 0.0 0.0 0.0 0.0 0.12303667 0.08852565
-0.8708402 1.3072549 -0.47846767 0.17403543 -0.22189058 -0.4277254 1.0395125 -1.5167766
-0.2913448 0.72648877 1.3873177 -0.6212672 1.0785056 -0.19664861 1.1847222 0.80425274
-0.33492294 -0.065928794 -0.12442444 -0.85314286 1.2268345 -2.0150683 0.19552363 -1.5921233
-0.56617254 0.4006669 -0.7015863 0.13407782 2.0265198 1.0244083 -1.6840729 0.81731987
0.26828346 -1.0245671 1.2710629 -0.30425435 -0.6744633 1.2899309 -0.35431266 -0.89344263
-1.1230462 -1.0560731 -1.0198766 -0.5793757 -0.11224391 -1.2581886 2.0249987 0.34914923
-1.0304027 0.88137704 -0.3111771 -0.5017446 -2.210554 2.0370986 -1.6378975 -1.6137855
-1.0965029 1.8000267 -0.22317949 1.0799444 -0.87479097 1.6282198 -0.6727408 0.8056895
1.3540461 -0.27954653 1.3454621 1.7860072 -1.010571 -1.8487588 0.096076265 -0.79520404
0.8995108 0.2189491 -1.0617092 -0.41644752 1.6913097 -0.85303414 1.0018814 0.35639942
0.6428409 0.94584984 0.015355439 -1.1092505 -1.5308164 -1.2797621 0.4250268 0.27400148
0.14040972 0.1506743 0.1989419 0.74627346 -1.0334114 -1.0435627 0.3757577 -1.800602
1.4270196 -0.6058019 -0.2948163 -0.42718217 0.60201436 0.22860612 0.85333663 0.3399766
-0.1984487 -1.240483 1.428428 -1.8874923 -0.45944983 0.7463543 0.62181634 3.0149179
-0.5148954 -1.1168191 -0.27160084 -0.070249826 -2.3290992 0.7078224 0.39895004 0.2840183
0.7987923 -0.21925308 -0.2729791 -0.65753615 0.935523 0.952547 -1.112155 0.6635155
0.35469723 -0.32274333 0.66394705 -1.940992 1.395075 -0.22927338 -1.0451939 0.33101183
-0.9145234 -0.61247545 -0.62866694 0.099629655 -0.9045232 -1.1719159 0.5049085 0.5325389
1.4968349 0.27404737 0.3004079 -1.104938 -3.0799248 0.6954002 -0.95047915 1.7453717
0.5483657 1.6438301 1.372505 0.80943346 -0.5691566 -0.61112225 -1.0935634 1.6881788
-0.51009864 -0.81215674 -0.6763739 -0.31748396 -1.8724555 0.894214 -0.7729869 -1.1640065
-2.4620302 -1.1002672 0.12240339 1.6551244 0.10113626 -0.9097477 -1.8413824 1.5681965
0.19064747 1.1422551 3.369514 0.9319988 0.98273015 0.750166 -0.9680383 0.40861145
0.90524906 0.66119015 -0.10433049 -0.8883748 -0.018811414 0.55655646 -1.2773175 -1.4127928
-1.1941439 0.64599764 0.9366873 1.3280872 1.1238072 1.1955104 0.6380842 -0.5121599
1.4149673 0.82216126 1.2320619 -0.31871298 -0.42447436 0.61627406 2.0256393 -0.78946346
0.014717101 0.88736755 1.3634356 1.3735425 -1.0622637 -0.71028274 -0.25421143 0.4258113
1.5482796 1.3161044 -1.3613948 -1.2878776 -0.4485362 -0.9823354 -1.2394239 -0.45876196

lstm.lstm_cell.weight_ih f4 [128, 30]
00000000: 74e2 983c 6225 8f3e 7842 9e3d c1b4 f03b
00000010: 9740 88bc 2ea3 b7bd bb7e 49be a828 e8bd
00000020: 27d8 99bd 7bab 653e 9616 a53e c854 243d
00000030: 450b 1ebe 24fa a43d 222e 6cbe 638f 90be
00000040: fd0c a03d 9c6d 903e 0062 1abe c19d ad3e
00000050: ed44 5f3d b619 4d3e 0e7f 3ebe fa7a 48bc
00000060: 21b0 a0bb f8a0 a03e 3648 213e 07a1 d0be
00000070: 7bad 4a3d e9db f4bd 9fa9 ed3c ed5e ee3d
00000080: 4b82 44be 829a 24bc bae5 dbbe b835 76be
00000090: 7095 893c 4ea3 7a3e 0d58 2e3e 97e3 b03d
000000a0: 78dd 6b3c 9959 53be 12ae fb3d 0862 923e
000000b0: 540b ef3d fe2b 8a3e b861 1abd 8843 03be
000000c0: 9e62 043e 7a9f 2cbe 2165 02be 789e 953d
000000d0: c845 343e cb4a 843e ae80 6ebe 8101 c73b
000000e0: 298b 11be df35 2ebe 63fa 18be 91e9 a13d
000000f0: 1da0 133f e824 b93d 6cdb 723e f867 663e
00000100: 851f d8bd 5b95 f4bd 74da 4e3e acdf 0cbc
00000110: f1d3 343e 171c 58bd d936 b9bd be06 18be
00000120: 2fc9 3d3b 4be4 05bd 90f2 b0be 6fcb 8dba
00000130: ef23 28be f299 873d a0eb a53e e803 ebbd
00000140: f5ff 99bc ffe7 783c 2868 7cb9 74b7 133e
00000150: 35ec 863e 1013 9bbd 2b46 373d d196 1c3e
00000160: a469 ddba ec1a b73d ceb8 833e 5f39 8b3c
00000170: f5be 173b 2b93 c7bd f782 7fbe 8c5c 72bd
00000180: eb40 7c3d 782c 27be edad a33e 9d43 8a3d
00000190: ad90 1a3e d783 57be 0057 7dbe cae7 b73c
000001a0: 1c77 56be 3dcd 6c3d 1d34 6bbc 5d5b 5a3d
000001b0: f16d 6f3d d8f5 903d 30b3 3bbe a542 a73d
000001c0: 1304 bc3d 0eea ec3e 36cf 11be 463e d03d
000001d0: b602 5bbe 90ed 10be 70ce 70bd f423 1f3e
000001e0: c4be 083e 17a2 49be 6fe0 4ebe fe47 013e
000001f0: 1af0 4a3e c61c c03d f0d8 a53d 4ee6 63be
00000200: 03f3 133e 5569 ffbd 0c6e 523d e6c7 52bd
00000210: 06b5 c5bd 30e5 98bd 0d28 34be 8468 023d
00000220: d9fc e8be e022 dfbd 2485 133e 3ed9 7dbc
00000230: a874 36bd 6e9d 35be e59c 6a3e 3ef4 9d3e
00000240: ee9e 48be 994e aa3d 80f5 9cbe 335d 9b3e
00000250: 3f6d 87bd 515f 433e bdd2 8e3c a48a dbbc
00000260: 303a fb3d 7125 76bd 19a8 16be dd1a a63e
00000270: 6014 43be d101 38be 0e35 c33d fd6b 39be
00000280: cc42 d73d 24ff 84be f196 223d 1887 e03d
00000290: 192c f03d cd43 343e ac7d 843e 0d89 ecbc
000002a0: 5fe1 babd c987 0a3e 334f 963e fde3 2d3d
000002b0: 5e95 923c f85f 123e 6026 393e eb68 843d
000002c0: 44b5 8ebe eb37 c6bd a03c 953e ee24 c8bd
000002d0: 3998 afbc dda0 86be 8588 6abd 7466 a13d
000002e0: 0cbb 7ebe c923 cb3e 0525 b3be e495 073b
000002f0: 6373 db3d 632e 1dbe f265 91bd 8c85 763c
00000300: 0f50 2a3e 934f 2cbe dee2 49be 8290 7c3e
00000310: 0613 a8bd 1b72 433d d0e5 58be 2362 2e3e
00000320: dd5a 083e cf39 58be 5c92 83bc 5815 763e
00000330: 1f5b 283f 078a 943e 08ff f73d 144a 06be
00000340: a11a c13d 73c2 1cbe 57df 2a3d 3b15 813c
00000350: 3fa8 d03e c48c a2bd 30e6 9f3c 0c9b 693e
00000360: d08b 323e 6dd7 dcbd eaa1 463e 6cea 853e
00000370: 2007 88be 2c84 c8be 0b7f a03d f6ca 7dbe
00000380: 6615 3cbe 86c4 c83c a811 8f3c 4440 16be
00000390: c2a5 b4bd 3ffb 053e ad65 d73d ec97 81be
000003a0: 19df 1ebe 12dd 573d 090d 213e 09b4 70bd
000003b0: 7d0e 68bc c0e3 213e e3d8 6e3e 6580 bcbd
000003c0: 4f39 45bc 08fd 90bc 3134 c73d 066b 9ebe
000003d0: 1f5b 983c 9308 413e 60f8 663d 90ef 043e
000003e0: 6c26 5c3d 8de3 8d3e 3bff f83d ec5c a8be
000003f0: 927c 12be c223 683e 6058 f83d 32de 083d
0.018662669 0.27958208 0.07727522 0.0073457663 -0.016632361 -0.08966671 -0.1967725 -0.113358796
-0.07511931 0.22428696 0.32243794 0.040119916 -0.15433986 0.08055523 -0.23064473 -0.28234395
0.07814977 0.28208625 -0.15076447 0.3390942 0.054509092 0.20029339 -0.18603155 -0.012236351
-0.0049038087 0.3137281 0.15750203 -0.40747854 0.04948185 -0.11956007 0.029011546 0.116391994
-0.19190328 -0.010046603 -0.42948705 -0.2404393 0.01679489 0.24476358 0.17025776 0.08637159
0.014396064 -0.20639648 0.12289061 0.28590417 0.116720825 0.26986688 -0.037690848 -0.1281873
0.12928244 -0.1685771 -0.1273389 0.07305616 0.17604744 0.25838313 -0.23291275 0.0060731773
-0.14213242 -0.17012738 -0.14939265 0.079058774 0.5766619 0.090402424 0.23716515 0.22500598
-0.10552887 -0.1194255 0.20200521 -0.008598249 0.17658974 -0.052761164 -0.090436645 -0.14846322
0.0028959026 -0.03268842 -0.3456006 -0.0010818074 -0.16419958 0.066211596 0.3240633 -0.114753544
-0.018798808 0.015192031 -0.00024071394 0.1442545 0.26352087 -0.07571995 0.04474465 0.15291907
-0.0016892445 0.08940682 0.25726932 0.01699513 0.002315459 -0.09744867 -0.24952303 -0.05917029
0.061585348 -0.16325557 0.31968632 0.067511775 0.15094252 -0.21046387 -0.24740219 0.022449393
-0.20943874 0.057812918 -0.0143556865 0.053309787 0.058454458 0.07078141 -0.18330073 0.08167008
0.091804646 0.4627232 -0.14239201 0.10168128 -0.21387753 -0.14153123 -0.058790624 0.15541059
0.13354021 -0.19690739 -0.20202802 0.12625119 0.19818154 0.09380488 0.08098018 -0.22255823
0.1444817 -0.12471262 0.05137448 -0.05146017 -0.09653668 -0.07465589 -0.17593403 0.031837955
-0.45505407 -0.10895324 0.14406258 -0.015493689 -0.044544846 -0.17735836 0.22911413 0.30850405
-0.19591877 0.083157726 -0.30656052 0.30344543 -0.06612634 0.19079329 0.017434472 -0.026799507
0.12266958 -0.0600943 -0.14712562 0.3244237 -0.19050741 -0.17969443 0.09531604 -0.181076
0.10510787 -0.25975907 0.03969473 0.10963267 0.11727161 0.17603989 0.2587713 -0.028873945
-0.091250174 0.1352836 0.293573 0.042453755 0.01789349 0.14294422 0.18081045 0.06465324
-0.2787267 -0.09678634 0.29147816 -0.09772669 -0.02143489 -0.26294604 -0.0572591 0.078808695
-0.2487604 0.3967574 -0.3498918 0.0020688707 0.10715368 -0.15349726 -0.07099523 0.0150464885
0.16632102 -0.1682723 -0.19715449 0.246645 -0.082067534 0.04771624 -0.21181417 0.17029624
0.13315912 -0.21115802 -0.016061 0.2403158 0.6576404 0.29011557 0.1210919 -0.13114196
0.09428907 -0.15308551 0.0417169 0.015757194 0.40753362 -0.07937005 0.019518942 0.22813052
0.17436147 -0.10783277 0.19397703 0.26155412 -0.26567936 -0.3916334 0.078367315 -0.24784455
-0.18367538 0.024507772 0.017464474 -0.14672953 -0.08820678 0.13084124 0.1051744 -0.2531122
-0.15514793 0.052701063 0.15727629 -0.058765445 -0.0141636105 0.15809536 0.23324923 -0.09204177
-0.012037589 -0.01769878 0.097267516 -0.30941027 0.018598137 0.18850927 0.056389213 0.12982011
0.05374758 0.2771267 0.12158056 -0.32883394 -0.14305332 0.2266989 0.12126231 0.033415027

lstm.lstm_cell.weight_hh f4 [128, 32]
00000000: 7f04 fe3d c43c 1a3e fccf 84bc cb86 b53e
00000010: 67ef 10be 853c 3abf fd60 b23e b937 363e
00000020: e739 0c3f 6bb9 563d 6145 33be a448 cdbc
00000030: 9492 cbbd 5dc8 e1be 5516 cebd dd9c d9ba
00000040: ed74 053e 18c0 a8b7 a955 13bd 2e31 983e
00000050: 3d67 04bc f127 3abe 6bb9 8cbe 73a8 33be
00000060: 474f c43d 71f5 e93d e6b1 443d bd2b b5be
00000070: aeaf b53e 3da0 10be f711 733d bfd8 cc3c
00000080: ea3a 8f3c 55e7 f1be d8fb 193e 0359 acbe
00000090: b843 c03d c06d 8bbd d834 10be b7e1 0abe
000000a0: bd5b e6bd 1b16 acbc 4e4f b63e bf21 8cbb
000000b0: de85 883e 472e aa3e fabd 023e 293b cabe
000000c0: 0dbd bebe 3f09 b0be 3506 163f c3d2 d3bd
000000d0: 0365 a8bd cfcf c1bc ba38 c63e 05ef 1d3f
000000e0: ada7 86be 96f4 40be ffb6 0bbe 0d61 8e3e
000000f0: fff8 5d3e 0584 0c3d 9589 72be eefa 69bc
00000100: 5db3 09be b1ad 653e 8cf3 533c 140b 063e
00000110: 340a 83be 043c 74be c89b 143d f7c7 acbd
00000120: 14a8 963e e2ed 46bb 7236 da3b 55a8 57be
00000130: 87b5 2ebe 511a 0dbe 457f 8dbd 37ea 5ebe
00000140: 0f2b dd3d 59d0 9bbe f81e 12be 0a14 bb3e
00000150: 89a4 70be 839d 863e bbb3 debd 9dcd d23d
00000160: 3692 373e 486a 633e 7e8e d43e 6be5 6e3e
00000170: 09fc 573e 7c53 b0be 18d0 8dbe 645f d83e
00000180: b051 383f 5eb3 583d e0ba 123d be79 4e3e
00000190: 3169 9abd b3e7 353d bb2f b33e 2d36 5fbd
000001a0: e454 43bd bb57 a73e 4a9b 183c 3f0a 7dbe
000001b0: a7a6 9f3c 5714 1fbe 2068 c13d 9963 0fbe
000001c0: 6063 893c 77ac 2a3e 95ec 0abe f4cb 9c3d
000001d0: b998 e2bd b194 e3bd b8c1 563d 45c7 a0bd
000001e0: 593d 43bc b735 cebe 630f cdbc c94e 873e
000001f0: 0033 b7be eaa4 893d 5c9e 9dbe 6502 55be
00000200: 8bff d13e 1af7 10be 4c06 5d3d 0d62 71bc
00000210: b51f b63e 36bf 4b3e 761e db3e ccd0 543d
00000220: 1b8d 073f ec5c 943d d79f 61be 394c 26be
00000230: e0fc e9bd d786 d6bd be5b 603d 3e34 1bbe
00000240: 7c51 263d 1784 9dbe e3ab 9d3e 8831 93be
00000250: c7e8 853d 8b4e b13d fe00 243e 8858 233e
00000260: 1dac 973d 1c3d edbe a37f de3d 0777 84bd
00000270: 676d d3be 1118 3abd 6bf8 c43d 7402 65be
00000280: d43f 8abe c457 d23d f0e3 2dbc 1fe6 ad3e
00000290: df8e c2be 8f21 09bf a22d 9f3d 727c a63d
000002a0: 2e5c d7be 215f 1ebe 8af3 99be 73a2 86be
000002b0: 0c16 5f3e 140c 26be 1138 8cbe 130d d3be
000002c0: e34a 19bd 861a bfbe 501d 2b3e b0e5 e03e
000002d0: 0570 ed3e 328e ed3e 9356 aabe d1df d4bd
000002e0: 43d8 723e 0a1e debe a9a9 b23e 0bee 9fbe
000002f0: 062f c1bd bd3c 9bbe 8c17 3abd af6d a53e
00000300: 53ff 8b3b 3bfe babd e2e2 83bd 7895 d33d
00000310: 0269 5bbe bcc5 41be 761f 883d 8b17 13be
00000320: 5dbb 053f 5735 95bd 30a3 e1be cba6 50be
00000330: 51cf d9bd 8598 83be f6c6 1c3e 450d 853e
00000340: 453d 33bd edcd a63e 2a70 93be f3d4 32be
00000350: 08d9 06be e265 abbd 72aa 91be 0cac 603d
00000360: c0b4 383e 577b 01be 17a8 35be eb2c 4b3e
00000370: 730e 7ebe e95c cebd 76ad e0bd 4a79 33bd
00000380: cb08 aabd cb9f ed3d c543 c03d c0d2 2c3c
00000390: 990e 0d3e e6ce 7f3d cf32 b9be 767e 44be
000003a0: 07b3 c3be d4a4 b5be 17ce bdbd b54a 0fbc
000003b0: 736f b8bd 19c2 1bbe 6bc8 51be 00f5 0abe
000003c0: 8843 87bd 09bd 1abe fa3b 223e 2e9b 30be
000003d0: 3e15 013e c033 1f3f 2454 45be e83c 3f3d
000003e0: bbd5 bf3e 5f4f 37be 2ea7 af3e 1b22 a4be
000003f0: c3a3 b23e 6518 b63e a6e8 d73d 6f41 433b
0.12403201 0.15062243 -0.016212456 0.354544 -0.14153825 -0.72748595 0.3483962 0.17794694
0.5477585 0.052422922 -0.17506935 -0.025059052 -0.09940067 -0.44098178 -0.10062853 -0.0016602535
0.13032885 -2.0116611e-05 -0.035970364 0.2972502 -0.008081255 -0.18179299 -0.27485213 -0.17544727
0.095854335 0.11423767 0.04802122 -0.35384932 0.35485595 -0.14123626 0.059343304 0.025005696
0.017484147 -0.47246805 0.15037477 -0.3366166 0.09387916 -0.068080425 -0.14082658 -0.13562666
-0.112479664 -0.021006634 0.3560738 -0.004276484 0.26664633 0.33238432 0.12767783 -0.3949826
-0.3725361 -0.34382054 0.5860322 -0.10342934 -0.082223915 -0.023658661 0.38715154 0.6169284
-0.262998 -0.18843302 -0.13644026 0.2780842 0.21677016 0.03430559 -0.23685296 -0.014281018
-0.13447328 0.2242954 0.012936484 0.13090163 -0.25593722 -0.23851019 0.036281377 -0.08436578
0.29425108 -0.0030354192 0.0066593224 -0.21060307 -0.17061435 -0.1377957 -0.0690904 -0.21769033
0.107992284 -0.30432394 -0.14269626 0.36538726 -0.23500265 0.26292047 -0.108741246 0.10293124
0.17926869 0.22208512 0.41514963 0.23329704 0.21092238 -0.34438694 -0.27697825 0.42260277
0.71999645 0.052905433 0.03582275 0.20163628 -0.07539595 0.04441042 0.34997353 -0.054495025
-0.04768838 0.3268412 0.009314368 -0.2471094 0.019488646 -0.15535103 0.094436884 -0.14002837
0.016771019 0.16667353 -0.13566811 0.076560885 -0.11064286 -0.11112345 0.05243084 -0.07850508
-0.011916482 -0.40275356 -0.025031751 0.26427296 -0.35781097 0.06720908 -0.3078488 -0.20801695
0.41015276 -0.14156762 0.053961083 -0.01473285 0.35571066 0.1989716 0.42796677 0.051956937
0.52949685 0.07244286 -0.2203363 -0.16240014 -0.11425185 -0.104749374 0.054774992 -0.15156648
0.040605053 -0.3076484 0.30795202 -0.28748727 0.065385394 0.08657559 0.16016003 0.1595174
0.07405875 -0.46335685 0.108641885 -0.06468015 -0.41294405 -0.045433108 0.096176945 -0.22364217
-0.27001822 0.10270646 -0.010613427 0.3396463 -0.37999627 -0.5356683 0.07772376 0.08129205
-0.42062515 -0.15465976 -0.30068618 -0.26295814 0.21785754 -0.16215545 -0.27386525 -0.41220912
-0.037424933 -0.37324923 0.167104 0.43925238 0.46374527 0.4639755 -0.33269176 -0.10394252
0.2371531 -0.43382293 0.34895065 -0.312363 -0.09432797 -0.30319777 -0.045432612 0.32310244
0.0042723804 -0.09130522 -0.06439759 0.10331243 -0.21426776 -0.18923086 0.06646626 -0.1436445
0.5223902 -0.072855644 -0.44069815 -0.20376126 -0.106352456 -0.257023 0.15310273 0.25986686
-0.043759603 0.32578984 -0.28796512 -0.17464046 -0.13168728 -0.08369042 -0.28450352 0.054851577
0.180377 -0.12644707 -0.17739902 0.19841354 -0.248102 -0.10076315 -0.10970585 -0.043816842
-0.083024584 0.11602744 0.09387926 0.010548294 0.137751 0.062453173 -0.36171576 -0.19188866
-0.38222525 -0.35477316 -0.09267824 -0.008745839 -0.09005632 -0.15210761 -0.2048661 -0.13570023
-0.066046774 -0.15111174 0.15843192 -0.17246696 0.1260576 0.6218834 -0.19270378 0.046688944
0.3746775 -0.17901371 0.34307235 -0.3205727 0.34890565 0.35565487 0.10542421 0.002979364

lstm.lstm_cell.bias_ih f4 [128]
00000000: 6c2f 373d 78b8 103e 2890 b03e 66d6 b43e
00000010: 0e5e c93d 7d1c 863d 9a89 7d3e 0cfe 983e
00000020: d75a cc3e fb47 da3e b4e1 903e 97a2 413e
00000030: 8819 9ebd 36cd c9bc 4d20 823e 376c 903e
00000040: 32ab 783e 12c7 4e3e 93a7 ca3e 31f6 a73e
00000050: ecab 8a3e 3e85 80bc 9d7a f43d d5cd e53d
00000060: ec0a ebbc 96e6 783e c6b2 583e 5582 8e3d
00000070: 08f6 8f3e caf9 f0bb 61ac bf3e 69b4 7a3e
00000080: d35f e83d d8be 5f3d a0d4 f33d 2ef9 8c3d
00000090: f734 babd 853d a03e b3f9 a5bd 78ad 563e
000000a0: e48b 643e 2c8b 133d f21f 6e3e da7e 1f3d
000000b0: 4f00 bb3e e422 a43d 4701 203e 7884 b6bb
000000c0: 3baf 6f3e f75c 793e 167f b03e 53c7 fb3d
000000d0: d08d e63d b907 ca3d 69c6 b13e 6de0 3abd
000000e0: f0d2 013e 99b5 6fbc cdf1 5f3c cb89 043e
000000f0: 4a8f 9abe 44c3 3a3d 60d7 823e 70eb 113e
00000100: 9181 e6bd 7400 9139 44bc 63bc f4e5 7f3d
00000110: 8165 84bd cc3c 01be 9281 52bc 60bc d6bc
00000120: c958 0ebe 742f 303e e052 a2bd c80a dabd
00000130: 8312 253e 98a9 dfbd b40a dfbd fad6 bf3b
00000140: 5f11 08be a0c7 5bbe 5c39 9a3d 53de 233e
00000150: 6968 92bc 84da 543d a238 6bbc 3cb9 9a3d
00000160: 40db d7bd 102d 4bbd 12ab 2cba 372c 303e
00000170: 8753 3bbe e032 a23c 1fa4 043e 8cad 013e
00000180: f39c f23d ec32 263d 1acf ba3e dc92 b23e
00000190: 5b2b a43e 69d7 843e 73b9 8c3e 15b8 673d
000001a0: a305 db3d da97 3a3e 6257 333e c082 b1bd
000001b0: b8c5 f8bd 70f9 bb3d 7ace 223e 855c 823e
000001c0: ce49 1c3e aac2 ec3e e467 17bb e375 843e
000001d0: 98db 543e 628a 3b3e 6d92 ea3d c6fa ab3e
000001e0: 34f3 703c 86fe 8a3e ae83 d33d 6046 f93d
000001f0: 8420 803e edb7 ec3c 1805 763e 8d58 c73e
0.04472296 0.14132869 0.34484982 0.35319823 0.09832393 0.065484025 0.24759522 0.29881322
0.39913055 0.42633042 0.28297198 0.1890968 -0.077197134 -0.024633985 0.2541527 0.2820756
0.24284056 0.20193127 0.39580974 0.32805017 0.2708429 -0.015688535 0.11937449 0.112209
-0.028691731 0.24306712 0.21161947 0.069584526 0.28117394 -0.007353996 0.37436202 0.24482884
0.11346402 0.054625362 0.119057894 0.06883465 -0.090921335 0.31296936 -0.08104267 0.2096461
0.22318989 0.036021397 0.23254374 0.038939334 0.36523673 0.08014467 0.15625487 -0.0055699907
0.23406689 0.2435187 0.3447196 0.122938775 0.11257517 0.09864754 0.34721687 -0.045624185
0.12678123 -0.014630699 0.01366849 0.12943189 -0.30187446 0.045596376 0.25554943 0.14249969
-0.112551816 0.00027656893 -0.0138998665 0.06247516 -0.06464673 -0.12620848 -0.012848275 -0.026212871
-0.13901056 0.17205602 -0.079259634 -0.106465876 0.16120343 -0.10921019 -0.10890713 0.0058544846
-0.13287877 -0.2146287 0.07530472 0.16002779 -0.017872052 0.051966205 -0.014356764 0.07554862
-0.105398655 -0.04960352 -0.0006586771 0.17204367 -0.18293582 0.01979965 0.12953232 0.12663859
0.11846342 0.040575907 0.3648613 0.3487767 0.32064328 0.25945595 0.27485237 0.05657204
0.106944345 0.1822199 0.17513803 -0.08667517 -0.12147087 0.09178436 0.15899077 0.25461212
0.15262529 0.46242267 -0.0023102695 0.2587119 0.20786893 0.18314508 0.1145371 0.33589762
0.014706422 0.2714731 0.1032785 0.12171626 0.25024807 0.028896296 0.2402538 0.38934746

lstm.lstm_cell.bias_hh f4 [128]
00000000: 60bc 743e 6993 593e b4f2 8e3e 2d39 c83e
00000010: c4b3 823e 883a a73e a0d8 143e 3f18 2d3e
00000020: 398c 903e 59ab d13d fc07 0b3f f688 973e
00000030: 907f 1a3e cb6b 63bd e5f9 963c 72b4 493d
00000040: 2968 c13e cc9a 363e 1d69 a13e 837e da3e
00000050: d680 9c3d 135f 9c3e 9bea 813d 2ea1 b73e
00000060: 7656 ce3d 2417 973e 8cf2 9b3c 79f7 2f3e
00000070: 1a5f 7e3e 20dc 0d3c b1da 5f3e c959 3e3e
00000080: 7de4 193e 7ace 33bd bda1 8f3d 2e39 d13d
00000090: 66f2 06be 9329 c43c 3bb1 1d3e f58a 9f3d
000000a0: e11f b23d 9774 533e 9124 b13d dc4c 753e
000000b0: ef05 923e 4983 ef3c 7d87 cf3d b3c3 253e
000000c0: 96b1 b2bd 8a95 903d 9c53 903e d099 ec3b
000000d0: 2f74 ad3e 053b afbd 8d2a 0f3d 0439 ccbd
000000e0: aaad bd3c 8b36 48be 0ca8 933d c5d5 56bd
000000f0: 4649 95bd 68b1 6f3e fc48 3f3e ea0b 643e
00000100: 3749 563d ca94 38be 314a a53d 1909 35bd
00000110: 2ebb 213e cb70 9c3d 84d4 dd3d c269 54be
00000120: afae dbbd 71f3 ec3d 68b4 16bd 2aa6 c6bd
00000130: ad89 d63c 7280 a53d 5ad7 d7bd 16b8 25be
00000140: 46d8 a0bc da27 743d 3c6d 03be facd 2ebc
00000150: 95cb 00be 0a7e 1ebd a5d0 36be 1299 b9ba
00000160: 699c 0a3e e63e 08be 0068 11be 2b17 c03d
00000170: 5941 1dbe 467f 163e fd0f bcbd e332 6d3b
00000180: 8e4b 663e 435b a0bc 0cd9 503e 742e a13e
00000190: b854 c53e 03a4 823d 941e 813e 00c7 403e
000001a0: 82e3 6d3d 0293 7c3e f7bc 2b3e c275 03bb
000001b0: ecc0 c53d 1256 fd3d c97f 8d3e 416d a73e
000001c0: b289 9d3d 3cfb 623e 999d 6e3e 52c3 bb3d
000001d0: f8f9 783e c229 0f3e b2fd 5d3e b772 9a3e
000001e0: 279a d33c dd99 503e 4783 4c3d 1471 2a3e
000001f0: c2c8 933e 47a3 8d3e 3b89 fe3e f30b d03e
0.23899984 0.21247639 0.27919543 0.39106122 0.25527775 0.32661843 0.14535761 0.1690378
0.2823198 0.1023776 0.5430906 0.2959668 0.15087724 -0.05552272 0.018429706 0.04924435
0.3777478 0.17832488 0.31525508 0.42674646 0.07641761 0.30541286 0.063435756 0.35865158
0.10075085 0.29509842 0.019036554 0.17184247 0.24840966 0.008658439 0.21860768 0.18588938
0.15028568 -0.043898083 0.07013271 0.10215984 -0.13178405 0.023945605 0.1539964 0.07790176
0.08697487 0.20649944 0.086495526 0.23955101 0.28520152 0.029237406 0.10133264 0.16187935
-0.08725278 0.07059772 0.2818879 0.0072204843 0.33877704 -0.08556179 0.03495269 -0.09971812
0.023154099 -0.19552056 0.07209787 -0.05244996 -0.072893664 0.23407519 0.18680185 0.2227017
0.052315917 -0.18025509 0.080707915 -0.04419813 0.1579406 0.07638701 0.1083155 -0.20743468
-0.107266776 0.1156987 -0.036793143 -0.09699662 0.026188696 0.080811396 -0.10539122 -0.16183504
-0.019634377 0.059608318 -0.12834638 -0.010669226 -0.1257766 -0.03869442 -0.17853029 -0.0014159998
0.13536228 -0.13305244 -0.14199829 0.09379419 -0.1535696 0.14696988 -0.09182737 0.003619366
0.2248976 -0.019574767 0.20395297 0.31480753 0.38541198 0.06378939 0.25218642 0.18825912
0.058078296 0.24665454 0.16771303 -0.0020059203 0.096559376 0.12369932 0.27636555 0.32700542
0.07692279 0.22166151 0.23302306 0.09168114 0.24314106 0.13980773 0.21678808 0.30165645
0.025830342 0.20371194 0.049929883 0.16644698 0.28864104 0.27663633 0.49714074 0.40634117

mlp.0.weight f4 [16, 32]
00000000: 4d41 fb3e 9029 97bd 4855 d13d ed92 863d
00000010: f8d1 f03d 5852 733d 31a8 d8bd 51d6 a1bd
00000020: 45df da3e 0f54 84bc 95ae 52be 7fcd 4d3e
00000030: 72d8 17be 634c 3f3d 8892 c73e 05c8 34be
00000040: 53d5 5b3e 5b15 953e fb95 453d 9103 073d
00000050: 2614 8f3e d5d4 9abe 1f15 9a3e 3fe9 93ba
00000060: f76c 6ebe d522 8c3e c28d 983d 6954 b9be
00000070: 69d7 de3e 3915 153c c282 a0be c15e d13d
00000080: e7fc c4be e251 8d3e b042 87be 9680 e13e
00000090: cb62 4ebe 144e 063f fb8c 50be 79e8 003f
000000a0: 1e12 fabd df04 b5be f77e fdbe d0ac c3bd
000000b0: 120d 523e 5b6f 1ebf 8bdd 883d 516d 49be
000000c0: 0062 9a3e 84eb 10bf a773 17be 0107 ab3e
000000d0: a6db 1b3e 0a7a 7b3e 2a7b d6bd e621 0e3f
000000e0: 1d64 52be d3b8 a1be 0e73 e53d 490d cfbd
000000f0: 8f07 8ebd 3051 8d3e b3cd d33e f268 02bf
00000100: 513a c0bd 4670 8dbe 7941 9ebe f266 f1be
00000110: 50b8 9d3e ffde 143e 374f cd3c 489e 9dbd
00000120: 1135 9abe 3c90 8f3e 07df fd3e a40f 9c3e
00000130: 2ecd a9bc 8123 723d 5bc4 73be 4011 8d3e
00000140: 8453 02be 5cc0 b63e cd8b 0a3d e7c8 83bb
00000150: 09b5 993e c805 233e 1010 8cbc e3e3 91bd
00000160: 2830 dc3e e11b c4bb db05 8ebd fd30 043e
00000170: 5db5 023e f4c5 16be 8b10 dc3d 62f6 23bc
00000180: fbf4 50be 46da 433c 0885 dcbd 33eb ca3d
00000190: bdc5 bc3d 9911 67be 377f 2f3e 48b6 3dbe
000001a0: cd94 b2be 74e1 9e3e b5f0 c23d 83c6 90be
000001b0: 8631 17be 1e89 f73d 7c19 cebe 1879 f5bc
000001c0: 063c 89be 1368 67bb 0ec6 a0be a741 d53d
000001d0: 7c0f e5bd 2b54 a63c 0600 273d fbdb c2be
000001e0: 95cc d53e 5b95 75bc 20f5 283e a5ad b03e
000001f0: 3beb ae3d 816a 15be 293a 86be d4b0 dc3e
00000200: 2c19 9b3c 24ab 64bc 0d86 2cbe d488 0bbe
00000210: a059 9abc b97a 823d 7be6 be3e c9bc 15bf
00000220: 467d 223d 81c8 703e d6a6 d33d 2830 ad3d
00000230: 310b 6b3d 26bd 723e aa86 85be 5f49 183e
00000240: 5220 39bc 9c46 3f3e be81 afbe 6afe f2b9
00000250: 49d2 fdbc f934 f9bc 6d8e f03d 0619 dfbe
00000260: 875c ccbc f477 05bd 8a0b 82be 35d7 bb3e
00000270: 4e6e 0abe be75 71be ddad e43d 5549 0ebe
00000280: 4cca 2c3e 476f 43be cac7 623d c696 fdbd
00000290: 8efc b33e e1c3 84bc 116d 4f3d 4bfe 80be
000002a0: 1279 183b 4c70 ef3d 9303 083f 5268 bb3e
000002b0: 809c 233d 1d3f 593e ab64 3e3e 6acb 863e
000002c0: 8777 17be 36d0 c23a f3c1 d33e a050 02bf
000002d0: 5bcf b1bd edfd b33c 5ab4 e4bd 92e8 2b3e
000002e0: cba5 063d 6545 cf3d 37bf 10bf ee1d 4cbe
000002f0: 614c ce3d f7d6 d4bd 3439 be3e 0a34 02be
00000300: 9323 543d 9ac7 d2be 7c6f 623d c451 023c
00000310: 7201 913e c4db 263c 654a a63e f1bd fbbe
00000320: c2f5 2abe 2b0f ed3d 7419 d53e 4291 a6bd
00000330: 4e4a 0e3e d024 053e 66fe 0dbe 0c3c ff3d
00000340: 0cc5 9bbe f4b0 b33e 2660 c03e a7e5 da3d
00000350: 7602 94be 4e09 013e e3f5 2ebe f8be b5be
00000360: 080e 2d3d 152c 263e c159 69be b59a 1f3e
00000370: bfa3 b33d 53e1 51be 1d77 ff3d 31fb 673e
00000380: 5ef4 0fbd d920 01be 1f2b 6e3e ca68 823e
00000390: 0b59 92be b4d8 cdbe 697d 2f3e 5012 acbe
000003a0: 6c00 01bf ef11 97bd 2b16 2dbe c6d3 85be
000003b0: 646a 253d eb29 b43e b0a5 cbbe bca5 3abe
000003c0: 2828 e9be f90f b33d abc5 823e be9a 59be
000003d0: 3456 95be 024d 6a3e fcd6 f1bd 6a15 3bbe
000003e0: 7fcb c33e 0083 603e 31e6 d7bd 80d7 27bb
000003f0: aa18 1bbe 9648 58be daab 9abe d75e da3e
0.49073258 -0.07380974 0.10221344 0.065709926 0.11758798 0.0594047 -0.10578955 -0.07902206
0.42748466 -0.016153364 -0.2057441 0.20097922 -0.14828661 0.046703707 0.38978982 -0.17654426
0.21468095 0.29117855 0.048238736 0.032962386 0.2794506 -0.30240503 0.3009424 -0.0011284723
-0.23283754 0.27370325 0.07448913 -0.36197212 0.4352372 0.009099298 -0.3134976 0.10223151
-0.384742 0.27601534 -0.26418066 0.44043416 -0.20154874 0.5246289 -0.2036628 0.50354725
-0.12210487 -0.3535528 -0.4951093 -0.09554446 0.20512798 -0.61888665 0.06682881 -0.19670607
0.30152893 -0.5660937 -0.14790212 0.3340378 0.15220508 0.24558273 -0.104727104 0.55520475
-0.20546003 -0.31586322 0.112035856 -0.10109956 -0.069350354 0.27601004 0.41367874 -0.50941384
-0.09386123 -0.2762472 -0.30909327 -0.47148854 0.30804682 0.14538191 0.025062187 -0.076962054
-0.3011861 0.2803973 0.4958422 0.30480683 -0.02072772 0.05911589 -0.23805372 0.27552223
-0.12727171 0.35693634 0.03382473 -0.004021752 0.3002093 0.15920174 -0.017097503 -0.07123544
0.4300549 -0.0059847687 -0.069347106 0.12909313 0.12764497 -0.1472395 0.10745343 -0.010007473
-0.20405953 0.011953896 -0.10767561 0.09908142 0.09217403 -0.22565307 0.17138372 -0.18526566
-0.3487915 0.31031382 0.095185675 -0.28276452 -0.14764985 0.120867 -0.40253818 -0.029964969
-0.26803607 -0.0035309836 -0.31401104 0.10412913 -0.11184594 0.020303806 0.040771507 -0.38058457
0.41757646 -0.014989222 0.16499758 0.3450748 0.085409604 -0.1459141 -0.26216248 0.4310366
0.018932901 -0.013956819 -0.16848011 -0.13626415 -0.018841565 0.06371064 0.37285218 -0.5849119
0.03967025 0.23513986 0.10334556 0.08456451 0.05738372 0.23704967 -0.26079303 0.14871739
-0.01129921 0.18679279 -0.34278673 -0.0004634739 -0.03098406 -0.030420767 0.117459156 -0.4357378
-0.024946464 -0.0325851 -0.2539943 0.36687627 -0.1351864 -0.23580071 0.11165974 -0.13895161
0.16874045 -0.19085418 0.055366315 -0.123822734 0.3515362 -0.016206684 0.050641123 -0.2519401
0.0023265523 0.11691341 0.53130454 0.36603028 0.039944172 0.21215482 0.1859309 0.26327068
-0.1479169 0.0014863077 0.4135891 -0.50904274 -0.08682128 0.021971667 -0.11167212 0.16787937
0.032872956 0.10120658 -0.5654177 -0.19933292 0.10073162 -0.10392564 0.37153018 -0.12715164
0.05179174 -0.4116791 0.0552821 0.007954065 0.28321415 0.010184232 0.32478634 -0.4916835
-0.16695312 0.11575159 0.41620982 -0.081331745 0.13895532 0.13002324 -0.13866577 0.12462625
-0.30423772 0.35095942 0.37573355 0.10688334 -0.28908128 0.12601206 -0.17085986 -0.3549726
0.04224971 0.16227753 -0.22788145 0.1558636 0.087714665 -0.2049611 0.12473891 0.22654416
-0.035145156 -0.12610187 0.23258637 0.25470573 -0.2858356 -0.40204394 0.17137684 -0.3360772
-0.5039127 -0.073764674 -0.16902988 -0.26138133 0.040384665 0.3518823 -0.39774847 -0.18227285
-0.4553845 0.08743281 0.25541434 -0.21250436 -0.2916733 0.22880939 -0.11808583 -0.18269888
0.38241193 0.21924973 -0.105419524 -0.0025610626 -0.15146127 -0.2112144 -0.30209237 0.42650482

mlp.0.bias f4 [16]
00000000: 842e 1cbd f78f 2f3e 3f1a 283e 2097 893e
00000010: b46b cd3b 44d4 333c 9d1b 503e e103 873d
00000020: a606 91bd 9e0f 713c 3402 913e 9756 083d
00000030: f774 873e 5623 e03d d498 a63e d668 833e
-0.0381303 0.17144762 0.16416262 0.26873112 0.0062689427 0.010975901 0.20323034 0.06592537
-0.07081346 0.014713196 0.28321993 0.033285704 0.26456425 0.1094424 0.32538474 0.2566592

mlp.3.weight f4 [2, 16]
00000000: f541 d13e f908 333f a386 a9be b32b 91be
00000010: 33b0 02bf 1fdd 24bf 5a17 bcbe 00d3 1cbf
00000020: 8558 263f f75b 013f 3395 14bf 972b 97be
00000030: ed7a f7be 21c1 28bf 83ce f2be 6ddc bd3e
00000040: d386 0abf af97 2fbf 9e49 b93e ccca fc3e
00000050: fcfa 0b3e d731 183f d25c 153f ca66 f53e
00000060: 07a2 16bf bf30 9bbe 5bbe 113f 93be b73e
00000070: 2ac2 073f d1fb e63e f064 a33e 64b0 25bf
0.40870634 0.69935566 -0.33110532 -0.28353652 -0.5105011 -0.64399904 -0.36736566 -0.6125946
0.6497882 0.5053095 -0.5804016 -0.29525444 -0.48335972 -0.6591969 -0.4742318 0.37082234
-0.54111975 -0.68590826 0.36188978 0.49373472 0.13669962 0.5945105 0.5834476 0.47929984
-0.58840984 -0.30310628 0.56931084 0.35887584 0.53030646 0.45113996 0.31912947 -0.64722276

mlp.3.bias f4 [2]
00000000: 557c c93c 9998 19bc
0.024595419 -0.009374761

weight f4 [28, 30]
00000000: 0000 0000 0000 0000 0000 0000 0000 0000
00000010: 0000 0000 0000 0000 0000 0000 0000 0000
00000020: 0000 0000 0000 0000 0000 0000 0000 0000
00000030: 0000 0000 0000 0000 0000 0000 0000 0000
00000040: 0000 0000 0000 0000 0000 0000 0000 0000
00000050: 0000 0000 0000 0000 0000 0000 0000 0000
00000060: 0000 0000 0000 0000 0000 0000 0000 0000
00000070: 0000 0000 0000 0000 a6fa fb3d f04c b53d
00000080: 62ef 5ebf 2154 a73f b7f9 f4be 5836 323e
00000090: 4937 63be d3fe dabe bf0e 853f bc25 c2bf
000000a0: 252b 95be 2bfb 393f a093 b13f 5e0b 1fbf
000000b0: 790c 8a3f 415e 49be faa4 973f 82e3 4d3f
000000c0: 057b abbe ad05 87bd 3ed2 febd 9267 5abf
000000d0: ea08 9d3f e1f6 00c0 5937 483e b2ca cbbf
000000e0: aff0 10bf 3624 cd3e 299b 33bf b24b 093e
000000f0: 80b2 0140 d01f 833f b38f d7bf e03b 513f
00000100: 735c 893e 0425 83bf 30b2 a23f 3ac7 9bbe
00000110: a0a9 2cbf 751c a53f 7868 b5be a8b8 64bf
00000120: fabf 8fbf 672d 87bf 518b 82bf f751 14bf
00000130: 23e0 e5bd 530c a1bf 9499 0140 b0c3 b23e
00000140: 3ce4 83bf eda1 613f 9b52 9fbe 5672 00bf
00000150: b779 0dc0 d35f 0240 a0a6 d1bf 8690 cebf
00000160: 355a 8cbf 4667 e63f 2a89 64be 9e3b 8a3f
00000170: 4df2 5fbf 8269 d03f be38 2cbf ab41 4e3f
00000180: 6251 ad3f b920 8fbe 1a38 ac3f e29b e43f
00000190: 645a 81bf 21a4 ecbf a2c3 c43d 7e92 4bbf
000001a0: 5746 663f 3134 603e 16e6 87bf 9c38 d5be
000001b0: d67c d83f 7260 5abf a63d 803f fc79 b63e
000001c0: 3991 243f 3723 723f 6195 7b3c ecfb 8dbf
000001d0: cbf1 c3bf 3fcf a3bf 1d9d d93e ec49 8c3e
000001e0: 91c7 0f3e 5d4a 1a3e 6db7 4b3e c70b 3f3f
000001f0: d346 84bf 7693 85bf 5063 c03e 207a e6bf
00000200: 94a8 b63f d515 1bbf 29f2 96be 9fb7 dabe
00000210: 9d1d 1a3f b917 6a3e 4574 5a3f 6a11 ae3e
00000220: 2336 4bbe 26c8 9ebf bbd6 b63f 5999 f1bf
00000230: 023d ebbe 1311 3f3f 5b2f 1f3f 6af4 4040
00000240: 2fd0 03bf eef3 8ebf 440f 8bbe 24df 8fbd
00000250: f60f 15c0 d933 353f 2e43 cc3e d96a 913e
00000260: a77d 4c3f e183 60be ebc3 8bbe 4a54 28bf
00000270: 6f7e 6f3f 1fda 733f 185b 8ebf 27dc 293f
00000280: e09a b53e 9d3e a5be 6ff8 293f 6d72 f8bf
00000290: d191 b23f a4c6 6abe eac8 85bf 627a a93e
000002a0: 351e 6abf 31cb 1cbf 51f0 20bf a20a cc3d
000002b0: d58e 67bf 5701 96bf af41 013f 7854 083f
000002c0: 4998 bf3f f04f 8c3e 10cf 993e 9c6e 8dbf
000002d0: 7d1d 45c0 bf05 323f 9a52 73bf 5768 df3f
000002e0: b261 0c3f 0669 d23f 3eae af3f 0837 4f3f
000002f0: 3fb4 11bf 8272 1cbf e3f9 8bbf 3e16 d83f
00000300: d395 02bf 81e9 4fbf d726 2dbf 428d a2be
00000310: 9fac efbf 35eb 643f 78e2 45bf 2afe 94bf
00000320: e791 1dc0 8ed5 8cbf a1ae fa3d 1edb d33f
00000330: 8720 cf3d 3ae5 68bf 6bb2 ebbf aaba c83f
00000340: 1739 433e 6a35 923f 1ea6 5740 7997 6e3f
00000350: 3494 7b3f e10a 403f 5cd1 77bf 8535 d13e
00000360: 67be 673f c243 293f 39ab d5bd 886c 63bf
00000370: 651a 9abc 7c7a 0e3f 247f a3bf 65d6 b4bf
00000380: b5d9 98bf 1a60 253f bdca 6f3f c3fe a93f
00000390: ead8 8f3f 7c06 993f 7c59 233f e91c 03bf
000003a0: a61d b53f 2979 523f 34b4 9d3f 592e a3be
000003b0: b454 d9be 23c4 1d3f 13a4 0140 471a 4abf
000003c0: ff1f 713c 852a 633f 0f85 ae3f 3ed0 af3f
000003d0: 42f8 87bf 17d5 35bf 0028 82be f003 da3e
000003e0: 072e c63f 1c76 a83f 2f42 aebf 2cd9 a4bf
000003f0: 89a6 e5be 557a 7bbf 71a5 9ebf d9e2 eabe
0.0 0.0 0.0 0.0 0.0 0.0 0.0 0.0
0.0 0.0 0.0 0.0 0.0 0.0 0.0 0.0
0.0 0.0 0.0 0.0 0.0 0.0 0.0 0.0
0.0 0.0 0.0 0.0 0.0 0.0 0.12303667 0.08852565
-0.8708402 1.3072549 -0.47846767 0.17403543 -0.22189058 -0.4277254 1.0395125 -1.5167766
-0.2913448 0.72648877 1.3873177 -0.6212672 1.0785056 -0.19664861 1.1847222 0.80425274
-0.33492294 -0.065928794 -0.12442444 -0.85314286 1.2268345 -2.0150683 0.19552363 -1.5921233
-0.56617254 0.4006669 -0.7015863 0.13407782 2.0265198 1.0244083 -1.6840729 0.81731987
0.26828346 -1.0245671 1.2710629 -0.30425435 -0.6744633 1.2899309 -0.35431266 -0.89344263
-1.1230462 -1.0560731 -1.0198766 -0.5793757 -0.11224391 -1.2581886 2.0249987 0.34914923
-1.0304027 0.88137704 -0.3111771 -0.5017446 -2.210554 2.0370986 -1.6378975 -1.6137855
-1.0965029 1.8000267 -0.22317949 1.0799444 -0.87479097 1.6282198 -0.6727408 0.8056895
1.3540461 -0.27954653 1.3454621 1.7860072 -1.010571 -1.8487588 0.096076265 -0.79520404
0.8995108 0.2189491 -1.0617092 -0.41644752 1.6913097 -0.85303414 1.0018814 0.35639942
0.6428409 0.94584984 0.015355439 -1.1092505 -1.5308164 -1.2797621 0.4250268 0.27400148
0.14040972 0.1506743 0.1989419 0.74627346 -1.0334114 -1.0435627 0.3757577 -1.800602
1.4270196 -0.6058019 -0.2948163 -0.42718217 0.60201436 0.22860612 0.85333663 0.3399766
-0.1984487 -1.240483 1.428428 -1.8874923 -0.45944983 0.7463543 0.62181634 3.0149179
-0.5148954 -1.1168191 -0.27160084 -0.070249826 -2.3290992 0.7078224 0.39895004 0.2840183
0.7987923 -0.21925308 -0.2729791 -0.65753615 0.935523 0.952547 -1.112155 0.6635155
0.35469723 -0.32274333 0.66394705 -1.940992 1.395075 -0.22927338 -1.0451939 0.33101183
-0.9145234 -0.61247545 -0.62866694 0.099629655 -0.9045232 -1.1719159 0.5049085 0.5325389
1.4968349 0.27404737 0.3004079 -1.104938 -3.0799248 0.6954002 -0.95047915 1.7453717
0.5483657 1.6438301 1.372505 0.80943346 -0.5691566 -0.61112225 -1.0935634 1.6881788
-0.51009864 -0.81215674 -0.6763739 -0.31748396 -1.8724555 0.894214 -0.7729869 -1.1640065
-2.4620302 -1.1002672 0.12240339 1.6551244 0.10113626 -0.9097477 -1.8413824 1.5681965
0.19064747 1.1422551 3.369514 0.9319988 0.98273015 0.750166 -0.9680383 0.40861145
0.90524906 0.66119015 -0.10433049 -0.8883748 -0.018811414 0.55655646 -1.2773175 -1.4127928
-1.1941439 0.64599764 0.9366873 1.3280872 1.1238072 1.1955104 0.6380842 -0.5121599
1.4149673 0.82216126 1.2320619 -0.31871298 -0.42447436 0.61627406 2.0256393 -0.78946346
0.014717101 0.88736755 1.3634356 1.3735425 -1.0622637 -0.71028274 -0.25421143 0.4258113
1.5482796 1.3161044 -1.3613948 -1.2878776 -0.4485362 -0.9823354 -1.2394239 -0.45876196

weight_ih f4 [128, 30]
00000000: 74e2 983c 6225 8f3e 7842 9e3d c1b4 f03b
00000010: 9740 88bc 2ea3 b7bd bb7e 49be a828 e8bd
00000020: 27d8 99bd 7bab 653e 9616 a53e c854 243d
00000030: 450b 1ebe 24fa a43d 222e 6cbe 638f 90be
00000040: fd0c a03d 9c6d 903e 0062 1abe c19d ad3e
00000050: ed44 5f3d b619 4d3e 0e7f 3ebe fa7a 48bc
00000060: 21b0 a0bb f8a0 a03e 3648 213e 07a1 d0be
00000070: 7bad 4a3d e9db f4bd 9fa9 ed3c ed5e ee3d
00000080: 4b82 44be 829a 24bc bae5 dbbe b835 76be
00000090: 7095 893c 4ea3 7a3e 0d58 2e3e 97e3 b03d
000000a0: 78dd 6b3c 9959 53be 12ae fb3d 0862 923e
000000b0: 540b ef3d fe2b 8a3e b861 1abd 8843 03be
000000c0: 9e62 043e 7a9f 2cbe 2165 02be 789e 953d
000000d0: c845 343e cb4a 843e ae80 6ebe 8101 c73b
000000e0: 298b 11be df35 2ebe 63fa 18be 91e9 a13d
000000f0: 1da0 133f e824 b93d 6cdb 723e f867 663e
00000100: 851f d8bd 5b95 f4bd 74da 4e3e acdf 0cbc
00000110: f1d3 343e 171c 58bd d936 b9bd be06 18be
00000120: 2fc9 3d3b 4be4 05bd 90f2 b0be 6fcb 8dba
00000130: ef23 28be f299 873d a0eb a53e e803 ebbd
00000140: f5ff 99bc ffe7 783c 2868 7cb9 74b7 133e
00000150: 35ec 863e 1013 9bbd 2b46 373d d196 1c3e
00000160: a469 ddba ec1a b73d ceb8 833e 5f39 8b3c
00000170: f5be 173b 2b93 c7bd f782 7fbe 8c5c 72bd
00000180: eb40 7c3d 782c 27be edad a33e 9d43 8a3d
00000190: ad90 1a3e d783 57be 0057 7dbe cae7 b73c
000001a0: 1c77 56be 3dcd 6c3d 1d34 6bbc 5d5b 5a3d
000001b0: f16d 6f3d d8f5 903d 30b3 3bbe a542 a73d
000001c0: 1304 bc3d 0eea ec3e 36cf 11be 463e d03d
000001d0: b602 5bbe 90ed 10be 70ce 70bd f423 1f3e
000001e0: c4be 083e 17a2 49be 6fe0 4ebe fe47 013e
000001f0: 1af0 4a3e c61c c03d f0d8 a53d 4ee6 63be
00000200: 03f3 133e 5569 ffbd 0c6e 523d e6c7 52bd
00000210: 06b5 c5bd 30e5 98bd 0d28 34be 8468 023d
00000220: d9fc e8be e022 dfbd 2485 133e 3ed9 7dbc
00000230: a874 36bd 6e9d 35be e59c 6a3e 3ef4 9d3e
00000240: ee9e 48be 994e aa3d 80f5 9cbe 335d 9b3e
00000250: 3f6d 87bd 515f 433e bdd2 8e3c a48a dbbc
00000260: 303a fb3d 7125 76bd 19a8 16be dd1a a63e
00000270: 6014 43be d101 38be 0e35 c33d fd6b 39be
00000280: cc42 d73d 24ff 84be f196 223d 1887 e03d
00000290: 192c f03d cd43 343e ac7d 843e 0d89 ecbc
000002a0: 5fe1 babd c987 0a3e 334f 963e fde3 2d3d
000002b0: 5e95 923c f85f 123e 6026 393e eb68 843d
000002c0: 44b5 8ebe eb37 c6bd a03c 953e ee24 c8bd
000002d0: 3998 afbc dda0 86be 8588 6abd 7466 a13d
000002e0: 0cbb 7ebe c923 cb3e 0525 b3be e495 073b
000002f0: 6373 db3d 632e 1dbe f265 91bd 8c85 763c
00000300: 0f50 2a3e 934f 2cbe dee2 49be 8290 7c3e
00000310: 0613 a8bd 1b72 433d d0e5 58be 2362 2e3e
00000320: dd5a 083e cf39 58be 5c92 83bc 5815 763e
00000330: 1f5b 283f 078a 943e 08ff f73d 144a 06be
00000340: a11a c13d 73c2 1cbe 57df 2a3d 3b15 813c
00000350: 3fa8 d03e c48c a2bd 30e6 9f3c 0c9b 693e
00000360: d08b 323e 6dd7 dcbd eaa1 463e 6cea 853e
00000370: 2007 88be 2c84 c8be 0b7f a03d f6ca 7dbe
00000380: 6615 3cbe 86c4 c83c a811 8f3c 4440 16be
00000390: c2a5 b4bd 3ffb 053e ad65 d73d ec97 81be
000003a0: 19df 1ebe 12dd 573d 090d 213e 09b4 70bd
000003b0: 7d0e 68bc c0e3 213e e3d8 6e3e 6580 bcbd
000003c0: 4f39 45bc 08fd 90bc 3134 c73d 066b 9ebe
000003d0: 1f5b 983c 9308 413e 60f8 663d 90ef 043e
000003e0: 6c26 5c3d 8de3 8d3e 3bff f83d ec5c a8be
000003f0: 927c 12be c223 683e 6058 f83d 32de 083d
0.018662669 0.27958208 0.07727522 0.0073457663 -0.016632361 -0.08966671 -0.1967725 -0.113358796
-0.07511931 0.22428696 0.32243794 0.040119916 -0.15433986 0.08055523 -0.23064473 -0.28234395
0.07814977 0.28208625 -0.15076447 0.3390942 0.054509092 0.20029339 -0.18603155 -0.012236351
-0.0049038087 0.3137281 0.15750203 -0.40747854 0.04948185 -0.11956007 0.029011546 0.116391994
-0.19190328 -0.010046603 -0.42948705 -0.2404393 0.01679489 0.24476358 0.17025776 0.08637159
0.014396064 -0.20639648 0.12289061 0.28590417 0.116720825 0.26986688 -0.037690848 -0.1281873
0.12928244 -0.1685771 -0.1273389 0.07305616 0.17604744 0.25838313 -0.23291275 0.0060731773
-0.14213242 -0.17012738 -0.14939265 0.079058774 0.5766619 0.090402424 0.23716515 0.22500598
-0.10552887 -0.1194255 0.20200521 -0.008598249 0.17658974 -0.052761164 -0.090436645 -0.14846322
0.0028959026 -0.03268842 -0.3456006 -0.0010818074 -0.16419958 0.066211596 0.3240633 -0.114753544
-0.018798808 0.015192031 -0.00024071394 0.1442545 0.26352087 -0.07571995 0.04474465 0.15291907
-0.0016892445 0.08940682 0.25726932 0.01699513 0.002315459 -0.09744867 -0.24952303 -0.05917029
0.061585348 -0.16325557 0.31968632 0.067511775 0.15094252 -0.21046387 -0.24740219 0.022449393
-0.20943874 0.057812918 -0.0143556865 0.053309787 0.058454458 0.07078141 -0.18330073 0.08167008
0.091804646 0.4627232 -0.14239201 0.10168128 -0.21387753 -0.14153123 -0.058790624 0.15541059
0.13354021 -0.19690739 -0.20202802 0.12625119 0.19818154 0.09380488 0.08098018 -0.22255823
0.1444817 -0.12471262 0.05137448 -0.05146017 -0.09653668 -0.07465589 -0.17593403 0.031837955
-0.45505407 -0.10895324 0.14406258 -0.015493689 -0.044544846 -0.17735836 0.22911413 0.30850405
-0.19591877 0.083157726 -0.30656052 0.30344543 -0.06612634 0.19079329 0.017434472 -0.026799507
0.12266958 -0.0600943 -0.14712562 0.3244237 -0.19050741 -0.17969443 0.09531604 -0.181076
0.10510787 -0.25975907 0.03969473 0.10963267 0.11727161 0.17603989 0.2587713 -0.028873945
-0.091250174 0.1352836 0.293573 0.042453755 0.01789349 0.14294422 0.18081045 0.06465324
-0.2787267 -0.09678634 0.29147816 -0.09772669 -0.02143489 -0.26294604 -0.0572591 0.078808695
-0.2487604 0.3967574 -0.3498918 0.0020688707 0.10715368 -0.15349726 -0.07099523 0.0150464885
0.16632102 -0.1682723 -0.19715449 0.246645 -0.082067534 0.04771624 -0.21181417 0.17029624
0.13315912 -0.21115802 -0.016061 0.2403158 0.6576404 0.29011557 0.1210919 -0.13114196
0.09428907 -0.15308551 0.0417169 0.015757194 0.40753362 -0.07937005 0.019518942 0.22813052
0.17436147 -0.10783277 0.19397703 0.26155412 -0.26567936 -0.3916334 0.078367315 -0.24784455
-0.18367538 0.024507772 0.017464474 -0.14672953 -0.08820678 0.13084124 0.1051744 -0.2531122
-0.15514793 0.052701063 0.15727629 -0.058765445 -0.0141636105 0.15809536 0.23324923 -0.09204177
-0.012037589 -0.01769878 0.097267516 -0.30941027 0.018598137 0.18850927 0.056389213 0.12982011
0.05374758 0.2771267 0.12158056 -0.32883394 -0.14305332 0.2266989 0.12126231 0.033415027

weight_hh f4 [128, 32]
00000000: 7f04 fe3d c43c 1a3e fccf 84bc cb86 b53e
00000010: 67ef 10be 853c 3abf fd60 b23e b937 363e
00000020: e739 0c3f 6bb9 563d 6145 33be a448 cdbc
00000030: 9492 cbbd 5dc8 e1be 5516 cebd dd9c d9ba
00000040: ed74 053e 18c0 a8b7 a955 13bd 2e31 983e
00000050: 3d67 04bc f127 3abe 6bb9 8cbe 73a8 33be
00000060: 474f c43d 71f5 e93d e6b1 443d bd2b b5be
00000070: aeaf b53e 3da0 10be f711 733d bfd8 cc3c
00000080: ea3a 8f3c 55e7 f1be d8fb 193e 0359 acbe
00000090: b843 c03d c06d 8bbd d834 10be b7e1 0abe
000000a0: bd5b e6bd 1b16 acbc 4e4f b63e bf21 8cbb
000000b0: de85 883e 472e aa3e fabd 023e 293b cabe
000000c0: 0dbd bebe 3f09 b0be 3506 163f c3d2 d3bd
000000d0: 0365 a8bd cfcf c1bc ba38 c63e 05ef 1d3f
000000e0: ada7 86be 96f4 40be ffb6 0bbe 0d61 8e3e
000000f0: fff8 5d3e 0584 0c3d 9589 72be eefa 69bc
00000100: 5db3 09be b1ad 653e 8cf3 533c 140b 063e
00000110: 340a 83be 043c 74be c89b 143d f7c7 acbd
00000120: 14a8 963e e2ed 46bb 7236 da3b 55a8 57be
00000130: 87b5 2ebe 511a 0dbe 457f 8dbd 37ea 5ebe
00000140: 0f2b dd3d 59d0 9bbe f81e 12be 0a14 bb3e
00000150: 89a4 70be 839d 863e bbb3 debd 9dcd d23d
00000160: 3692 373e 486a 633e 7e8e d43e 6be5 6e3e
00000170: 09fc 573e 7c53 b0be 18d0 8dbe 645f d83e
00000180: b051 383f 5eb3 583d e0ba 123d be79 4e3e
00000190: 3169 9abd b3e7 353d bb2f b33e 2d36 5fbd
000001a0: e454 43bd bb57 a73e 4a9b 183c 3f0a 7dbe
000001b0: a7a6 9f3c 5714 1fbe 2068 c13d 9963 0fbe
000001c0: 6063 893c 77ac 2a3e 95ec 0abe f4cb 9c3d
000001d0: b998 e2bd b194 e3bd b8c1 563d 45c7 a0bd
000001e0: 593d 43bc b735 cebe 630f cdbc c94e 873e
000001f0: 0033 b7be eaa4 893d 5c9e 9dbe 6502 55be
00000200: 8bff d13e 1af7 10be 4c06 5d3d 0d62 71bc
00000210: b51f b63e 36bf 4b3e 761e db3e ccd0 543d
00000220: 1b8d 073f ec5c 943d d79f 61be 394c 26be
00000230: e0fc e9bd d786 d6bd be5b 603d 3e34 1bbe
00000240: 7c51 263d 1784 9dbe e3ab 9d3e 8831 93be
00000250: c7e8 853d 8b4e b13d fe00 243e 8858 233e
00000260: 1dac 973d 1c3d edbe a37f de3d 0777 84bd
00000270: 676d d3be 1118 3abd 6bf8 c43d 7402 65be
00000280: d43f 8abe c457 d23d f0e3 2dbc 1fe6 ad3e
00000290: df8e c2be 8f21 09bf a22d 9f3d 727c a63d
000002a0: 2e5c d7be 215f 1ebe 8af3 99be 73a2 86be
000002b0: 0c16 5f3e 140c 26be 1138 8cbe 130d d3be
000002c0: e34a 19bd 861a bfbe 501d 2b3e b0e5 e03e
000002d0: 0570 ed3e 328e ed3e 9356 aabe d1df d4bd
000002e0: 43d8 723e 0a1e debe a9a9 b23e 0bee 9fbe
000002f0: 062f c1bd bd3c 9bbe 8c17 3abd af6d a53e
00000300: 53ff 8b3b 3bfe babd e2e2 83bd 7895 d33d
00000310: 0269 5bbe bcc5 41be 761f 883d 8b17 13be
00000320: 5dbb 053f 5735 95bd 30a3 e1be cba6 50be
00000330: 51cf d9bd 8598 83be f6c6 1c3e 450d 853e
00000340: 453d 33bd edcd a63e 2a70 93be f3d4 32be
00000350: 08d9 06be e265 abbd 72aa 91be 0cac 603d
00000360: c0b4 383e 577b 01be 17a8 35be eb2c 4b3e
00000370: 730e 7ebe e95c cebd 76ad e0bd 4a79 33bd
00000380: cb08 aabd cb9f ed3d c543 c03d c0d2 2c3c
00000390: 990e 0d3e e6ce 7f3d cf32 b9be 767e 44be
000003a0: 07b3 c3be d4a4 b5be 17ce bdbd b54a 0fbc
000003b0: 736f b8bd 19c2 1bbe 6bc8 51be 00f5 0abe
000003c0: 8843 87bd 09bd 1abe fa3b 223e 2e9b 30be
000003d0: 3e15 013e c033 1f3f 2454 45be e83c 3f3d
000003e0: bbd5 bf3e 5f4f 37be 2ea7 af3e 1b22 a4be
000003f0: c3a3 b23e 6518 b63e a6e8 d73d 6f41 433b
0.12403201 0.15062243 -0.016212456 0.354544 -0.14153825 -0.72748595 0.3483962 0.17794694
0.5477585 0.052422922 -0.17506935 -0.025059052 -0.09940067 -0.44098178 -0.10062853 -0.0016602535
0.13032885 -2.0116611e-05 -0.035970364 0.2972502 -0.008081255 -0.18179299 -0.27485213 -0.17544727
0.095854335 0.11423767 0.04802122 -0.35384932 0.35485595 -0.14123626 0.059343304 0.025005696
0.017484147 -0.47246805 0.15037477 -0.3366166 0.09387916 -0.068080425 -0.14082658 -0.13562666
-0.112479664 -0.021006634 0.3560738 -0.004276484 0.26664633 0.33238432 0.12767783 -0.3949826
-0.3725361 -0.34382054 0.5860322 -0.10342934 -0.082223915 -0.023658661 0.38715154 0.6169284
-0.262998 -0.18843302 -0.13644026 0.2780842 0.21677016 0.03430559 -0.23685296 -0.014281018
-0.13447328 0.2242954 0.012936484 0.13090163 -0.25593722 -0.23851019 0.036281377 -0.08436578
0.29425108 -0.0030354192 0.0066593224 -0.21060307 -0.17061435 -0.1377957 -0.0690904 -0.21769033
0.107992284 -0.30432394 -0.14269626 0.36538726 -0.23500265 0.26292047 -0.108741246 0.10293124
0.17926869 0.22208512 0.41514963 0.23329704 0.21092238 -0.34438694 -0.27697825 0.42260277
0.71999645 0.052905433 0.03582275 0.20163628 -0.07539595 0.04441042 0.34997353 -0.054495025
-0.04768838 0.3268412 0.009314368 -0.2471094 0.019488646 -0.15535103 0.094436884 -0.14002837
0.016771019 0.16667353 -0.13566811 0.076560885 -0.11064286 -0.11112345 0.05243084 -0.07850508
-0.011916482 -0.40275356 -0.025031751 0.26427296 -0.35781097 0.06720908 -0.3078488 -0.20801695
0.41015276 -0.14156762 0.053961083 -0.01473285 0.35571066 0.1989716 0.42796677 0.051956937
0.52949685 0.07244286 -0.2203363 -0.16240014 -0.11425185 -0.104749374 0.054774992 -0.15156648
0.040605053 -0.3076484 0.30795202 -0.28748727 0.065385394 0.08657559 0.16016003 0.1595174
0.07405875 -0.46335685 0.108641885 -0.06468015 -0.41294405 -0.045433108 0.096176945 -0.22364217
-0.27001822 0.10270646 -0.010613427 0.3396463 -0.37999627 -0.5356683 0.07772376 0.08129205
-0.42062515 -0.15465976 -0.30068618 -0.26295814 0.21785754 -0.16215545 -0.27386525 -0.41220912
-0.037424933 -0.37324923 0.167104 0.43925238 0.46374527 0.4639755 -0.33269176 -0.10394252
0.2371531 -0.43382293 0.34895065 -0.312363 -0.09432797 -0.30319777 -0.045432612 0.32310244
0.0042723804 -0.09130522 -0.06439759 0.10331243 -0.21426776 -0.18923086 0.06646626 -0.1436445
0.5223902 -0.072855644 -0.44069815 -0.20376126 -0.106352456 -0.257023 0.15310273 0.25986686
-0.043759603 0.32578984 -0.28796512 -0.17464046 -0.13168728 -0.08369042 -0.28450352 0.054851577
0.180377 -0.12644707 -0.17739902 0.19841354 -0.248102 -0.10076315 -0.10970585 -0.043816842
-0.083024584 0.11602744 0.09387926 0.010548294 0.137751 0.062453173 -0.36171576 -0.19188866
-0.38222525 -0.35477316 -0.09267824 -0.008745839 -0.09005632 -0.15210761 -0.2048661 -0.13570023
-0.066046774 -0.15111174 0.15843192 -0.17246696 0.1260576 0.6218834 -0.19270378 0.046688944
0.3746775 -0.17901371 0.34307235 -0.3205727 0.34890565 0.35565487 0.10542421 0.002979364
