assignment_3/outputs/models/L2.pth (torch, 50090 bytes, 20 tensors)

embedding.weight f4 [28, 30]
00000000: 0000 0000 0000 0000 0000 0000 0000 0000
00000010: 0000 0000 0000 0000 0000 0000 0000 0000
00000020: 0000 0000 0000 0000 0000 0000 0000 0000
00000030: 0000 0000 0000 0000 0000 0000 0000 0000
00000040: 0000 0000 0000 0000 0000 0000 0000 0000
00000050: 0000 0000 0000 0000 0000 0000 0000 0000
00000060: 0000 0000 0000 0000 0000 0000 0000 0000
00000070: 0000 0000 0000 0000 a6fa fb3d f04c b53d
00000080: 62ef 5ebf 2154 a73f b7f9 f4be 5836 323e
00000090: 4937 63be d3fe dabe bf0e 853f bc25 c2bf
000000a0: 252b 95be 2bfb 393f a093 b13f 5e0b 1fbf
000000b0: 790c 8a3f 415e 49be faa4 973f 82e3 4d3f
000000c0: 057b abbe ad05 87bd 3ed2 febd 9267 5abf
000000d0: ea08 9d3f e1f6 00c0 5937 483e b2ca cbbf
000000e0: aff0 10bf 3624 cd3e 299b 33bf b24b 093e
000000f0: a367 0b40 0746 963f 399d d0bf a6ee 313f
00000100: b661 c63e 9ba9 88bf 246c af3f a271 a03d
00000110: 881c 5bbf 1366 ac3f be2f f9be 88b9 49bf
00000120: be9e 9abf 7beb 89bf aded 8bbf 3dbf 00bf
00000130: 84d7 4f3e 556a a5bf af89 fb3f f4d7 6b3e
00000140: 9184 85bf a6ff 553f 5a81 77be a742 32bf
00000150: 0ff6 0ec0 0d20 0d40 83d4 a8bf 091b adbf
00000160: 5a1e 93bf fd27 d73f 0840 55bd 5699 943f
00000170: 27ca eabe f1fd ad3f 20a5 37bf c126 3d3f
00000180: e421 7e3f 9360 0dbf 10fa a13f 6774 c13f
00000190: c3af 88bf 5baf fbbf 4ae9 873e 0086 48bf
000001a0: 14c1 793f 2d3a f63d 53a4 7abf 69d3 98be
000001b0: 180d b63f 1984 7ebf ebce 973f 936d c03e
000001c0: 8338 1b3f 7dc2 543f 4ea8 913e 1e39 8fbf
000001d0: e395 b5bf 5171 99bf ad3a f53e 046b 3b3e
000001e0: 8bf8 1ebe 809d 57be e39c 0d3e 13df 5a3f
000001f0: cf8f 92bf f6e7 5bbf cc8a d03e d785 e0bf
00000200: 772e b53f 2e63 33bf 8552 5fbe 0f7e 95be
00000210: 9d5c 3c3f 4574 a23e 065e 153f f574 333f
00000220: cecc 98be a2f7 9ebf d71b ca3f fb2a ebbf
00000230: 8c93 33bf a63e 423f ec74 d33e 030d 2e40
00000240: 62f7 2ebf 976b a1bf 5ea0 4bbe 3f25 323e
00000250: 52cc 1ec0 4107 383f be6b c73e 9ec9 983e
00000260: e65b 163f 0363 b5be b932 83be ebf5 35bf
00000270: 4fba 6b3f 1c06 753f baa4 89bf 1918 5b3f
00000280: 4488 b13e 5ed9 a9be 9c5a 2b3f eb59 e4bf
00000290: c06a bc3f 7edc 523b fa10 6bbf 9e60 df3e
000002a0: 8c4a 7abf b363 35bf ef38 32bf 2f35 943e
000002b0: 971a 69bf 52d1 a0bf bc8f 0b3f 369e fb3e
000002c0: c29f 8d3f 97dd 6e3e eed0 b83d 93d3 7bbf
000002d0: 5da7 55c0 c617 253f b0b0 74bf 7ba2 dd3f
000002e0: ceb6 2c3f f90f d33f d695 cd3f 3625 823f
000002f0: f015 a0be b399 e4be 049a 8cbf a1b7 df3f
00000300: db01 00bf d694 76bf 6054 02bf c4dc 2bbf
00000310: 7ed2 f6bf 9b28 393f 32d4 31bf 60bc 8fbf
00000320: 7064 26c0 be3e a2bf e21e 273e 65f2 d33f
00000330: 321b 6cbb 1d23 92bf 853b fdbf 5408 e23f
00000340: a36a ff3e dc47 883f 5a60 5a40 4ad9 2d3f
00000350: eb8c 883f 629f 333f f969 92bf 51bf 213f
00000360: 7f3f 4e3f b248 243f a555 72be c2af 44bf
00000370: b38f bb3e 6a2b 1f3f 4a17 b3bf c3ac bbbf
00000380: f0ac 91bf 9c9f 143f 2368 883f ac9c bc3f
00000390: 9118 8e3f 66c6 9c3f fc88 073f c7c8 eabe
000003a0: 7eda 973f a0f7 553f eac4 b63f c503 01bf
000003b0: e865 60bf e179 ed3e 5a36 0a40 689d 8abf
000003c0: 5f7c e0bd 1e17 9e3f 83c3 c33f 6104 b83f
000003d0: b007 b8bf 978f 90bf 031d f7be b249 e73e
000003e0: ab42 eb3f ffff da3f 9d15 9dbf f50f a0bf
000003f0: 60b5 05bf bee4 98bf 0fed 73bf bb9a ffbe
0.0 0.0 0.0 0.0 0.0 0.0 0.0 0.0
0.0 0.0 0.0 0.0 0.0 0.0 0.0 0.0
0.0 0.0 0.0 0.0 0.0 0.0 0.0 0.0
0.0 0.0 0.0 0.0 0.0 0.0 0.12303667 0.08852565
-0.8708402 1.3072549 -0.47846767 0.17403543 -0.22189058 -0.4277254 1.0395125 -1.5167766
-0.2913448 0.72648877 1.3873177 -0.6212672 1.0785056 -0.19664861 1.1847222 0.80425274
-0.33492294 -0.065928794 -0.12442444 -0.85314286 1.2268345 -2.0150683 0.19552363 -1.5921233
-0.56617254 0.4006669 -0.7015863 0.13407782 2.1782005 1.1740121 -1.629798 0.69504774
0.38746423 -1.067676 1.3704877 0.07834174 -0.8559041 1.346865 -0.48669237 -0.78798723
-1.2079694 -1.0774988 -1.0931908 -0.50291806 0.20297056 -1.2923075 1.9651393 0.23031598
-1.0431081 0.83593214 -0.24170437 -0.69632953 -2.2337682 2.2050812 -1.3189853 -1.3523875
-1.1493638 1.6809078 -0.052063018 1.1609294 -0.45857355 1.3593122 -0.71736336 0.7388726
0.99270463 -0.55225486 1.2654438 1.5113648 -1.0678638 -1.9662889 0.26545173 -0.7832947
0.9756024 0.12022815 -0.9790699 -0.29848793 1.4222746 -0.99420315 1.1860021 0.37583598
0.60633105 0.83109266 0.2844872 -1.1189306 -1.4186367 -1.1987706 0.4789633 0.18302542
-0.15524499 -0.21056175 0.13829379 0.85496634 -1.1450137 -0.8590082 0.40730894 -1.7540845
1.4154805 -0.7007321 -0.21808822 -0.29197738 0.73578817 0.31729332 0.58346593 0.7010034
-0.29843754 -1.2419322 1.5789746 -1.8372492 -0.70147014 0.75876844 0.41300142 2.7195442
-0.68346226 -1.2610959 -0.19885394 0.17397021 -2.4812207 0.7188607 0.38949388 0.29841322
0.58733976 -0.35427102 -0.25624636 -0.71078366 0.9208116 0.9571245 -1.0753396 0.85583645
0.34674275 -0.3317365 0.66935134 -1.7839941 1.4720078 0.003217488 -0.9182278 0.436284
-0.9777 -0.70855254 -0.69618124 0.28946826 -0.910562 -1.256388 0.54516196 0.49144143
1.1064379 0.23326717 0.09024225 -0.9836971 -3.33834 0.644894 -0.95582104 1.731521
0.6746644 1.648925 1.6061351 1.0167606 -0.31266737 -0.44648513 -1.0984502 1.7477914
-0.5000283 -0.96320856 -0.50909996 -0.67133737 -1.9282987 0.72327584 -0.6946441 -1.1229362
-2.5998802 -1.2675397 0.16320375 1.6558348 -0.0036026952 -1.1416966 -1.9783789 1.7658792
0.49886045 1.064693 3.4121308 0.6790968 1.0668005 0.70165074 -1.143859 0.6318255
0.8056564 0.64173424 -0.23665483 -0.76830685 0.3663307 0.6217562 -1.3991482 -1.4662098
-1.1380901 0.58056045 1.065678 1.4735312 1.1101247 1.2248046 0.52943397 -0.45856306
1.1863554 0.8358097 1.4278843 -0.50396377 -0.87655497 0.4638205 2.1595674 -1.0829287
-0.10961222 1.2350805 1.529404 1.4376336 -1.4377346 -1.129382 -0.48264322 0.45173413
1.837972 1.7109374 -1.2272221 -1.250487 -0.5222988 -1.1944807 -0.952836 -0.49922737

lstm.lstm_cell.weight_ih f4 [128, 30]
00000000: ca76 ee3b 0e5e 5f3e 7140 2a3e 2652 3d3d
00000010: 6ee0 17be e2ac 96bd bffe e6be 8500 8fbe
00000020: 34eb 9a3c d960 fd3d 4935 cabc ab49 5ebe
00000030: 6a20 153d c47a 813e a0ce dfbb 2c34 b3bc
00000040: ec07 84bd ac35 173e 52a8 563d 6411 513e
00000050: 7a02 563e 1053 84bd fb81 58be a434 063c
00000060: 6ec6 a33d ad28 f33d 983a 113e 5e5a 07bf
00000070: cf5d 49bd 6f69 693e 2480 89bd 82e7 e73d
00000080: 8a12 923b 197e e5bc 538b 13be d6a4 783e
00000090: ea98 8e3d 2a21 f93d 8aaa 653e eba9 073d
000000a0: 85ec dbbe d4d4 d3be 6c07 bd3e a9c8 e53d
000000b0: e719 bf3b 4be8 233e 24b0 fcbe 841b 56be
000000c0: c252 0dbe ecd5 1ebe bda5 7abc 8ab5 71be
000000d0: c130 a43c 4190 cd3e f3e3 9dbc ef9b 4abe
000000e0: 5552 85be e15a b1bd 28e2 91bd 1419 ff3d
000000f0: b1b6 763e 7040 513e f21d febd cbf5 5b3e
00000100: 6490 183e 4d92 583d 83f1 873e b0f4 483e
00000110: 3731 833e 4f12 853e 2c38 a6bb 974b adbd
00000120: 5a5d 743d 21ae 5b3c 4233 9bbe 7247 1ebe
00000130: dd6d 00be b296 893b 2201 003e 641f 3abe
00000140: 9926 36be f8fe 8a3e 170c d03b d967 3f3e
00000150: 03a4 293e 4817 103e 4fc4 93be aec6 443e
00000160: 92b6 92be 8bbf 483c 0f7c 6b3e b961 193e
00000170: f565 323e c783 2bbd 2467 f8bd 298e 00bd
00000180: 56ef 8f3e 721c 06bd b1f9 bbbd 6671 c5bd
00000190: 81bd 2e3e faba 903a 99f8 c9bd c884 a33b
000001a0: 3e90 0f3e bc97 253e 1458 303e ce6e 32bd
000001b0: d7fb ef3d 9dc5 ec3d 655f 2dbe 96c8 bebd
000001c0: ed4d c1bd 3102 d8bb 772a f03d 79db d3bd
000001d0: 06e1 02be 3fef 2c3e 81cc a83e c738 043e
000001e0: 53b8 c7bb 0ede 9a3c c3e5 153c 029b 853e
000001f0: b4b5 313e bc34 09be 2f83 efbd ce26 73be
00000200: a191 edbd 639f 2fbc b5f0 0bbe 7f83 953d
00000210: 0442 ccbb 3d8f 67be 169c 23be 4f99 1c3d
00000220: 0633 ab3d 0ce1 71be 65c5 3b3e 6e95 9ebe
00000230: 8ceb 6bbd 30f2 a2bd f9aa ef3d d49f 1b3e
00000240: 8655 40be 35f9 91be 3bf8 92be 82ae eabc
00000250: eea8 14bd ff9f 5ebe f66f 99bd e4ee 243e
00000260: 9183 8ebd 770c cbbc 8859 a1be 907e d33d
00000270: 2a28 74be 2d54 583d 73c5 ef3c 1aa9 11bd
00000280: e33d 783d 057a 9abe 1f3c 29bc 1bff 6a3d
00000290: 84b3 323e 00a6 ab36 d6be 113e 9de0 7cbe
000002a0: 7cf3 31be 7d80 7b3c 620e 8a3e 8737 633d
000002b0: c3d7 543e 217c a23a 9899 da3d 686a f63c
000002c0: 02dc ccbe 3ce4 9ebd d8d5 d53d c127 063e
000002d0: 0c40 8cbd 3017 49be b6f3 31be 9879 d2bc
000002e0: 8f5d 94be 11d9 a33d da33 5abe bed7 f9ba
000002f0: b5f9 d83e ef61 0fbe 3c58 0dbe 9527 d1bd
00000300: 4a81 613e c11e 43be af0d c03d 858a f4bd
00000310: a2b9 57be f93e 8bbc 3f90 81be 139f 7e3e
00000320: 722f ec3d 2cfa 7dbe 26af f03d a6ae ef3d
00000330: 943f 6c3e 9131 af3d fcc8 2b3e c222 e9bd
00000340: f95e 273d f768 7dbd 24dc 463e a469 1bbd
00000350: 8138 453e ec8d 97bd a472 e73d 97e9 8dbd
00000360: 2808 003f 2bec 5fbd 3080 a83e 190d dd3e
00000370: ed44 72be 6d66 86be 883f 75bd 952a fbbe
00000380: 5474 babe 5119 1abc 7453 e63c 5ea7 debe
00000390: 29ff 093e 2377 1e3d df06 82bd 00a1 56be
000003a0: a378 07be c20a e23d 880f ecbd 1d35 d7bc
000003b0: 6e28 2bbe 2872 203e 875a 8ebc 143a 0f3e
000003c0: e5ab 85be adc0 1cbe 8952 363d e80b c1bd
000003d0: 6dea c43c d78f ae3e ad23 033e 9c55 af3e
000003e0: 5e91 08be 6b60 1a3e cc59 283e 4733 80bd
000003f0: 8b7f 8fbd 3ebb 6b3c 12cd 45bd 8898 bebd
0.0072773444 0.21813223 0.16626145 0.04622092 -0.14831707 -0.073571935 -0.4511623 -0.27930084
0.018910982 0.12371988 -0.024683611 -0.2170779 0.036407866 0.25288975 -0.0068300515 -0.021875463
-0.064468235 0.14766568 0.052406617 0.2041679 0.20899382 -0.064611554 -0.21143334 0.008191261
0.07996832 0.11872993 0.14182508 -0.52872264 -0.04916173 0.22794126 -0.06713894 0.113234535
0.0044577764 -0.02801423 -0.14408617 0.2428163 0.0696276 0.12164529 0.22428337 0.03312103
-0.42953888 -0.41373312 0.36919725 0.112199135 0.005831945 0.16006581 -0.49353135 -0.20908934
-0.13801101 -0.15511292 -0.015298304 -0.23604408 0.020042779 0.4014912 -0.019273734 -0.19786046
-0.26039377 -0.08659912 -0.07123214 0.12455955 0.24093129 0.20434737 -0.12408055 0.21480481
0.1489883 0.0528739 0.26551446 0.19624591 0.25623485 0.2599053 -0.005072614 -0.08461683
0.05965934 0.013408215 -0.30312544 -0.15456942 -0.1254191 0.0041988725 0.12500432 -0.18176037
-0.17788161 0.2714765 0.0063490975 0.18691958 0.16566472 0.14071381 -0.2886071 0.19216415
-0.28654915 0.012252699 0.22996543 0.14978684 0.17421706 -0.04187372 -0.121290475 -0.031385574
0.28112286 -0.03274197 -0.09178484 -0.0964077 0.17064478 0.0011042051 -0.09861869 0.004990194
0.14019868 0.16171163 0.17221099 -0.043562703 0.117179565 0.11561129 -0.16930921 -0.093156025
-0.09438691 -0.006592058 0.117268495 -0.103445955 -0.12781152 0.1688814 0.32968524 0.12912284
-0.006094971 0.018904712 0.009149018 0.26094824 0.1735447 -0.13399023 -0.11694943 -0.23745272
-0.11600042 -0.010719153 -0.13666041 0.073004715 -0.0062334556 -0.22613235 -0.15977511 0.038232144
0.08359341 -0.23621005 0.18337019 -0.3097338 -0.057597682 -0.0795635 0.11702532 0.15197688
-0.18782625 -0.28510442 -0.2870501 -0.028647665 -0.036293916 -0.21740721 -0.07492058 0.16106755
-0.06958688 -0.024786217 -0.3151362 0.10326874 -0.23843446 0.05281465 0.029268956 -0.03556166
0.060605895 -0.3017122 -0.010329275 0.057372194 0.17451292 5.115522e-06 0.14232954 -0.24695058
-0.17378038 0.015350458 0.26964098 0.055472877 0.20785432 0.0012396612 0.10673827 0.030080035
-0.40011603 -0.07758376 0.10441178 0.13101102 -0.068481535 -0.19637752 -0.17378125 -0.025692746
-0.2897763 0.080003865 -0.21308842 -0.0019061489 0.4237801 -0.14002202 -0.1380319 -0.10212628
0.22021976 -0.190547 0.0937761 -0.11940483 -0.21066907 -0.016997801 -0.25305364 0.2486537
0.11532487 -0.24802464 0.11752157 0.117032334 0.23071128 0.08554376 0.16775888 -0.11383583
0.040862057 -0.06186768 0.19419914 -0.037942544 0.19259836 -0.07400116 0.11301163 -0.06929319
0.50012445 -0.054668587 0.329103 0.43174055 -0.23659106 -0.2625002 -0.05987504 -0.49055925
-0.36416876 -0.00940545 0.028115965 -0.43487066 0.13476242 0.038687836 -0.06348967 -0.20959854
-0.13229613 0.11037208 -0.115264 -0.026270444 -0.16714641 0.15668547 -0.017377151 0.13986999
-0.26107708 -0.15307875 0.044512305 -0.09426099 0.024037564 0.34094116 0.12806578 0.34245002
-0.13336703 0.15075843 0.16440505 -0.062597804 -0.07006749 0.014387904 -0.048291273 -0.09306437

lstm.lstm_cell.weight_hh f4 [128, 32]
00000000: 5986 10bf ce4c 473f 01b4 93bd 890f 783e
00000010: 3619 8f3e eaf6 b5be 8ddd 2f3d 6564 673e
00000020: c4ed 473e 2263 753e 5ed7 193f dc8e e7bd
00000030: b086 67be 62fc c03e 3829 80be c447 33be
00000040: 83d0 35be 3664 16bd abad db3e f4e3 673d
00000050: 690c 95be ec0b 313d 1c15 98bd 8da4 843e
00000060: f986 9b3e f9e1 14be ec7b 0b3d 3357 9dbe
00000070: 9e1a 4e3c 8d27 9a3e 186a fc3d 0152 5bbd
00000080: fd77 b6bd 2e50 8fbe 8635 373d f35f 39be
00000090: d995 443e fa3a ad3e 6004 9abd 1971 dd3c
000000a0: 2df0 87be ac1a 81be 556d 72bd 2691 d43e
000000b0: 50dc 013d 2e74 843b f1ef e63d 5d9a b03d
000000c0: ccc4 80be eef3 d53d c223 65bd e776 43bc
000000d0: f6b3 113f 064a ec3e 58bd 8ebb 5a5d 31be
000000e0: 2ab5 03bd 8349 cfbd 037b 9fbc 96fa 4b3e
000000f0: 39ae 913e a26b 9cbd c3f3 823e 0625 0dbf
00000100: a137 9fbe 1950 933d b2cc 9bbe 7fb9 283e
00000110: 6836 d4be 99f3 e13e cc0d 4cbe f737 f83e
00000120: e81b b2be b868 243d dc4f 71bd 5b2e 8dbe
00000130: b68e a6bc 08b9 babd 3db5 74be 8843 65be
00000140: 960e 05bc 9ee5 e13c 2a36 953d ca69 5bbd
00000150: 4856 d33d e986 923e afbb e73e 2886 173e
00000160: 7b44 383d abfa e73e 9509 af3d d3bb 483f
00000170: f470 443e 1e15 95bd 94d6 02be dabe 42be
00000180: 9727 92be 4052 ec3e b4ce e8bd 5244 433e
00000190: 125b d5be 704a 22be f5e3 8e3e c5db 8d3c
000001a0: 751c e93d 30c0 db3e 81f5 393e 029f 1bbe
000001b0: 313c 54be 8520 963e 8680 923e 1df1 0e3e
000001c0: d622 133e ba04 18bf f997 073e 0ea2 943e
000001d0: 572a dbbe bd67 48be 4005 b13e 1591 ecbb
000001e0: ffa6 373e 8b80 1a3e 8901 bfbc 9d15 ff3d
000001f0: 836a 96be cc64 973d 114c e93d 51f5 053f
00000200: 4b61 203d 434a dabe b58d 88be 3b7b ee3d
00000210: 6aa5 97be cf7e 013e 7953 863d 158c 7c3c
00000220: 0a2e 44be b90d 8abc c294 debe b2ff aabb
00000230: 2cd5 a6bd 4579 78be 8de8 f43d 9a57 a43c
00000240: 9246 9c3e b47e 0abf 436c a2be 56bc 5abd
00000250: efae f93d 4119 5b3e de63 ab3e be7c 893d
00000260: ae3a b63e 619e 00be 642e c13d b38c fe3e
00000270: 45fe f8bd 9e1c ae3d 4155 313e 70f0 353e
00000280: 69f1 233e a656 d4bd b487 c7be 9c91 f1bb
00000290: 2171 dbbc d830 063e c04d 19be 9fd9 563f
000002a0: 6e5f dbbe 465a 263e 3d66 74be 1e41 71be
000002b0: 0688 013a c5a3 eebd 0c7d 94be 5add 01be
000002c0: 3513 353e af4d 5f3e d203 333d 59c4 503e
000002d0: 8f17 413f a01f fa3e c4e3 f7bd 0f18 08bd
000002e0: a80a a0bd 4795 9d3b f6eb ad3e a30f d33d
000002f0: 732a c6bc abb3 4dbe ebb7 2f3e c9fc ddbe
00000300: 728b 5d3d 99af 123f 79d2 b4be 12fa ae3e
00000310: 196e 173e 3e38 423d e271 d13c 7352 ae3e
00000320: 1884 d73e 3bdc e2bd ba0c 103e ae57 d6be
00000330: d8f8 62be 6b6b 9cbe 78e0 12be c3c5 31bd
00000340: 2ec4 b43d 2651 703e a576 ef3e 8e9b 513e
00000350: 58e6 63bd ae88 3ebd 59b9 04be 4e72 26be
00000360: 0e0e e43b b815 54bd 0d3d 0c3e 96a6 40bc
00000370: 6edf 82be d2d0 1fbc a5a9 94be 4026 2dbe
00000380: 8b0f 16bd a6c4 f43e 70b1 ef3e bfcc 82bd
00000390: 6fc9 37bd 82e9 fbbd d5a3 ca3d 0918 33be
000003a0: 8014 68be 6a54 66be 608b 6f3e 3222 ae3c
000003b0: c1a7 97be e40f 2e3e dc49 3abd 1d98 a5be
000003c0: 8dce d1be c06e b5bd 5663 a63e 27f8 90bd
000003d0: 87d9 eb3d ceb5 573e 9b15 76be 282c d7bc
000003e0: 72af 8dbe b8ac a93e 77b2 f13c 9a19 c03d
000003f0: 5dc6 cb3e 3b65 913e 4a29 59be 0ec1 ea3d
-0.56455 0.7785157 -0.072120674 0.24224676 0.27948922 -0.35539943 0.042935897 0.22596891
0.19524294 0.23963597 0.6009425 -0.11306545 -0.22609973 0.37692553 -0.25031447 -0.17507845
-0.17755322 -0.036716662 0.42905936 0.056613877 -0.2911103 0.04322426 -0.07425901 0.25906792
0.30376413 -0.14539327 0.034053728 -0.3073059 0.012579588 0.301083 0.12324923 -0.053545002
-0.08909605 -0.2799086 0.04472878 -0.18103008 0.19197787 0.33834058 -0.07520366 0.027031468
-0.26550427 -0.25215662 -0.0591863 0.4151699 0.031704247 0.00404217 0.11276234 0.086231925
-0.25150144 0.104469165 -0.055942304 -0.011930204 0.56915224 0.46150225 -0.0043560676 -0.17320767
-0.032155193 -0.10121443 -0.019467836 0.1991981 0.28453234 -0.07637717 0.255766 -0.5513462
-0.3109713 0.07193012 -0.30429608 0.16477011 -0.4144776 0.44131163 -0.19927138 0.48480198
-0.34786916 0.04013893 -0.05891405 -0.2757443 -0.020331722 -0.09117323 -0.23897262 -0.22389042
-0.008121153 0.02757531 0.072857216 -0.053567685 0.10319191 0.28618553 0.4526038 0.1479727
0.044987183 0.45308432 0.085467495 0.78411597 0.19183713 -0.072794184 -0.12777168 -0.19018117
-0.2854583 0.46156502 -0.113675505 0.19069031 -0.41671044 -0.15848708 0.27908292 0.017316708
0.11382381 0.42920065 0.18160059 -0.15197375 -0.20726086 0.29321685 0.2861368 0.13959165
0.14368758 -0.5938221 0.13241567 0.29029888 -0.4280574 -0.19570823 0.34574318 -0.0072194436
0.17934798 0.15088098 -0.023316162 0.12455294 -0.29378137 0.07392272 0.11391462 0.5232745
0.039155286 -0.42634782 -0.26670614 0.11644598 -0.29618388 0.1264603 0.0655889 0.0154142575
-0.19158188 -0.016852247 -0.43472868 -0.0052184695 -0.08146128 -0.2426501 0.11958418 0.020061303
0.3052259 -0.54099584 -0.31723222 -0.053402267 0.12191569 0.21396352 0.3347463 0.06713246
0.35591644 -0.12560417 0.094326764 0.4971672 -0.12157873 0.08501552 0.17317678 0.17767501
0.1601006 -0.103680894 -0.3897072 -0.0073720943 -0.026787343 0.1310457 -0.14971066 0.83925813
-0.42846245 0.16245374 -0.23867126 -0.23559996 0.00049412285 -0.1165233 -0.29001653 -0.12682095
0.17683108 0.21806978 0.043704815 0.203874 0.7542657 0.48852253 -0.1210399 -0.03322607
-0.078145325 0.004809055 0.33969086 0.10305717 -0.024190163 -0.20088069 0.17160003 -0.43356922
0.054088064 0.5729919 -0.35316828 0.34175164 0.14788093 0.047416918 0.025566999 0.3404728
0.42092967 -0.11077162 0.14067355 -0.4186377 -0.22165239 -0.30550703 -0.1434344 -0.04340149
0.08826481 0.23468456 0.46770206 0.20469496 -0.055639595 -0.046517067 -0.1296133 -0.16254541
0.0069596833 -0.051778525 0.13695164 -0.011758467 -0.25561088 -0.0097543765 -0.29035679 -0.16909122
-0.036635917 0.4780628 0.46815062 -0.063867085 -0.044869836 -0.123003975 0.0989453 -0.17489637
-0.2266407 -0.22493139 0.23393011 0.02125654 -0.29620174 0.1699825 -0.045480594 -0.32342616
-0.40977898 -0.088590145 0.32497662 -0.07078581 0.115160994 0.21065447 -0.2403168 -0.026266173
-0.27672917 0.33139586 0.029504044 0.09379883 0.39799777 0.28397545 -0.21207157 0.114626035

lstm.lstm_cell.bias_ih f4 [128]
00000000: 2174 9c3d 9da2 b83e 085d c73e 2cb8 943d
00000010: a21f 543d 8597 c03d ed6f b43d c15b 853e
00000020: 30cc b73e 3acb e43e 5eda 76bd 52fd 9b3e
00000030: df35 b53d 0b07 0ebd 2829 1d3e 8ece a03e
00000040: 393f 403e 6e27 083e c5a0 d13e 0cf7 913e
00000050: 9d61 893e d652 103e 8fd4 e53c 07fe 563e
00000060: 3153 93bd 085e 683e 80e7 913e 5a7c 003d
00000070: ceb3 683e 9565 623d 0c41 873e a0b8 883e
00000080: 4b42 2f3e f07c a33d a912 e13d beda c73d
00000090: 9c8c 873d e161 bc3e 9aab 363d 0794 4e3c
000000a0: 7b47 f53d 681f 4ebe 5a52 ae3e a338 c0bb
000000b0: bfe3 803e 279f 7a3e a382 503d 083d 04be
000000c0: 82ba 863e ac47 4e3e c248 5d3e e0c7 4b3d
000000d0: 916f c93a 2ebd 553e 668f 723e cd4b 403d
000000e0: e0b9 673e 18d2 d53d 1496 0e3e 5e90 023e
000000f0: 321f 4fbe d119 adbd cceb 0c3e 446e 7c3d
00000100: 4e87 05bd c854 65bc 1700 123d 3671 003e
00000110: 6d53 c3bd 316b 9bbc 5d61 863d 2102 183e
00000120: 7375 9ebd 159b 2c3e f4c1 173b 7664 05be
00000130: 85fb 213e 717a bcbc 41ba 34bd 0d85 5d3c
00000140: e36f a9bd e907 44be 68df 143e 97cc 253e
00000150: 721d a43d 836a 103e 2590 f83c 0eaf af3d
00000160: b475 f4bd 0a8c 303d 98f0 07bd 988a ff3d
00000170: 3609 81bd da80 153d 80da 3a3e 9bf9 4e3c
00000180: 119c 3b3e 1274 a53e c353 a83e bb73 d83d
00000190: 4baa 903e 1ffa 923e 55e7 5d3e 3880 b43b
000001a0: 9a0d cd3d c449 413e 5b15 723e 78db ed3c
000001b0: bffd 73bd 9e24 e03d e198 913e df3c e33d
000001c0: 20d4 c1bc 71f4 cc3e d338 d13d e1f6 5a3e
000001d0: 62c9 873e 2566 a23e 1a3b 153e 1d0d e03e
000001e0: 2f9b f43d 62e3 3c3e febb 4f3e f416 e63c
000001f0: 82d9 303e 36fa c63d 24e5 343e 2002 c93e
0.07639337 0.36061564 0.38938165 0.072616905 0.05178798 0.094039 0.08810411 0.26046565
0.3589797 0.446863 -0.060266845 0.30466706 0.08848166 -0.034674685 0.15347731 0.3140759
0.18774118 0.13296291 0.4094297 0.28508794 0.26832286 0.140941 0.028055457 0.20995341
-0.07193602 0.2269212 0.28496933 0.03136859 0.2272484 0.055272657 0.26416814 0.26703358
0.17115133 0.07982814 0.10989887 0.09758519 0.06618616 0.36793426 0.044597246 0.012608535
0.119765244 -0.20129168 0.34047204 -0.0058661266 0.25173756 0.24474774 0.050905835 -0.12913907
0.2631417 0.20144528 0.21609786 0.049751163 0.0015368332 0.20872948 0.23687515 0.04694729
0.226295 0.10440463 0.13924438 0.12750384 -0.20226744 -0.0845219 0.13761824 0.061628595
-0.03259974 -0.013997264 0.035644617 0.12543187 -0.095373966 -0.018972011 0.06561539 0.14844562
-0.077372454 0.16856034 0.0023156377 -0.13026604 0.15818603 -0.023007603 -0.044122938 0.013520491
-0.08273294 -0.19143642 0.14538348 0.16191326 0.08013429 0.14103131 0.030342171 0.08578311
-0.119365126 0.0431023 -0.033188432 0.124776065 -0.06300585 0.036499836 0.18247414 0.012632753
0.18321253 0.32315117 0.32876405 0.10568949 0.28254923 0.28706452 0.21670277 0.005508449
0.1001236 0.18875796 0.23640959 0.029035315 -0.059568163 0.10944484 0.2843695 0.110955946
-0.02366072 0.40030244 0.102159165 0.2138324 0.2652083 0.31718555 0.14573327 0.43760005
0.119436614 0.18446115 0.20286557 0.028087117 0.17270473 0.09715693 0.17665535 0.39259434

lstm.lstm_cell.bias_hh f4 [128]
00000000: 5095 8a3e 0f10 dd3e 9ebf a53e 5143 e23d
00000010: 7cc0 553e 40d9 b53e b590 67bc a3d3 053e
00000020: 39fb 773e 34b8 fb3d 04a6 4c3e 05b5 d23e
00000030: a413 a23e 1646 86bd 4d70 a8bd a963 a63d
00000040: 2632 a53e 45f6 df3d 4f62 a83e 687f c43e
00000050: 8757 973d ca90 ec3e d46b e4bc c1ac e93e
00000060: e78b 6b3d ddd2 8e3e 0e35 bd3d 64d5 083e
00000070: c726 473e fafd 913d 0f08 de3d 8e16 553e
00000080: ddf6 543e cf26 99bc 75bf 793d 5e0d 063e
00000090: 0973 cf3c 0d9c a13d 7a2c 8f3e 7efd f3bd
000000a0: 7cc1 86bc 8c6d fcbc f716 473e 706b 473e
000000b0: a1d2 2f3e 287e 463e 509b 83bb 56eb 1c3d
000000c0: c54b 6ebd a1ab e93c daf1 1c3e c319 87bd
000000d0: 4d34 693e 6ede c83c 9e65 9abd f22d eabb
000000e0: 8039 fb3d 74a4 9cbd f96a 4a3e 4ebb 5ebd
000000f0: 6dd5 da3c 55e7 d43d 010c 8d3d 1d3c 113e
00000100: 3871 073e 9c32 47be dc60 053e 24ab 993c
00000110: 4344 023e c207 3c3e 0f43 3f3e 6240 06bd
00000120: 2ee5 3abd b3ca e53d 816d 373d 4864 f7bd
00000130: 5ad2 bd3c b405 2b3e 8753 26bd 7dde 1dbe
00000140: 0cf3 f93c 7593 a93d f9a9 6ebd e1e7 0fbc
00000150: 807e e3bc 6851 4e3d 1a0b 09be 937b 103c
00000160: 4c9e f83d 5e42 25bd 73b7 32be 8592 3e3d
00000170: 9cc9 09bd 1499 273e 7e46 1fbd 4e12 e2bd
00000180: 8d4c 943e 02a8 863e 88e2 2b3e 27e2 923d
00000190: a7d3 b13e da2e bb3d 97b1 463e f37c 0c3e
000001a0: 92f3 513d 6fa2 813e ed7a 6a3e dedd e83d
000001b0: e543 223e 9ec0 103e 77b1 cd3e d5bf 3b3e
000001c0: cc7e cbbd af5e 233e c7cb ac3e c3b2 3f3d
000001d0: 92d8 993e d635 8c3e a5ef 7d3e 1185 ce3e
000001e0: acb1 053e 4c00 ef3d 041b 193e 8121 953d
000001f0: 002a 583e 5296 b03e 44f9 dd3e 86b5 d13e
0.2706704 0.43176314 0.32372755 0.11047996 0.20874208 0.3551731 -0.014133622 0.13069014
0.24216928 0.12290993 0.19985205 0.41153732 0.3165561 -0.065563366 -0.08224545 0.081244774
0.32264823 0.10935644 0.32887504 0.38378453 0.073897414 0.46204215 -0.027883448 0.45639613
0.05750647 0.2789525 0.09238635 0.13362652 0.19448386 0.0712852 0.10841381 0.20809385
0.20797296 -0.018695263 0.060973603 0.13091037 0.025323408 0.078910924 0.2796362 -0.11913584
-0.016449682 -0.030813955 0.19442354 0.19474578 0.17170192 0.19384062 -0.0040163174 0.03831037
-0.05817773 0.028524222 0.15326634 -0.065967105 0.22773857 0.024520125 -0.07538913 -0.0071465904
0.12266827 -0.076485544 0.1976737 -0.054377846 0.026713097 0.103956856 0.06887055 0.14183088
0.13226783 -0.194529 0.1302523 0.018758364 0.12721352 0.18362334 0.18677925 -0.032776244
-0.04562872 0.112203024 0.044782165 -0.12079674 0.023171593 0.16701394 -0.040607 -0.15416904
0.030511402 0.08280078 -0.058267567 -0.008783312 -0.02777028 0.050370604 -0.13383141 0.008818525
0.12139568 -0.040346496 -0.17452793 0.04652645 -0.033639535 0.16366988 -0.038885586 -0.110386476
0.28964654 0.26300055 0.16785634 0.071720414 0.3473179 0.091397956 0.19403683 0.1371954
0.051257677 0.2531924 0.22898455 0.11370443 0.15846212 0.14135978 0.40174457 0.18334897
-0.09936294 0.15954088 0.3374922 0.04680134 0.30048043 0.27384824 0.24798448 0.40335897
0.13056058 0.116699785 0.14951712 0.07281781 0.21109772 0.34489685 0.43354237 0.40958804

mlp.0.weight f4 [16, 32]
00000000: df1f bc3e bede 3f3e d180 643e bb3c 533e
00000010: 463a c63e bb3f 9fbc 94ef 093d cdc7 d93e
00000020: 3ac2 ee3e e0d2 1b3d 765b 61be ccd2 973d
00000030: 368f e0bd 8867 0ebe 4e27 f63d 8c3c d1bd
00000040: 5270 233e cd4e 0c3e 0faf 95be b8dd 3b3e
00000050: 43ef 873e 3c10 eebe ece9 c43e 5d9d 8f3d
00000060: 5374 5a3d f1ec 3f3e 5de3 f33e af66 c2bd
00000070: 13a8 f33d c8f0 d2bd 8ae8 9dbe 8d20 b23b
00000080: 1b3b a73d 6774 9f3e fb2f a2be 11f9 c23e
00000090: 9eef 3abe 4ce9 dc3e e730 b83d ce05 f83e
000000a0: 9767 2e3e d64e 5ebe fb86 cebe aa78 25be
000000b0: 1774 693e 28fb c0be 04e2 1abe d4b2 4cbe
000000c0: 2a26 223e 22cb bebe 9eca 25be bc08 0b3f
000000d0: e83f c33e 9e29 483e 66e9 1e3d 3c28 103f
000000e0: 87db 383e a532 5ebe 1647 0fbd 5870 593e
000000f0: b962 103d 2c96 7ebe 97b1 c53d 6660 aebe
00000100: a53b 2abe 5114 4bbe cb2a 22be d0b6 1fbe
00000110: 0e07 183e ef8f 4e3d bf9a 0ebe 0f3f e43d
00000120: a2ab d6be 87dc 333d 9277 e63c 6471 e23d
00000130: c2a5 3cbe 97c4 253e 5444 18be c15e 203e
00000140: 86d2 38be 37a9 163f 23c4 523d d6f9 ddbe
00000150: c87e d7bd a3e6 bf3e 8012 64be 0567 92be
00000160: d6ca 493d a1b8 d63d f4e0 733b 8d6d 82be
00000170: 51ba 963d f91f 1bbd 00c6 973e e4d5 3c3e
00000180: 8282 5abe 4e19 23be 7d78 9dbe b7a2 ee3d
00000190: 96ed 813e 028c 47be 024f 2d3c fdb8 a23d
000001a0: 7eb0 41be 57b1 233e 6ec2 86bd a49d 14be
000001b0: 05e2 41be 34fe 12be 6234 1fbe c8cf e33d
000001c0: 9095 8ebd 2d70 243e d1e6 87bd 9d35 6ebe
000001d0: ca9d 0bbe 167b 2b3e 0d69 b9bd ccc6 03bf
000001e0: 254c 2e3e b5f4 17be bcfc 5c3d bc9f 4cbd
000001f0: 32ca 523d 6e5c 87bc 64eb 01bd 6175 ad3e
00000200: 10dd 0e3e 6fd7 a63e f6ba d0be d84b 9f3e
00000210: 970f 88be 66b3 e63e ac3c 113e b47b 953e
00000220: 97f6 a63e 8674 88be 47ee a7be de3a 3fbe
00000230: 14b7 fe3e c12c 9cbd c210 c0be d8af 67be
00000240: 5002 ef3d fd98 acbe 6f8a 8ebd 975c b13e
00000250: 2873 bd3e 43b7 aabb 1fb0 873e a082 ef3e
00000260: bd00 d33d 0330 acbe 224b 34bd 74f7 c43e
00000270: f518 ebbd fd6b b7be a515 d53d e081 c4be
00000280: 0bd1 43be dce1 893e 1392 933e b6fd 2c3c
00000290: fac3 8bbc 9ec7 47bc 706f 443e 0b6f 9abe
000002a0: afb0 b9be d681 a93b 4b6d d23e 341e 493e
000002b0: 9bfd 1abe 4230 e33d 0876 5b3e 33fd 0b3e
000002c0: 97e7 7f3e 2856 9c3c 4dd3 713e d6ce a5be
000002d0: e96a 3ebc f713 083e 508b 2cbe 313b 703d
000002e0: 5771 b5be 72fb a23e 26f8 a1be 9a80 96be
000002f0: a7eb 5f3e b6bf b83d f195 1c3e bde0 2a3d
00000300: 58f2 ffbd e29b 68be 8f06 173e ff23 a43c
00000310: 1a5d 073e d0f2 ad3d f2c5 893e 3f6b c7be
00000320: 93c3 15be cac8 e83b a583 c23e 5055 80bd
00000330: fbb7 1fbe ee88 93bd 47c0 b63d 4450 993e
00000340: 3926 43be accd ac3e e0fa 5a3e c12f 763c
00000350: 0ce6 93be 9fda 933e 3999 61be 8310 d2be
00000360: 78c5 9cbe dacd 4d3e c3b1 babe bfd4 03be
00000370: 3b5e 07be 5ed2 6d3d 742d 813e bc44 993d
00000380: f3cd 07bd c214 d7bc 868e 343e c70e 47bd
00000390: 0c37 bdbd 750f 1abe 2343 563e d31d 31be
000003a0: 9f22 b4be 4702 b9bd f574 7b3e 2a0e fabd
000003b0: ae5a 53be 786e e53d 6e1d 2dbd bd36 ec3d
000003c0: e55a 56be d46e b33e 4b2f 4a3e d7b6 9abe
000003d0: 30b0 5abe a562 c33e fa61 a1be fc83 bbbe
000003e0: 4a5c d0bd 3c4f c53e 611c 5ebe 2ac0 bfbe
000003f0: 712e 39be b45a 29be c9a9 d03c 1a62 043e
0.36743066 0.18737313 0.22314765 0.20628636 0.38716334 -0.019439569 0.033675745 0.42535248
0.46632558 0.038042903 -0.22007546 0.07413253 -0.10964815 -0.13906682 0.120192155 -0.102166265
0.15960816 0.13701935 -0.29235122 0.18346298 0.2654973 -0.4649676 0.38459718 0.070124365
0.05333359 0.1874273 0.47634402 -0.094922416 0.11897292 -0.10299832 -0.30841476 0.0054360093
0.0816557 0.31143495 -0.3167723 0.38080648 -0.18255469 0.4314674 0.089937024 0.4844193
0.17031704 -0.21709761 -0.40337357 -0.16159311 0.22798191 -0.37691617 -0.1512528 -0.19990093
0.15834871 -0.37264353 -0.16190574 0.543102 0.38134694 0.19547126 0.038796805 0.5631139
0.18052493 -0.21699007 -0.034979902 0.21234262 0.0352504 -0.24861974 0.09653013 -0.3405792
-0.16624315 -0.19831969 -0.15836637 -0.15597081 0.14846441 0.050430235 -0.13926218 0.1114484
-0.4192782 0.043911483 0.028133187 0.11056784 -0.18422607 0.16188274 -0.14869815 0.15661146
-0.18049058 0.5885195 0.05145658 -0.43354672 -0.105222285 0.3748065 -0.22272682 -0.28594223
0.049265705 0.10484434 0.003721294 -0.25474206 0.07359756 -0.03787229 0.2964325 0.18440968
-0.21338847 -0.15927622 -0.30755988 0.11652129 0.25376576 -0.19487002 0.010577919 0.0794544
-0.18914983 0.15985619 -0.06580053 -0.1451326 -0.18933876 -0.14354783 -0.15547326 0.111236155
-0.069621205 0.16058417 -0.066358216 -0.2326264 -0.1363441 0.16746172 -0.0905324 -0.51475215
0.17021234 -0.14839442 0.053951964 -0.049957022 0.05146236 -0.016523566 -0.031718627 0.33878615
0.13951516 0.32586238 -0.4076764 0.31112552 -0.26574394 0.45058745 0.141833 0.2919594
0.32610008 -0.266514 -0.3279898 -0.186748 0.49749053 -0.07625724 -0.37512785 -0.22625673
0.11670363 -0.3371047 -0.06959998 0.34640953 0.3700192 -0.005209835 0.26501557 0.46779346
0.10302875 -0.3363038 -0.044016965 0.38470042 -0.114793696 -0.35824576 0.10404519 -0.38380337
-0.19122712 0.2693013 0.28822383 0.010558536 -0.017061222 -0.012193589 0.19183135 -0.30162844
-0.3626761 0.0051729484 0.4109901 0.19640428 -0.15135805 0.11093189 0.21431744 0.13670807
0.24990688 0.019084051 0.23615761 -0.32384366 -0.011622169 0.13288866 -0.16850019 0.0586502
-0.35438034 0.31832463 -0.31634635 -0.2939499 0.21867238 0.09020941 0.15291573 0.041718233
-0.12497395 -0.22715715 0.14748596 0.020036696 0.13219109 0.084935784 0.26908833 -0.3894901
-0.14625387 0.007104014 0.37991062 -0.06266272 -0.15597527 -0.07203852 0.08923393 0.2994405
-0.1905755 0.33750665 0.21384764 0.015026034 -0.2888645 0.28877732 -0.22031106 -0.41028222
-0.30619407 0.20098057 -0.36463746 -0.12874125 -0.1321954 0.05806195 0.2522999 0.07483813
-0.033155393 -0.026255015 0.17632493 -0.048598077 -0.09239015 -0.15044959 0.20924048 -0.17296533
-0.35182664 -0.090336375 0.24556334 -0.12209733 -0.2064006 0.11202711 -0.042264394 0.11533878
-0.20933111 0.35045493 0.19744603 -0.3021762 -0.21356273 0.38161197 -0.31520063 -0.36624134
-0.10173853 0.38537014 -0.21690513 -0.37451297 -0.18084122 -0.16538507 0.025471585 0.12928048

mlp.0.bias f4 [16]
00000000: 1724 c73d 55aa 153e dfc6 133e fcd1 0e3e
00000010: 2b7b 023e 54bf 803d 7c10 373e e3e5 3f3e
00000020: 826e c0bd 9188 dc3d 77d0 623e 2b7d 2e3d
00000030: 7527 0b3e ce78 ef3d 2458 843e 9eda 863e
0.097236805 0.14615758 0.14431332 0.1394729 0.12742297 0.06286493 0.17877382 0.18740039
-0.09396078 0.107682355 0.22149836 0.04259984 0.1358927 0.116929635 0.25848496 0.26338667

mlp.3.weight f4 [2, 16]
00000000: e397 e13e 6bc4 0a3f efa8 afbe 8e8e eabd
00000010: b8b7 963e 830e f0be cdc9 acbe 1cb7 21bf
00000020: c4bb d83e e0bb ff3e 0123 11bf 92e8 cdbe
00000030: 50ad c53e 1181 08bf 2e9c 00bf 2cc1 ce3e
00000040: cab1 12bf 2153 07bf f16b bf3e a442 a63e
00000050: 540d 2bbf 00b8 d63e 09b6 0d3f fe2e ff3e
00000060: cd4e b9be ac34 98be 274c 0e3f 8d7b ee3e
00000070: e7a3 adbe cc7b a63e c8ce b13e ba22 2ebf
0.44061193 0.5420596 -0.34308574 -0.114529714 0.2943704 -0.46886072 -0.33747712 -0.6317003
0.42330754 0.49948025 -0.56694037 -0.402165 0.3860879 -0.5332194 -0.5023831 0.40381753
-0.57302535 -0.5286122 0.3738704 0.32472718 -0.6681721 0.41937256 0.5535589 0.4984054
-0.36192933 -0.29727685 0.5558495 0.46578637 -0.3391411 0.32516325 0.34728074 -0.6802174

mlp.3.bias f4 [2]
00000000: 152c 303d 23a8 e3bc
0.04301079 -0.027790135

weight f4 [28, 30]
00000000: 0000 0000 0000 0000 0000 0000 0000 0000
00000010: 0000 0000 0000 0000 0000 0000 0000 0000
00000020: 0000 0000 0000 0000 0000 0000 0000 0000
00000030: 0000 0000 0000 0000 0000 0000 0000 0000
00000040: 0000 0000 0000 0000 0000 0000 0000 0000
00000050: 0000 0000 0000 0000 0000 0000 0000 0000
00000060: 0000 0000 0000 0000 0000 0000 0000 0000
00000070: 0000 0000 0000 0000 a6fa fb3d f04c b53d
00000080: 62ef 5ebf 2154 a73f b7f9 f4be 5836 323e
00000090: 4937 63be d3fe dabe bf0e 853f bc25 c2bf
000000a0: 252b 95be 2bfb 393f a093 b13f 5e0b 1fbf
000000b0: 790c 8a3f 415e 49be faa4 973f 82e3 4d3f
000000c0: 057b abbe ad05 87bd 3ed2 febd 9267 5abf
000000d0: ea08 9d3f e1f6 00c0 5937 483e b2ca cbbf
000000e0: aff0 10bf 3624 cd3e 299b 33bf b24b 093e
000000f0: a367 0b40 0746 963f 399d d0bf a6ee 313f
00000100: b661 c63e 9ba9 88bf 246c af3f a271 a03d
00000110: 881c 5bbf 1366 ac3f be2f f9be 88b9 49bf
00000120: be9e 9abf 7beb 89bf aded 8bbf 3dbf 00bf
00000130: 84d7 4f3e 556a a5bf af89 fb3f f4d7 6b3e
00000140: 9184 85bf a6ff 553f 5a81 77be a742 32bf
00000150: 0ff6 0ec0 0d20 0d40 83d4 a8bf 091b adbf
00000160: 5a1e 93bf fd27 d73f 0840 55bd 5699 943f
00000170: 27ca eabe f1fd ad3f 20a5 37bf c126 3d3f
00000180: e421 7e3f 9360 0dbf 10fa a13f 6774 c13f
00000190: c3af 88bf 5baf fbbf 4ae9 873e 0086 48bf
000001a0: 14c1 793f 2d3a f63d 53a4 7abf 69d3 98be
000001b0: 180d b63f 1984 7ebf ebce 973f 936d c03e
000001c0: 8338 1b3f 7dc2 543f 4ea8 913e 1e39 8fbf
000001d0: e395 b5bf 5171 99bf ad3a f53e 046b 3b3e
000001e0: 8bf8 1ebe 809d 57be e39c 0d3e 13df 5a3f
000001f0: cf8f 92bf f6e7 5bbf cc8a d03e d785 e0bf
00000200: 772e b53f 2e63 33bf 8552 5fbe 0f7e 95be
00000210: 9d5c 3c3f 4574 a23e 065e 153f f574 333f
00000220: cecc 98be a2f7 9ebf d71b ca3f fb2a ebbf
00000230: 8c93 33bf a63e 423f ec74 d33e 030d 2e40
00000240: 62f7 2ebf 976b a1bf 5ea0 4bbe 3f25 323e
00000250: 52cc 1ec0 4107 383f be6b c73e 9ec9 983e
00000260: e65b 163f 0363 b5be b932 83be ebf5 35bf
00000270: 4fba 6b3f 1c06 753f baa4 89bf 1918 5b3f
00000280: 4488 b13e 5ed9 a9be 9c5a 2b3f eb59 e4bf
00000290: c06a bc3f 7edc 523b fa10 6bbf 9e60 df3e
000002a0: 8c4a 7abf b363 35bf ef38 32bf 2f35 943e
000002b0: 971a 69bf 52d1 a0bf bc8f 0b3f 369e fb3e
000002c0: c29f 8d3f 97dd 6e3e eed0 b83d 93d3 7bbf
000002d0: 5da7 55c0 c617 253f b0b0 74bf 7ba2 dd3f
000002e0: ceb6 2c3f f90f d33f d695 cd3f 3625 823f
000002f0: f015 a0be b399 e4be 049a 8cbf a1b7 df3f
00000300: db01 00bf d694 76bf 6054 02bf c4dc 2bbf
00000310: 7ed2 f6bf 9b28 393f 32d4 31bf 60bc 8fbf
00000320: 7064 26c0 be3e a2bf e21e 273e 65f2 d33f
00000330: 321b 6cbb 1d23 92bf 853b fdbf 5408 e23f
00000340: a36a ff3e dc47 883f 5a60 5a40 4ad9 2d3f
00000350: eb8c 883f 629f 333f f969 92bf 51bf 213f
00000360: 7f3f 4e3f b248 243f a555 72be c2af 44bf
00000370: b38f bb3e 6a2b 1f3f 4a17 b3bf c3ac bbbf
00000380: f0ac 91bf 9c9f 143f 2368 883f ac9c bc3f
00000390: 9118 8e3f 66c6 9c3f fc88 073f c7c8 eabe
000003a0: 7eda 973f a0f7 553f eac4 b63f c503 01bf
000003b0: e865 60bf e179 ed3e 5a36 0a40 689d 8abf
000003c0: 5f7c e0bd 1e17 9e3f 83c3 c33f 6104 b83f
000003d0: b007 b8bf 978f 90bf 031d f7be b249 e73e
000003e0: ab42 eb3f ffff da3f 9d15 9dbf f50f a0bf
000003f0: 60b5 05bf bee4 98bf 0fed 73bf bb9a ffbe
0.0 0.0 0.0 0.0 0.0 0.0 0.0 0.0
0.0 0.0 0.0 0.0 0.0 0.0 0.0 0.0
0.0 0.0 0.0 0.0 0.0 0.0 0.0 0.0
0.0 0.0 0.0 0.0 0.0 0.0 0.12303667 0.08852565
-0.8708402 1.3072549 -0.47846767 0.17403543 -0.22189058 -0.4277254 1.0395125 -1.5167766
-0.2913448 0.72648877 1.3873177 -0.6212672 1.0785056 -0.19664861 1.1847222 0.80425274
-0.33492294 -0.065928794 -0.12442444 -0.85314286 1.2268345 -2.0150683 0.19552363 -1.5921233
-0.56617254 0.4006669 -0.7015863 0.13407782 2.1782005 1.1740121 -1.629798 0.69504774
0.38746423 -1.067676 1.3704877 0.07834174 -0.8559041 1.346865 -0.48669237 -0.78798723
-1.2079694 -1.0774988 -1.0931908 -0.50291806 0.20297056 -1.2923075 1.9651393 0.23031598
-1.0431081 0.83593214 -0.24170437 -0.69632953 -2.2337682 2.2050812 -1.3189853 -1.3523875
-1.1493638 1.6809078 -0.052063018 1.1609294 -0.45857355 1.3593122 -0.71736336 0.7388726
0.99270463 -0.55225486 1.2654438 1.5113648 -1.0678638 -1.9662889 0.26545173 -0.7832947
0.9756024 0.12022815 -0.9790699 -0.29848793 1.4222746 -0.99420315 1.1860021 0.37583598
0.60633105 0.83109266 0.2844872 -1.1189306 -1.4186367 -1.1987706 0.4789633 0.18302542
-0.15524499 -0.21056175 0.13829379 0.85496634 -1.1450137 -0.8590082 0.40730894 -1.7540845
1.4154805 -0.7007321 -0.21808822 -0.29197738 0.73578817 0.31729332 0.58346593 0.7010034
-0.29843754 -1.2419322 1.5789746 -1.8372492 -0.70147014 0.75876844 0.41300142 2.7195442
-0.68346226 -1.2610959 -0.19885394 0.17397021 -2.4812207 0.7188607 0.38949388 0.29841322
0.58733976 -0.35427102 -0.25624636 -0.71078366 0.9208116 0.9571245 -1.0753396 0.85583645
0.34674275 -0.3317365 0.66935134 -1.7839941 1.4720078 0.003217488 -0.9182278 0.436284
-0.9777 -0.70855254 -0.69618124 0.28946826 -0.910562 -1.256388 0.54516196 0.49144143
1.1064379 0.23326717 0.09024225 -0.9836971 -3.33834 0.644894 -0.95582104 1.731521
0.6746644 1.648925 1.6061351 1.0167606 -0.31266737 -0.44648513 -1.0984502 1.7477914
-0.5000283 -0.96320856 -0.50909996 -0.67133737 -1.9282987 0.72327584 -0.6946441 -1.1229362
-2.5998802 -1.2675397 0.16320375 1.6558348 -0.0036026952 -1.1416966 -1.9783789 1.7658792
0.49886045 1.064693 3.4121308 0.6790968 1.0668005 0.70165074 -1.143859 0.6318255
0.8056564 0.64173424 -0.23665483 -0.76830685 0.3663307 0.6217562 -1.3991482 -1.4662098
-1.1380901 0.58056045 1.065678 1.4735312 1.1101247 1.2248046 0.52943397 -0.45856306
1.1863554 0.8358097 1.4278843 -0.50396377 -0.87655497 0.4638205 2.1595674 -1.0829287
-0.10961222 1.2350805 1.529404 1.4376336 -1.4377346 -1.129382 -0.48264322 0.45173413
1.837972 1.7109374 -1.2272221 -1.250487 -0.5222988 -1.1944807 -0.952836 -0.49922737

weight_ih f4 [128, 30]
00000000: ca76 ee3b 0e5e 5f3e 7140 2a3e 2652 3d3d
00000010: 6ee0 17be e2ac 96bd bffe e6be 8500 8fbe
00000020: 34eb 9a3c d960 fd3d 4935 cabc ab49 5ebe
00000030: 6a20 153d c47a 813e a0ce dfbb 2c34 b3bc
00000040: ec07 84bd ac35 173e 52a8 563d 6411 513e
00000050: 7a02 563e 1053 84bd fb81 58be a434 063c
00000060: 6ec6 a33d ad28 f33d 983a 113e 5e5a 07bf
00000070: cf5d 49bd 6f69 693e 2480 89bd 82e7 e73d
00000080: 8a12 923b 197e e5bc 538b 13be d6a4 783e
00000090: ea98 8e3d 2a21 f93d 8aaa 653e eba9 073d
000000a0: 85ec dbbe d4d4 d3be 6c07 bd3e a9c8 e53d
000000b0: e719 bf3b 4be8 233e 24b0 fcbe 841b 56be
000000c0: c252 0dbe ecd5 1ebe bda5 7abc 8ab5 71be
000000d0: c130 a43c 4190 cd3e f3e3 9dbc ef9b 4abe
000000e0: 5552 85be e15a b1bd 28e2 91bd 1419 ff3d
000000f0: b1b6 763e 7040 513e f21d febd cbf5 5b3e
00000100: 6490 183e 4d92 583d 83f1 873e b0f4 483e
00000110: 3731 833e 4f12 853e 2c38 a6bb 974b adbd
00000120: 5a5d 743d 21ae 5b3c 4233 9bbe 7247 1ebe
00000130: dd6d 00be b296 893b 2201 003e 641f 3abe
00000140: 9926 36be f8fe 8a3e 170c d03b d967 3f3e
00000150: 03a4 293e 4817 103e 4fc4 93be aec6 443e
00000160: 92b6 92be 8bbf 483c 0f7c 6b3e b961 193e
00000170: f565 323e c783 2bbd 2467 f8bd 298e 00bd
00000180: 56ef 8f3e 721c 06bd b1f9 bbbd 6671 c5bd
00000190: 81bd 2e3e faba 903a 99f8 c9bd c884 a33b
000001a0: 3e90 0f3e bc97 253e 1458 303e ce6e 32bd
000001b0: d7fb ef3d 9dc5 ec3d 655f 2dbe 96c8 bebd
000001c0: ed4d c1bd 3102 d8bb 772a f03d 79db d3bd
000001d0: 06e1 02be 3fef 2c3e 81cc a83e c738 043e
000001e0: 53b8 c7bb 0ede 9a3c c3e5 153c 029b 853e
000001f0: b4b5 313e bc34 09be 2f83 efbd ce26 73be
00000200: a191 edbd 639f 2fbc b5f0 0bbe 7f83 953d
00000210: 0442 ccbb 3d8f 67be 169c 23be 4f99 1c3d
00000220: 0633 ab3d 0ce1 71be 65c5 3b3e 6e95 9ebe
00000230: 8ceb 6bbd 30f2 a2bd f9aa ef3d d49f 1b3e
00000240: 8655 40be 35f9 91be 3bf8 92be 82ae eabc
00000250: eea8 14bd ff9f 5ebe f66f 99bd e4ee 243e
00000260: 9183 8ebd 770c cbbc 8859 a1be 907e d33d
00000270: 2a28 74be 2d54 583d 73c5 ef3c 1aa9 11bd
00000280: e33d 783d 057a 9abe 1f3c 29bc 1bff 6a3d
00000290: 84b3 323e 00a6 ab36 d6be 113e 9de0 7cbe
000002a0: 7cf3 31be 7d80 7b3c 620e 8a3e 8737 633d
000002b0: c3d7 543e 217c a23a 9899 da3d 686a f63c
000002c0: 02dc ccbe 3ce4 9ebd d8d5 d53d c127 063e
000002d0: 0c40 8cbd 3017 49be b6f3 31be 9879 d2bc
000002e0: 8f5d 94be 11d9 a33d da33 5abe bed7 f9ba
000002f0: b5f9 d83e ef61 0fbe 3c58 0dbe 9527 d1bd
00000300: 4a81 613e c11e 43be af0d c03d 858a f4bd
00000310: a2b9 57be f93e 8bbc 3f90 81be 139f 7e3e
00000320: 722f ec3d 2cfa 7dbe 26af f03d a6ae ef3d
00000330: 943f 6c3e 9131 af3d fcc8 2b3e c222 e9bd
00000340: f95e 273d f768 7dbd 24dc 463e a469 1bbd
00000350: 8138 453e ec8d 97bd a472 e73d 97e9 8dbd
00000360: 2808 003f 2bec 5fbd 3080 a83e 190d dd3e
00000370: ed44 72be 6d66 86be 883f 75bd 952a fbbe
00000380: 5474 babe 5119 1abc 7453 e63c 5ea7 debe
00000390: 29ff 093e 2377 1e3d df06 82bd 00a1 56be
000003a0: a378 07be c20a e23d 880f ecbd 1d35 d7bc
000003b0: 6e28 2bbe 2872 203e 875a 8ebc 143a 0f3e
000003c0: e5ab 85be adc0 1cbe 8952 363d e80b c1bd
000003d0: 6dea c43c d78f ae3e ad23 033e 9c55 af3e
000003e0: 5e91 08be 6b60 1a3e cc59 283e 4733 80bd
000003f0: 8b7f 8fbd 3ebb 6b3c 12cd 45bd 8898 bebd
0.0072773444 0.21813223 0.16626145 0.04622092 -0.14831707 -0.073571935 -0.4511623 -0.27930084
0.018910982 0.12371988 -0.024683611 -0.2170779 0.036407866 0.25288975 -0.0068300515 -0.021875463
-0.064468235 0.14766568 0.052406617 0.2041679 0.20899382 -0.064611554 -0.21143334 0.008191261
0.07996832 0.11872993 0.14182508 -0.52872264 -0.04916173 0.22794126 -0.06713894 0.113234535
0.0044577764 -0.02801423 -0.14408617 0.2428163 0.0696276 0.12164529 0.22428337 0.03312103
-0.42953888 -0.41373312 0.36919725 0.112199135 0.005831945 0.16006581 -0.49353135 -0.20908934
-0.13801101 -0.15511292 -0.015298304 -0.23604408 0.020042779 0.4014912 -0.019273734 -0.19786046
-0.26039377 -0.08659912 -0.07123214 0.12455955 0.24093129 0.20434737 -0.12408055 0.21480481
0.1489883 0.0528739 0.26551446 0.19624591 0.25623485 0.2599053 -0.005072614 -0.08461683
0.05965934 0.013408215 -0.30312544 -0.15456942 -0.1254191 0.0041988725 0.12500432 -0.18176037
-0.17788161 0.2714765 0.0063490975 0.18691958 0.16566472 0.14071381 -0.2886071 0.19216415
-0.28654915 0.012252699 0.22996543 0.14978684 0.17421706 -0.04187372 -0.121290475 -0.031385574
0.28112286 -0.03274197 -0.09178484 -0.0964077 0.17064478 0.0011042051 -0.09861869 0.004990194
0.14019868 0.16171163 0.17221099 -0.043562703 0.117179565 0.11561129 -0.16930921 -0.093156025
-0.09438691 -0.006592058 0.117268495 -0.103445955 -0.12781152 0.1688814 0.32968524 0.12912284
-0.006094971 0.018904712 0.009149018 0.26094824 0.1735447 -0.13399023 -0.11694943 -0.23745272
-0.11600042 -0.010719153 -0.13666041 0.073004715 -0.0062334556 -0.22613235 -0.15977511 0.038232144
0.08359341 -0.23621005 0.18337019 -0.3097338 -0.057597682 -0.0795635 0.11702532 0.15197688
-0.18782625 -0.28510442 -0.2870501 -0.028647665 -0.036293916 -0.21740721 -0.07492058 0.16106755
-0.06958688 -0.024786217 -0.3151362 0.10326874 -0.23843446 0.05281465 0.029268956 -0.03556166
0.060605895 -0.3017122 -0.010329275 0.057372194 0.17451292 5.115522e-06 0.14232954 -0.24695058
-0.17378038 0.015350458 0.26964098 0.055472877 0.20785432 0.0012396612 0.10673827 0.030080035
-0.40011603 -0.07758376 0.10441178 0.13101102 -0.068481535 -0.19637752 -0.17378125 -0.025692746
-0.2897763 0.080003865 -0.21308842 -0.0019061489 0.4237801 -0.14002202 -0.1380319 -0.10212628
0.22021976 -0.190547 0.0937761 -0.11940483 -0.21066907 -0.016997801 -0.25305364 0.2486537
0.11532487 -0.24802464 0.11752157 0.117032334 0.23071128 0.08554376 0.16775888 -0.11383583
0.040862057 -0.06186768 0.19419914 -0.037942544 0.19259836 -0.07400116 0.11301163 -0.06929319
0.50012445 -0.054668587 0.329103 0.43174055 -0.23659106 -0.2625002 -0.05987504 -0.49055925
-0.36416876 -0.00940545 0.028115965 -0.43487066 0.13476242 0.038687836 -0.06348967 -0.20959854
-0.13229613 0.11037208 -0.115264 -0.026270444 -0.16714641 0.15668547 -0.017377151 0.13986999
-0.26107708 -0.15307875 0.044512305 -0.09426099 0.024037564 0.34094116 0.12806578 0.34245002
-0.13336703 0.15075843 0.16440505 -0.062597804 -0.07006749 0.014387904 -0.048291273 -0.09306437

weight_hh f4 [128, 32]
00000000: 5986 10bf ce4c 473f 01b4 93bd 890f 783e
00000010: 3619 8f3e eaf6 b5be 8ddd 2f3d 6564 673e
00000020: c4ed 473e 2263 753e 5ed7 193f dc8e e7bd
00000030: b086 67be 62fc c03e 3829 80be c447 33be
00000040: 83d0 35be 3664 16bd abad db3e f4e3 673d
00000050: 690c 95be ec0b 313d 1c15 98bd 8da4 843e
00000060: f986 9b3e f9e1 14be ec7b 0b3d 3357 9dbe
00000070: 9e1a 4e3c 8d27 9a3e 186a fc3d 0152 5bbd
00000080: fd77 b6bd 2e50 8fbe 8635 373d f35f 39be
00000090: d995 443e fa3a ad3e 6004 9abd 1971 dd3c
000000a0: 2df0 87be ac1a 81be 556d 72bd 2691 d43e
000000b0: 50dc 013d 2e74 843b f1ef e63d 5d9a b03d
000000c0: ccc4 80be eef3 d53d c223 65bd e776 43bc
000000d0: f6b3 113f 064a ec3e 58bd 8ebb 5a5d 31be
000000e0: 2ab5 03bd 8349 cfbd 037b 9fbc 96fa 4b3e
000000f0: 39ae 913e a26b 9cbd c3f3 823e 0625 0dbf
00000100: a137 9fbe 1950 933d b2cc 9bbe 7fb9 283e
00000110: 6836 d4be 99f3 e13e cc0d 4cbe f737 f83e
00000120: e81b b2be b868 243d dc4f 71bd 5b2e 8dbe
00000130: b68e a6bc 08b9 babd 3db5 74be 8843 65be
00000140: 960e 05bc 9ee5 e13c 2a36 953d ca69 5bbd
00000150: 4856 d33d e986 923e afbb e73e 2886 173e
00000160: 7b44 383d abfa e73e 9509 af3d d3bb 483f
00000170: f470 443e 1e15 95bd 94d6 02be dabe 42be
00000180: 9727 92be 4052 ec3e b4ce e8bd 5244 433e
00000190: 125b d5be 704a 22be f5e3 8e3e c5db 8d3c
000001a0: 751c e93d 30c0 db3e 81f5 393e 029f 1bbe
000001b0: 313c 54be 8520 963e 8680 923e 1df1 0e3e
000001c0: d622 133e ba04 18bf f997 073e 0ea2 943e
000001d0: 572a dbbe bd67 48be 4005 b13e 1591 ecbb
000001e0: ffa6 373e 8b80 1a3e 8901 bfbc 9d15 ff3d
000001f0: 836a 96be cc64 973d 114c e93d 51f5 053f
00000200: 4b61 203d 434a dabe b58d 88be 3b7b ee3d
00000210: 6aa5 97be cf7e 013e 7953 863d 158c 7c3c
00000220: 0a2e 44be b90d 8abc c294 debe b2ff aabb
00000230: 2cd5 a6bd 4579 78be 8de8 f43d 9a57 a43c
00000240: 9246 9c3e b47e 0abf 436c a2be 56bc 5abd
00000250: efae f93d 4119 5b3e de63 ab3e be7c 893d
00000260: ae3a b63e 619e 00be 642e c13d b38c fe3e
00000270: 45fe f8bd 9e1c ae3d 4155 313e 70f0 353e
00000280: 69f1 233e a656 d4bd b487 c7be 9c91 f1bb
00000290: 2171 dbbc d830 063e c04d 19be 9fd9 563f
000002a0: 6e5f dbbe 465a 263e 3d66 74be 1e41 71be
000002b0: 0688 013a c5a3 eebd 0c7d 94be 5add 01be
000002c0: 3513 353e af4d 5f3e d203 333d 59c4 503e
000002d0: 8f17 413f a01f fa3e c4e3 f7bd 0f18 08bd
000002e0: a80a a0bd 4795 9d3b f6eb ad3e a30f d33d
000002f0: 732a c6bc abb3 4dbe ebb7 2f3e c9fc ddbe
00000300: 728b 5d3d 99af 123f 79d2 b4be 12fa ae3e
00000310: 196e 173e 3e38 423d e271 d13c 7352 ae3e
00000320: 1884 d73e 3bdc e2bd ba0c 103e ae57 d6be
00000330: d8f8 62be 6b6b 9cbe 78e0 12be c3c5 31bd
00000340: 2ec4 b43d 2651 703e a576 ef3e 8e9b 513e
00000350: 58e6 63bd ae88 3ebd 59b9 04be 4e72 26be
00000360: 0e0e e43b b815 54bd 0d3d 0c3e 96a6 40bc
00000370: 6edf 82be d2d0 1fbc a5a9 94be 4026 2dbe
00000380: 8b0f 16bd a6c4 f43e 70b1 ef3e bfcc 82bd
00000390: 6fc9 37bd 82e9 fbbd d5a3 ca3d 0918 33be
000003a0: 8014 68be 6a54 66be 608b 6f3e 3222 ae3c
000003b0: c1a7 97be e40f 2e3e dc49 3abd 1d98 a5be
000003c0: 8dce d1be c06e b5bd 5663 a63e 27f8 90bd
000003d0: 87d9 eb3d ceb5 573e 9b15 76be 282c d7bc
000003e0: 72af 8dbe b8ac a93e 77b2 f13c 9a19 c03d
000003f0: 5dc6 cb3e 3b65 913e 4a29 59be 0ec1 ea3d
-0.56455 0.7785157 -0.072120674 0.24224676 0.27948922 -0.35539943 0.042935897 0.22596891
0.19524294 0.23963597 0.6009425 -0.11306545 -0.22609973 0.37692553 -0.25031447 -0.17507845
-0.17755322 -0.036716662 0.42905936 0.056613877 -0.2911103 0.04322426 -0.07425901 0.25906792
0.30376413 -0.14539327 0.034053728 -0.3073059 0.012579588 0.301083 0.12324923 -0.053545002
-0.08909605 -0.2799086 0.04472878 -0.18103008 0.19197787 0.33834058 -0.07520366 0.027031468
-0.26550427 -0.25215662 -0.0591863 0.4151699 0.031704247 0.00404217 0.11276234 0.086231925
-0.25150144 0.104469165 -0.055942304 -0.011930204 0.56915224 0.46150225 -0.0043560676 -0.17320767
-0.032155193 -0.10121443 -0.019467836 0.1991981 0.28453234 -0.07637717 0.255766 -0.5513462
-0.3109713 0.07193012 -0.30429608 0.16477011 -0.4144776 0.44131163 -0.19927138 0.48480198
-0.34786916 0.04013893 -0.05891405 -0.2757443 -0.020331722 -0.09117323 -0.23897262 -0.22389042
-0.008121153 0.02757531 0.072857216 -0.053567685 0.10319191 0.28618553 0.4526038 0.1479727
0.044987183 0.45308432 0.085467495 0.78411597 0.19183713 -0.072794184 -0.12777168 -0.19018117
-0.2854583 0.46156502 -0.113675505 0.19069031 -0.41671044 -0.15848708 0.27908292 0.017316708
0.11382381 0.42920065 0.18160059 -0.15197375 -0.20726086 0.29321685 0.2861368 0.13959165
0.14368758 -0.5938221 0.13241567 0.29029888 -0.4280574 -0.19570823 0.34574318 -0.0072194436
0.17934798 0.15088098 -0.023316162 0.12455294 -0.29378137 0.07392272 0.11391462 0.5232745
0.039155286 -0.42634782 -0.26670614 0.11644598 -0.29618388 0.1264603 0.0655889 0.0154142575
-0.19158188 -0.016852247 -0.43472868 -0.0052184695 -0.08146128 -0.2426501 0.11958418 0.020061303
0.3052259 -0.54099584 -0.31723222 -0.053402267 0.12191569 0.21396352 0.3347463 0.06713246
0.35591644 -0.12560417 0.094326764 0.4971672 -0.12157873 0.08501552 0.17317678 0.17767501
0.1601006 -0.103680894 -0.3897072 -0.0073720943 -0.026787343 0.1310457 -0.14971066 0.83925813
-0.42846245 0.16245374 -0.23867126 -0.23559996 0.00049412285 -0.1165233 -0.29001653 -0.12682095
0.17683108 0.21806978 0.043704815 0.203874 0.7542657 0.48852253 -0.1210399 -0.03322607
-0.078145325 0.004809055 0.33969086 0.10305717 -0.024190163 -0.20088069 0.17160003 -0.43356922
0.054088064 0.5729919 -0.35316828 0.34175164 0.14788093 0.047416918 0.025566999 0.3404728
0.42092967 -0.11077162 0.14067355 -0.4186377 -0.22165239 -0.30550703 -0.1434344 -0.04340149
0.08826481 0.23468456 0.46770206 0.20469496 -0.055639595 -0.046517067 -0.1296133 -0.16254541
0.0069596833 -0.051778525 0.13695164 -0.011758467 -0.25561088 -0.0097543765 -0.29035679 -0.16909122
-0.036635917 0.4780628 0.46815062 -0.063867085 -0.044869836 -0.123003975 0.0989453 -0.17489637
-0.2266407 -0.22493139 0.23393011 0.02125654 -0.29620174 0.1699825 -0.045480594 -0.32342616
-0.40977898 -0.088590145 0.32497662 -0.07078581 0.115160994 0.21065447 -0.2403168 -0.026266173
-0.27672917 0.33139586 0.029504044 0.09379883 0.39799777 0.28397545 -0.21207157 0.114626035
