assignment_3/outputs/models/L3.pth (torch, 50090 bytes, 20 tensors)

embedding.weight f4 [28, 30]
000000 00 00 00 00 00 00 00 00 00 00 00 00 00 00 00 00
       0.0 0.0 0.0 0.0
000010 00 00 00 00 00 00 00 00 00 00 00 00 00 00 00 00
       0.0 0.0 0.0 0.0
000020 00 00 00 00 00 00 00 00 00 00 00 00 00 00 00 00
       0.0 0.0 0.0 0.0
000030 00 00 00 00 00 00 00 00 00 00 00 00 00 00 00 00
       0.0 0.0 0.0 0.0
000040 00 00 00 00 00 00 00 00 00 00 00 00 00 00 00 00
       0.0 0.0 0.0 0.0
000050 00 00 00 00 00 00 00 00 00 00 00 00 00 00 00 00
       0.0 0.0 0.0 0.0
000060 00 00 00 00 00 00 00 00 00 00 00 00 00 00 00 00
       0.0 0.0 0.0 0.0
000070 00 00 00 00 00 00 00 00 a6 fa fb 3d f0 4c b5 3d
       0.0 0.0 0.12303667 0.08852565
000080 62 ef 5e bf 21 54 a7 3f b7 f9 f4 be 58 36 32 3e
       -0.8708402 1.3072549 -0.47846767 0.17403543
000090 49 37 63 be d3 fe da be bf 0e 85 3f bc 25 c2 bf
       -0.22189058 -0.4277254 1.0395125 -1.5167766
0000a0 25 2b 95 be 2b fb 39 3f a0 93 b1 3f 5e 0b 1f bf
       -0.2913448 0.72648877 1.3873177 -0.6212672
0000b0 79 0c 8a 3f 41 5e 49 be fa a4 97 3f 82 e3 4d 3f
       1.0785056 -0.19664861 1.1847222 0.80425274
0000c0 05 7b ab be ad 05 87 bd 3e d2 fe bd 92 67 5a bf
       -0.33492294 -0.065928794 -0.12442444 -0.85314286
0000d0 ea 08 9d 3f e1 f6 00 c0 59 37 48 3e b2 ca cb bf
       1.2268345 -2.0150683 0.19552363 -1.5921233
0000e0 af f0 10 bf 36 24 cd 3e 29 9b 33 bf b2 4b 09 3e
       -0.56617254 0.4006669 -0.7015863 0.13407782
0000f0 e0 14 01 40 dd 5d 88 3f 5a aa d5 bf 17 c8 45 3f
       2.016899 1.0653645 -1.6692612 0.7725844
000100 19 26 ae 3e a7 c7 6a bf 90 34 8e 3f e3 84 5f be
       0.3401344 -0.91710895 1.1109791 -0.21828036
000110 85 5c 2d bf c4 a1 a0 3f 1e ad f9 be 46 80 7b bf
       -0.677193 1.2549367 -0.4876489 -0.98242605
000120 01 cf 80 bf 73 fb 82 bf 89 4d 6c bf d2 3e fd be
       -1.0063173 -1.0232986 -0.9230581 -0.4946199
000130 d6 c2 f3 3d 20 2e 95 bf e0 89 f8 3f 64 5b de 3e
       0.119023964 -1.1654701 1.9417076 0.434291
000140 46 86 70 bf c2 0c 79 3f 9f 9d 8d be 74 ba e3 be
       -0.93954885 0.9728509 -0.27659318 -0.4447819
000150 94 03 07 c0 dc e4 f7 3f 1b 19 e5 bf 67 16 c3 bf
       -2.1095934 1.9366717 -1.7898287 -1.5241212
000160 1e 54 8c bf ca e0 c4 3f fe a9 82 be 5a 9e 8e 3f
       -1.096317 1.53811 -0.2552032 1.1142075
000170 41 db 2b bf e2 0a d5 3f 8a ba 4c bf 92 cd fc 3e
       -0.6713143 1.6643946 -0.79972136 0.49375588
000180 be fc a5 3f 60 70 fe be 3a 81 99 3f 5e a6 a9 3f
       1.2967756 -0.4969511 1.1992562 1.3253896
000190 b9 d5 8d bf 98 49 eb bf a4 c4 f1 3c 24 b8 4e bf
       -1.1080848 -1.8381834 0.02951271 -0.80749726
0001a0 8d b4 84 3f e1 08 8d 3e 6d 22 62 bf 2f c5 5c be
       1.03676 0.27545837 -0.8833378 -0.21559595
0001b0 b1 6b be 3f a2 bb 87 bf b3 b4 94 3f 3d df 72 3e
       1.4876615 -1.0604136 1.1617645 0.23717971
0001c0 44 e5 4e 3f fd b8 64 3f 53 20 56 3e 5c 08 92 bf
       0.8081858 0.8934477 0.20910768 -1.1408801
0001d0 0c 1d c1 bf 8e 76 90 bf 7b 09 09 3f be 65 81 3e
       -1.5086989 -1.128618 0.5353009 0.25272936
0001e0 03 ef 36 be 25 18 55 bd f7 2c 86 bd 24 16 fe 3e
       -0.17864613 -0.05202498 -0.06551545 0.49626267
0001f0 52 32 75 bf 2a e8 39 bf a3 8a 4b 3e 9a 5e de bf
       -0.9577991 -0.7261988 0.19877104 -1.737262
000200 31 ac d4 3f 9d a6 18 bf 48 65 3f bd 25 62 b6 be
       1.6615049 -0.5962923 -0.04672745 -0.35621753
000210 be 91 1c 3f dd db 03 3f e0 07 1d 3f 61 57 f9 3e
       0.61159885 0.5150736 0.6134014 0.48699477
000220 51 f5 9b be 92 a5 a2 bf 0d a6 c7 3f 0e 67 f0 bf
       -0.304606 -1.2706778 1.559755 -1.878145
000230 9d f4 45 bf 4f 48 84 3f 50 7e 40 3f ad 8c 36 40
       -0.77326375 1.0334567 0.7519274 2.8523362
000240 c3 4c 41 bf 6c 30 48 bf 17 d4 ca bc 16 96 7c 3d
       -0.75507754 -0.78198886 -0.024759335 0.06166657
000250 08 81 1e c0 27 90 72 3f 72 f1 11 3f 5c 3a e1 3d
       -2.4766254 0.9475121 0.5700904 0.10997459
000260 aa 98 79 3f d1 4d 3b be 79 38 7c be f7 a8 3e bf
       0.9749857 -0.18291403 -0.24630918 -0.7447657
000270 93 65 a8 3f 65 cd 9b 3f 6c 21 84 bf b3 31 70 3f
       1.3155998 1.2172056 -1.03227 0.93825835
000280 c2 ab c3 3e a8 99 b8 be 17 1b de 3e c6 2b f4 bf
       0.38216978 -0.3605473 0.43380043 -1.9075859
000290 6c 4b a1 3f a1 a5 98 3e 96 96 61 bf 63 be 1f 3e
       1.2601142 0.29813865 -0.881204 0.1559997
0002a0 dc 7a 85 bf f1 d0 0d bf 5f 83 3e bf 2c e9 f3 bd
       -1.0428119 -0.55396944 -0.74419206 -0.119097084
0002b0 9d 26 94 bf 14 9a b9 bf 06 d6 1d 3f 29 df 3f 3f
       -1.1574284 -1.4500146 0.616547 0.7494989
0002c0 2c 47 e3 3f 4e e8 61 3e f7 1d b4 3d f0 12 ca bf
       1.7756095 0.22061273 0.08794778 -1.5787029
0002d0 c6 23 42 c0 22 00 1f 3f 1a 7a 6c bf 1a d6 d8 3f
       -3.0334334 0.6210958 -0.9237381 1.6940339
0002e0 20 d5 02 3f 7e 39 d5 3f 4f 43 b5 3f ac 2d 3f 3f
       0.5110645 1.665817 1.4161166 0.74679065
0002f0 47 6e 5d be 4c e6 11 bf 96 ab 90 bf 29 fe c0 3f
       -0.21624099 -0.5699203 -1.1302364 1.5077564
000300 d1 a1 e1 be 90 86 64 bf 78 ef 3d bf d2 14 f1 be
       -0.4406877 -0.89267826 -0.74193525 -0.47086197
000310 b8 62 f4 bf 2c 44 68 3f fa 19 33 bf c8 48 92 bf
       -1.9092627 0.9072902 -0.6996151 -1.1428461
000320 00 04 15 c0 07 cf 9f bf f8 38 8f 3e ea ec e9 3f
       -2.3283691 -1.2485055 0.2797315 1.8275425
000330 8e cb 88 3e 1f 4c 86 bf 18 86 f0 bf 46 2f c7 3f
       0.267178 -1.049198 -1.8790922 1.5561302
000340 df ec 0e 3e 7c 01 a4 3f 72 81 63 40 ff 89 5c 3f
       0.13957547 1.2812953 3.5547757 0.86148065
000350 1f f9 95 3f 4c 54 50 3f 3b 52 2a bf fe 0a 0a 3f
       1.1716651 0.81378627 -0.66531724 0.5392302
000360 74 be 36 3f e6 2c 34 3f 85 49 09 be cc df 30 bf
       0.7138436 0.7038101 -0.13406952 -0.69091487
000370 34 55 5d 3e 3c e1 1d 3f 48 6e d7 bf 05 78 b0 bf
       0.21614534 0.61671805 -1.683053 -1.3786627
000380 6d d7 9a bf 2f 94 bd 3e f3 47 90 3f 76 d8 9c 3f
       -1.2096993 0.37027118 1.1271957 1.2253559
000390 53 06 87 3f 82 2f a1 3f 04 cb 5f 3f 51 b2 ab be
       1.0548805 1.2592623 0.8741915 -0.33534482
0003a0 42 51 af 3f 0d 3e 43 3f 70 2b b6 3f eb d5 7c be
       1.3696673 0.76266557 1.4232006 -0.24690978
0003b0 35 43 b7 be 0f e8 ed 3e 05 71 0a 40 8c 4d 45 bf
       -0.35793462 0.4646611 2.1631482 -0.7707145
0003c0 b0 6a 35 be 06 40 8b 3f a9 86 a0 3f b0 f4 9a 3f
       -0.1771648 1.0878913 1.2541095 1.2105923
0003d0 f7 b8 a4 bf 1c b5 68 bf 3c 3a d4 bd 95 04 5c 3e
       -1.2868947 -0.9090135 -0.1036267 0.21486123
0003e0 6e 28 b5 3f 6e ee a3 3f e5 ad 97 bf c5 41 9c bf
       1.4152963 1.2807138 -1.1849943 -1.2207571
0003f0 3e b5 63 be 38 ee 7b bf bf 01 83 bf 5b bf 65 be
       -0.22237107 -0.9841037 -1.0234908 -0.22436278

lstm.lstm_cell.weight_ih f4 [128, 30]
000000 5d 9b 64 3e d9 26 a3 3e 0a f7 32 3e d2 11 81 3c
       0.22324891 0.31865576 0.1747705 0.015755568
000010 26 a2 8b be 8c 38 52 be 7e 60 69 bd 9e 9a f0 bc
       -0.27272147 -0.20529383 -0.056976788 -0.029370602
000020 4b 8f 77 3d 15 55 95 3e 88 cc df 3d 2d 98 37 3e
       0.06043939 0.29166475 0.10927683 0.17929144
000030 55 be a4 bd c2 93 29 3d ad b4 70 be 2c ac 25 3e
       -0.080441155 0.04140068 -0.23506422 0.1617896
000040 8b 4d 69 3e 5b e0 4b 3d 3a 96 2a 3e 6b 67 48 3e
       0.22783487 0.04977451 0.1665887 0.19570701
000050 28 c5 bb 3d 5b e7 4d be 9e 08 a2 bd 91 cc 05 3d
       0.09168464 -0.20107786 -0.079118 0.032665793
000060 90 9d 47 3d da 41 c8 3d 95 d4 b9 3d ad a8 83 be
       0.048734248 0.09778185 0.0907375 -0.25714627
000070 5f 46 d0 bb 8e 28 71 3e cf c0 fc 3d 39 8b 74 bb
       -0.006356045 0.23550627 0.12341463 -0.0037314428
000080 90 7a 1d be d1 f1 68 be be 5b a3 be 08 1e 98 be
       -0.15378785 -0.22748496 -0.3190593 -0.29710412
000090 74 bc 48 3d 2d 67 92 3e 52 7a 07 3e ee 18 05 bd
       0.049007848 0.28594342 0.13230255 -0.032494478
0000a0 d3 14 e6 bd 77 db 5a be 43 ad 17 3d e9 a6 2a 3e
       -0.11234441 -0.21372782 0.03703047 0.16665234
0000b0 c6 c7 2c 3e a7 40 c2 3c ff 7a 6b be fb 2b 62 be
       0.16873083 0.02371247 -0.22996138 -0.2208709
0000c0 17 ce 2b 3d 11 e1 81 be a5 66 20 be 52 62 1d bd
       0.04194459 -0.25367025 -0.15664156 -0.038423844
0000d0 05 e9 b6 3d ef c2 6b 3e 89 57 29 be ba 56 05 be
       0.08931164 0.2302358 -0.16537298 -0.13021365
0000e0 c7 a6 cf bd 9a 1f 4c 3c 3e b9 8c bd aa ab 23 3e
       -0.10139232 0.012458706 -0.0687127 0.15983453
0000f0 4b 90 42 3e 92 a6 8d 3e ca 98 29 bb 55 bf 30 3e
       0.19000356 0.27666146 -0.0025878423 0.17260487
000100 ee d8 ad 3e 7c 38 db bc 00 01 9a 3e 7f 81 ef bc
       0.33954567 -0.026760332 0.30078888 -0.029236553
000110 a1 db 4f 3e e3 f4 35 bd df 31 35 be 26 2a e7 bd
       0.20298626 -0.044422995 -0.17694806 -0.11287336
000120 a7 a0 db 3d 53 01 b8 3c ab 5a ec bd de bd 89 be
       0.107240014 0.022461569 -0.11540731 -0.2690267
000130 5e 4b b2 be ff ce 5e bd d8 a6 f8 3d f1 a4 a5 3c
       -0.34823126 -0.054396626 0.12141198 0.020220252
000140 9e f9 a1 bd c9 bf bd 3c 70 87 ad bd 0a 21 c6 3d
       -0.07908939 0.02316274 -0.08473098 0.096742705
000150 97 65 01 3e 9f 42 fd 3d 11 94 5c be 15 26 27 3d
       0.1263641 0.123662226 -0.21540858 0.040807802
000160 be 5d b9 bd 0c 08 3a 3e a0 60 3d 3e a6 03 e4 ba
       -0.09051083 0.18167132 0.18493891 -0.0017396107
000170 67 26 b4 bc c8 f3 c1 bd 82 c8 2e 3c f6 14 55 3c
       -0.021990968 -0.09470326 0.010667922 0.013005486
000180 e1 38 84 3d 6c 73 ea ba 90 ff b5 3d 2d e1 d2 bc
       0.06456161 -0.0017887182 0.08886635 -0.025742138
000190 70 78 4a 3e 34 2e 8e bd 28 8b 59 be 3c f6 ea 3b
       0.19772506 -0.06942406 -0.2124449 0.0071704667
0001a0 53 8b 42 be 11 bc f7 bc 4a e0 3a 3c 2f d5 9d 3d
       -0.1899846 -0.030241044 0.011406014 0.07706677
0001b0 8b 3e 79 3d 5d 18 34 3e 75 2c 4c be ea c3 1f 3e
       0.06085066 0.17587419 -0.19938834 0.15602079
0001c0 3c 11 ce bc 27 8e 40 3e 9f 08 28 be dc 0b fc 3d
       -0.025154702 0.18804227 -0.16409539 0.123069495
0001d0 0c ee 09 be fd 3b 2e be 8c 69 40 3e a4 d5 e0 bc
       -0.13469714 -0.17015071 0.18790263 -0.027445622
0001e0 15 84 90 3d 49 e0 9b be b9 93 f8 3d 99 52 0b 3e
       0.07056443 -0.30444553 0.12137551 0.13605727
0001f0 e6 2d b0 3d fb d0 8c be a7 3f 19 be f6 e2 c2 bd
       0.086025044 -0.2750319 -0.14965688 -0.095159456
000200 56 c9 71 bd 78 81 c7 3c a7 89 a0 3c 5a 87 84 bd
       -0.0590299 0.024353728 0.019596888 -0.06471129
000210 0a 17 43 bd cb 4e ca bc c8 d0 1c be a1 da 5c 3e
       -0.047629394 -0.024695775 -0.15314019 0.21567775
000220 5a a0 45 be f9 63 6f be 09 95 83 3e 00 70 81 bd
       -0.1929945 -0.2337798 0.25699642 -0.063201904
000230 86 82 25 be 8f 74 85 be 3a 43 0d bd f6 cd bb 3b
       -0.16163072 -0.2606549 -0.03448794 0.0057313396
000240 f6 db ff bd db b7 27 be 48 18 bc 3c bc c5 35 3c
       -0.12493126 -0.16378729 0.022960797 0.011094507
000250 93 b0 e4 3d 72 0e 8d bd ac a0 45 bd 29 3c 87 bc
       0.11166491 -0.06887521 -0.04824893 -0.016508179
000260 de 97 78 3c 05 fa 67 bd c0 90 07 bc e4 e5 d3 3e
       0.015172927 -0.05663492 -0.008274257 0.4138633
000270 af 58 8c 3d 33 a9 24 3c e6 f0 99 3e 74 3a 0e be
       0.068528526 0.010050106 0.30066603 -0.13889486
000280 5c 69 0a 3e 38 40 35 be 43 1e 14 be 6e db 6c 3e
       0.13516754 -0.17700279 -0.14464669 0.23130581
000290 16 71 01 bd b1 00 d3 bd 11 ce 64 3e 14 90 9b bd
       -0.031601988 -0.10302866 0.22344233 -0.0759584
0002a0 ef ad 2c be b3 94 88 3e e6 94 07 3e 5f 26 64 3d
       -0.16863225 0.26675949 0.13240394 0.055700656
0002b0 cc b0 55 bc b6 fd ea 3e 1e b3 5d be 1c 27 01 be
       -0.01304264 0.4589669 -0.21650359 -0.12612575
0002c0 d1 78 0a bf d7 8a 27 be 0d 45 64 3e bb 9d 09 3e
       -0.540906 -0.16361557 0.22291966 0.13439076
0002d0 40 92 2d be 6a 47 16 be cf 98 6a be d9 9d 02 3f
       -0.16950321 -0.1467568 -0.22909854 0.51022106
0002e0 cc 10 1d bd 34 31 e4 3d 19 e6 c7 bd 83 2c 45 3d
       -0.038346097 0.11142197 -0.097606845 0.048138153
0002f0 14 c7 16 bd 65 e0 95 be 4d 0b 21 be cd a8 50 3e
       -0.03681095 -0.29272762 -0.15726967 0.20376892
000300 96 7e 0d 3e f7 70 85 be c6 c4 87 bd 46 38 46 3b
       0.1381782 -0.26062748 -0.066293284 0.0030245944
000310 32 1f 48 be a6 74 69 3d c0 a0 d8 bc 48 45 82 3e
       -0.1954315 0.05699601 -0.02644384 0.25443482
000320 3c bf 8c be 65 68 aa bd b0 1f 7f 3d 1c 7f c2 3e
       -0.2748965 -0.08320693 0.06228608 0.37987602
000330 b7 46 2f 3e 54 e4 13 bd 5c 97 34 3d 2f 89 3e be
       0.1711682 -0.036106423 0.04408966 -0.18607019
000340 a8 b3 9a bd a5 b4 93 bd 60 b1 c1 bd 32 3e 80 be
       -0.07553798 -0.072121896 -0.0945766 -0.2504745
000350 d0 99 0d 3d 06 c7 0a bd 30 a3 30 3c c3 78 61 3d
       0.034570515 -0.03388121 0.010781094 0.055046808
000360 87 9c 63 3e 0a dc fc bc 52 55 05 be 38 34 5f 3d
       0.22227679 -0.030866642 -0.13020828 0.05449316
000370 bc 4e e2 3d 09 d9 eb bd 13 25 11 3c b1 42 9f bd
       0.11050174 -0.115160055 0.008858937 -0.07776392
000380 87 94 0e bc 12 3a 3f 3d 3e 97 f7 3c 97 f8 a5 bd
       -0.008702404 0.04668624 0.030223485 -0.081040554
000390 5e 5f 1a 3e 91 80 be 3d 3a 31 be be 10 21 a2 3d
       0.15075442 0.09301866 -0.37146932 0.079164624
0003a0 24 5b 6c be 5c c4 2e 3e 24 6b 73 bc f9 1c 32 be
       -0.23081642 0.17067093 -0.014857087 -0.17393865
0003b0 43 a8 93 bd f1 9a 93 3d 26 62 c0 3d fb 5b 6b 3d
       -0.07209828 0.07207287 0.0939372 0.057460766
0003c0 18 5f f7 3d a9 b5 43 be 1f 53 40 bd b6 73 d0 be
       0.120786846 -0.19112267 -0.04695427 -0.4071328
0003d0 f8 f9 7d 3d a7 6f 5f 3e c3 f9 8a 3e f2 01 9c 3e
       0.062005967 0.21819936 0.27143678 0.30470234
0003e0 a2 d0 8d 3e 32 c4 6a 3e 10 52 3f bc 5c 01 a5 be
       0.27698237 0.22926405 -0.01167728 -0.322276
0003f0 7e 9a a4 be 1e 32 1a 3c f2 60 dc bd c4 18 f7 bd
       -0.32149118 0.009411363 -0.10760678 -0.120652705

lstm.lstm_cell.weight_hh f4 [128, 32]
000000 85 14 f1 bd 12 5b 5e 3e b4 08 35 bf 07 2e 59 3e
       -0.11771492 0.21714428 -0.70716405 0.21208964
000010 d3 6f 27 3f 1e c1 b3 3e f0 7c d2 bd 0c a9 8d 3e
       0.65405005 0.35108274 -0.10277736 0.27668035
000020 27 81 78 3e 7d 34 b8 3e 33 29 4a 3e 1f e7 08 be
       0.24268018 0.35977545 0.19742279 -0.13369416
000030 d7 02 2e bf 2f 0f 07 3e 3c 72 f3 bd 50 30 e0 bd
       -0.67973083 0.13189386 -0.11887023 -0.10946715
000040 94 92 19 bd 0f 70 10 3e 51 bc 0f 3e 2b ab 86 3e
       -0.037493303 0.14105247 0.14036681 0.26302466
000050 65 97 95 3b 8e 91 6b bd 9a 8c 00 3f 1a 45 9f be
       0.004565167 -0.05751186 0.5021454 -0.31107408
000060 fc 67 db 3e b7 c8 fa bd be be d4 bd 7c ba 22 be
       0.4285277 -0.122453146 -0.10387944 -0.1589145
000070 ae e8 6b bd 7a e1 8a 3e 30 05 d7 3e 58 e2 ce be
       -0.057594948 0.2712515 0.41996145 -0.40407062
000080 0d fe d6 be e4 6f ce 3e 4b 18 2a 3e eb 4f 88 3d
       -0.419907 0.4031974 0.1661083 0.06655868
000090 3e 7e e2 3d 1c 1f cb 3e b5 fd 4f 3e a1 94 59 be
       0.11059235 0.39672172 0.20311625 -0.21248104
0000a0 e4 d8 1f be 9f 64 93 be fd 46 a4 3c 7c bf 5e bd
       -0.15610081 -0.28787705 0.020053381 -0.054381832
0000b0 11 05 96 3e e9 54 a1 be 12 41 a6 be 2e ec 63 3e
       0.2930074 -0.31510094 -0.3247152 0.22258064
0000c0 17 4f aa be cd 24 17 3c e8 20 52 be 90 7d 08 3f
       -0.33263466 0.009225083 -0.20520365 0.53316593
0000d0 2f ac 54 3f 34 c1 76 bd 82 44 21 bf 1f e6 a1 bd
       0.8307523 -0.060242847 -0.6299516 -0.0790522
0000e0 97 89 81 be ed c2 96 3b e4 4a 53 bc 43 6f 95 bd
       -0.25300285 0.0046008737 -0.012896273 -0.07296612
0000f0 8e 0f 13 bf d7 e5 87 be 12 39 c4 bc 7e 88 1d bf
       -0.5744561 -0.2654254 -0.023952994 -0.61536396
000100 c1 18 87 be 6b 4c 8c 3e 55 43 66 bd b0 f6 a5 3e
       -0.26386073 0.27402052 -0.056216557 0.3241477
000110 9c f3 79 be 11 07 4c 3e 83 d4 ab 3d a3 8b 92 3e
       -0.24409336 0.1992457 0.08390143 0.2862216
000120 aa 8d 8a bb 8b 4d 1e be 5e dd 9f bd 82 f8 a6 bb
       -0.0042283135 -0.15459268 -0.07805894 -0.0050955424
000130 2d d7 ea 3d e6 0a be be 23 37 9d be 5a 3b bc 3c
       0.11466823 -0.3711769 -0.30706128 0.02297752
000140 02 18 69 3e f4 ef 96 bd 1e b3 8e bd 72 43 c2 3e
       0.22763065 -0.07369986 -0.06967758 0.37942082
000150 39 21 7b 3c e1 26 7e be 35 4b 98 be d5 d4 95 be
       0.015327745 -0.24819519 -0.29744878 -0.2926394
000160 55 4d 84 be c4 4e b9 bd 05 d4 e2 be 32 03 7e 3d
       -0.2584025 -0.090482265 -0.44302383 0.062014766
000170 70 12 17 be da 2c 3b be 9e 46 30 be 2b 33 e9 be
       -0.14753127 -0.18278828 -0.17214438 -0.4554685
000180 5f 14 c7 3d 92 eb 3f 3f 85 aa 39 3d 4a 94 cf 3d
       0.09720682 0.74968827 0.045328636 0.10135706
000190 ba a0 d1 be 6a 50 52 3d 78 87 17 3e 01 5d 13 3d
       -0.40942937 0.05134622 0.14797771 0.035977367
0001a0 83 bc 82 bd a6 da c7 3d bb 47 9b 3e b3 dd 6a be
       -0.06383612 0.09758501 0.30328164 -0.22936134
0001b0 fe 7b 04 3d 79 e6 cb be 96 e8 ef 3a 50 13 d0 3e
       0.03234481 -0.39824274 0.0018303569 0.40639734
0001c0 ad 7a 81 3e 11 ab bf be ed 13 a8 3d ed f6 68 3e
       0.25288907 -0.374352 0.082069255 0.22750445
0001d0 37 c9 fe 3d 5d 61 23 be 94 fe 92 be a8 fe 99 3e
       0.124407224 -0.1595511 -0.28709853 0.300771
0001e0 d7 8d a2 be 26 33 e9 be 17 03 7b bc 26 44 09 bd
       -0.3174884 -0.45546836 -0.015320561 -0.033512257
0001f0 55 8b e9 be 5b f6 9f 3d 19 ec d7 3d 97 da 0f 3e
       -0.45614114 0.078106605 0.10543079 0.14048229
000200 ed 43 8b be 52 e2 41 be ec b8 b2 bd a8 4a 01 3f
       -0.2720026 -0.1893399 -0.08726677 0.5050454
000210 6f e8 03 3e 84 50 8a 3d 32 f1 ca 3e 61 4a a4 be
       0.12881635 0.067536384 0.39637142 -0.32087997
000220 55 22 f7 3e 9f 6d 9b 3d b4 b4 30 be 92 c8 6d bc
       0.4826838 0.07589268 -0.17256433 -0.014513152
000230 c2 07 0c bd 0a 16 d6 be 6c fc 92 3e c6 d8 f1 3e
       -0.034187086 -0.4181369 0.28708208 0.47235698
000240 cb 53 49 3e 05 b8 b6 be 49 81 2d 3d 49 da 23 3e
       0.1966087 -0.3568727 0.042359624 0.16001238
000250 a6 8c 06 3f da 47 7e 3d 25 3b 06 3d b6 30 12 3d
       0.5255836 0.06208024 0.03277125 0.035690986
000260 47 13 b4 3e 75 b7 c3 be d9 16 84 bd 85 a5 6f 3e
       0.35170957 -0.38225904 -0.0644967 0.23402984
000270 ab 76 90 3d 56 1e a5 3e a2 93 4a 3e 8e d9 40 3e
       0.07053884 0.32249707 0.1978288 0.1883299
000280 8b a7 ca be 03 b0 50 3e 92 3a e2 bd 55 86 c7 3e
       -0.3958095 0.20379643 -0.11046328 0.38969675
000290 94 64 b8 bd ab a7 d2 3d 9e ff 74 bd 6e 3b 90 3e
       -0.09003559 0.102858864 -0.059814088 0.2817034
0002a0 2a ee f1 be 8f 49 22 3e 38 f6 82 be 90 7c 26 be
       -0.47252017 0.15848373 -0.25578475 -0.16258454
0002b0 77 72 b0 be c5 63 42 be b9 42 ab be b0 af 1b bd
       -0.3446233 -0.18983372 -0.33449343 -0.038009346
0002c0 17 e5 b5 3d 7b 1d db bd 51 23 c9 be ba a8 d5 3e
       0.08881586 -0.10698982 -0.39284757 0.4173029
0002d0 b4 81 9e 3e 32 78 98 3e fc 57 40 3c 4e 06 87 3e
       0.3095833 0.29779202 0.011739727 0.26371998
0002e0 b9 c8 ac 3e f3 5c 83 be 1b f1 98 3e e8 c8 47 be
       0.3374689 -0.25656852 0.2987145 -0.19510233
0002f0 10 a4 e9 3c 3e 65 4b 3d c1 c6 88 3e cf c9 1c be
       0.028520614 0.0496571 0.26714137 -0.15311359
000300 f2 f1 a2 3d e2 7f ef 3e 02 6c b8 be 88 13 a0 3e
       0.07956304 0.46777254 -0.36019903 0.312649
000310 91 de 1a 3e a9 33 46 3d 11 43 7a 3e 08 56 41 be
       0.15123965 0.04838911 0.24439646 -0.18880475
000320 da 43 81 3e 96 5c 49 3e 8a e1 3f bc 2c f1 bf be
       0.2524708 0.19664225 -0.011711488 -0.37488687
000330 1f 27 ab be bf 07 1e be f7 2a 87 be fe 7b 2a 3d
       -0.33428285 -0.15432642 -0.26399967 0.041622154
000340 11 8a f2 3d 6f 14 a0 3e f2 16 13 be 72 f5 32 3e
       0.1184274 0.3126559 -0.14364222 0.17476442
000350 21 da bd 3d 48 46 16 be 42 5f 0e be 9f 1a 92 be
       0.092701204 -0.14675248 -0.13903525 -0.28535935
000360 63 59 e2 3d 54 0b 37 3e d8 fa 84 3e b5 99 cc 3d
       0.110522054 0.17875415 0.2597263 0.09990255
000370 65 de 33 3d 0d 98 55 be 09 a3 2d 3e c1 13 5a bc
       0.043913264 -0.20858784 0.16956724 -0.013310374
000380 c5 46 55 3e eb 7f b7 3e 6d e4 21 3e aa 4c d4 3d
       0.20827778 0.3583978 0.15809794 0.10366185
000390 4c 41 e7 bd 41 90 8a 3c 07 fe d4 3c af 7b ee bc
       -0.11291751 0.016914489 0.026000036 -0.029111711
0003a0 b2 84 45 be 2f 3f 34 3e 52 d6 75 3d 7a 63 49 be
       -0.192889 0.17602228 0.060018845 -0.19666854
0003b0 fd 99 47 be bb 66 57 be a0 de d3 be a6 f0 d8 3e
       -0.19492336 -0.21035282 -0.41380787 0.423711
0003c0 7c 94 a5 be fb 62 dd 3e 79 2e de bd fc 8d 2d 3e
       -0.32339847 0.4323958 -0.10848708 0.16948694
0003d0 8c d3 d7 3e 03 49 30 3e b0 84 c3 bd aa 69 ba be
       0.42153585 0.17215352 -0.095467925 -0.3640874
0003e0 bc a3 98 bd 7b d4 65 3e 75 05 65 3e 3c 9b d5 ba
       -0.07453105 0.22444336 0.22365363 -0.0016296874
0003f0 c6 bb b9 3e 91 f3 85 bd 6c 96 e6 bb b7 cf 44 3d
       0.36276072 -0.06540597 -0.0070369747 0.048049655

lstm.lstm_cell.bias_ih f4 [128]
000000 5c be 9f 3d 6e 31 a1 3e f6 cc b5 3e 9f 70 60 3e
       0.0779998 0.31483024 0.35507935 0.21917962
000010 a8 27 23 3e 4e db 17 3e 92 55 fd 3d 1d 07 52 3e
       0.15933096 0.14829752 0.12369837 0.20510526
000020 93 82 cd 3e e6 49 bc 3e cb 86 8b bb 7e 92 50 3e
       0.40138683 0.3677513 -0.004258012 0.20368382
000030 f6 78 39 3e bc 2d 06 bc 8b 2d c0 3d 0b c0 88 3e
       0.18112549 -0.008189615 0.09383687 0.26709017
000040 30 09 d2 3e d5 76 7d 3e b6 18 d7 3e c5 97 0a 3e
       0.41022635 0.24752362 0.4201104 0.13534458
000050 21 b5 b3 3e 12 b3 97 3d af ce 47 3e 18 84 33 3e
       0.35099128 0.07407202 0.19512437 0.17530859
000060 19 a2 f2 3d 1d b3 3e 3e 9e 3e 77 3e e7 e1 41 3e
       0.11847324 0.18623014 0.2414498 0.18933831
000070 48 c3 24 3e 76 34 a0 3e e6 dd 80 3e a3 a1 15 3e
       0.16090119 0.31290025 0.25169295 0.14612441
000080 d4 e6 7d 3e 64 ca 1f 3e a7 d6 fc 3d c7 2e 2c 3e
       0.24795085 0.1560455 0.12345629 0.16814719
000090 21 0c e5 3c ea 18 6f 3e cf 30 82 3d 7f 09 4f 3e
       0.027959885 0.23349348 0.06356966 0.20218466
0000a0 57 66 84 3e ad 92 2c be 8c 02 87 3e bc 20 b5 3d
       0.2585933 -0.16852827 0.2636913 0.08844134
0000b0 0f 03 92 3e e1 90 22 3e 90 32 40 3d 28 d2 c1 bb
       0.2851796 0.1587558 0.04692322 -0.005914945
0000c0 de 40 b0 3e 19 c1 a2 3e 6e 5a 6d 3e e8 38 16 bc
       0.3442449 0.31787947 0.23179027 -0.009168841
0000d0 70 e9 ca bc 69 e5 f0 3d c7 72 be 3e 47 f1 7c 3d
       -0.024769515 0.117625065 0.37196943 0.061753538
0000e0 9e 96 41 3e 05 99 05 3e 29 d5 6a 3d 1e 61 35 3e
       0.18905112 0.13046654 0.05733219 0.17712829
0000f0 cf 0d e6 3b fc 3d 3d be f2 49 4a 3e 12 64 0f 3e
       0.007020689 -0.18480676 0.1975477 0.14003018
000100 b8 22 28 bd 56 e8 e3 bc da 70 96 bd 96 4d 8c 3d
       -0.041048735 -0.027820747 -0.073457435 0.06850736
000110 1b ec 43 bd b8 d0 62 bd f9 ea f8 3c 04 69 5f 3d
       -0.04783259 -0.05537483 0.030385481 0.05454351
000120 04 dc 3a be 19 62 b0 3d b6 05 93 3b 97 4f 61 be
       -0.18247992 0.08612461 0.004486765 -0.22003017
000130 36 a8 19 3e 9c b2 c2 bd ae 2a c6 bd 82 f1 92 3c
       0.15005574 -0.09506723 -0.09676109 0.017937426
000140 56 de ac bd 3a bd 3a be 6f f8 39 3c fb 0f 37 3e
       -0.08440845 -0.18236247 0.011350735 0.1787719
000150 84 6e cf 3c 33 c9 e9 3c 59 91 6e 3d f2 57 88 3d
       0.025321253 0.028538322 0.058244083 0.06657399
000160 48 0d bc 3c 4c e9 32 bc 2a 98 8c bc 87 76 fc 3d
       0.022955552 -0.01091988 -0.017162401 0.12327295
000170 10 db aa bd 13 0d 56 3d 9b f1 59 3e 2a b2 71 3d
       -0.08342564 0.052258562 0.21283571 0.0590078
000180 65 66 dc 3d 9a e2 67 3e ea f1 22 3e 5f 48 09 3e
       0.10761718 0.22645035 0.15912595 0.13406514
000190 5d af 8e 3e 3c af ca 3e 9e bd 52 3e 58 da 23 bd
       0.27868167 0.39586818 0.20580146 -0.04000315
0001a0 17 21 75 3d 9b 13 4a 3e d0 68 36 3e 26 34 db 3c
       0.05984601 0.19734041 0.1781342 0.026758265
0001b0 43 d8 c0 3d ad b8 7f 3d b7 6d b5 3d cf 6e 0e 3e
       0.09416249 0.06243198 0.08858817 0.13909458
0001c0 9d 39 87 3d 4b bd c2 3e 5b a2 dc 3c c8 88 33 3e
       0.06602786 0.38035044 0.026932886 0.17532647
0001d0 1c 92 5e 3e 21 d4 96 3e fb 9c 02 3e b3 37 91 3e
       0.21735424 0.29458717 0.12755196 0.28362808
0001e0 38 dc e5 3d be 80 92 3e 27 c8 04 3c 92 bd 83 3d
       0.11223644 0.28613847 0.008104361 0.06432642
0001f0 1a 9d 09 3e 57 df 81 3e 76 52 b3 3d 78 64 9a 3e
       0.13438836 0.25365707 0.087559626 0.30154777

lstm.lstm_cell.bias_hh f4 [128]
000000 df 67 8b 3e e7 9e c5 3e 86 2f 94 3e 12 9b 83 3e
       0.27227685 0.38597795 0.28942508 0.25704247
000010 1f f0 a1 3e 0f a1 d1 3e 66 ce af 3c 70 46 9a 3d
       0.3162851 0.4094319 0.021460723 0.07532966
000020 fd b3 91 3e 80 65 33 3d 33 00 83 3e e9 00 9f 3e
       0.28457633 0.04379797 0.2558609 0.31055382
000030 af 82 d1 3e 8d 10 20 bd 87 4a 11 be 20 53 0c 3d
       0.40920016 -0.039078284 -0.14188586 0.03425896
000040 e1 8d 0b 3f 8a 4a 65 3e 38 da ad 3e 6f a8 6f 3e
       0.54513365 0.22391716 0.3395555 0.23404096
000050 c3 52 20 3e 24 54 ca 3e ab 86 0e 3e c8 ef d7 3e
       0.15656571 0.3951732 0.13918559 0.42175126
000060 a8 dd 7d 3e c1 fa 73 3e 79 28 48 3d 1b 4c 95 3e
       0.24791586 0.23826124 0.048866723 0.29159626
000070 40 36 03 3e 3f 67 a8 3e 53 7b c4 3d ea 8d b2 3d
       0.12813663 0.3289127 0.09593835 0.08718474
000080 ae cd 91 3e 3a 9c 6b 3d d9 a3 98 3d c1 4e 4e 3e
       0.28477234 0.057522036 0.074531265 0.2014723
000090 3d 66 53 bc c8 73 63 bd 3c e3 98 3e e4 42 90 3d
       -0.0129027935 -0.05553034 0.29860866 0.070440084
0000a0 85 a1 fa 3d 1e 85 ff 3a ce ee f0 3d c3 fe 93 3e
       0.12237839 0.0019494628 0.117642984 0.28905305
0000b0 50 11 52 3e 94 df dc 3d 83 0d 03 bc 43 69 25 3e
       0.20514417 0.10784832 -0.007998827 0.16153435
0000c0 38 cd bb 3c ee 6f 14 3e 82 03 2d 3e e2 c4 ff bd
       0.022925004 0.14495823 0.1689587 -0.12488724
0000d0 42 44 4e 3e 39 5d 88 bd 69 8d 74 3d 5e fd fa 3b
       0.20143226 -0.06658406 0.05970517 0.0076595983
0000e0 d4 f2 ae 3d ea 88 4e bd 6a 14 ed 3d 63 c2 9b bb
       0.085424095 -0.05042354 0.11576159 -0.0047533973
0000f0 4f aa 71 3e f9 a8 70 3b 21 e4 03 3e 8e 84 61 3e
       0.23600124 0.003672181 0.12879993 0.22023222
000100 b0 94 fd 3d 56 5a 55 be 4a 43 ad 3c ba 53 1c bd
       0.123818755 -0.20835242 0.02115025 -0.038165785
000110 f3 f2 32 3e 06 c1 16 3e c6 2f 1b 3e f8 b7 01 be
       0.1747549 0.1472207 0.15154943 -0.12667835
000120 90 5a 1a be b8 da f3 3c 0b 52 40 3d 47 9d 57 be
       -0.1507361 0.02976738 0.046953242 -0.2105609
000130 b2 6e 76 3c 76 77 c2 3d 52 f7 be bd a9 58 19 be
       0.01504104 0.094954416 -0.09324516 -0.14975227
000140 3b 39 ec 3c cd 28 bc 3d 6c ea 44 be 9d 4c 04 3c
       0.028835883 0.0918747 -0.1923005 0.008074907
000150 70 21 a9 bd eb 73 7e bd 93 f1 d8 bd 38 3d 2a bc
       -0.08258331 -0.062122267 -0.105929516 -0.010390572
000160 d2 05 87 3e 67 44 c1 bd 51 4e 22 be 7f 6a 38 3d
       0.26371628 -0.09436875 -0.15850188 0.045023438
000170 57 6d 5d bd 26 bc 37 3e c1 a8 0b bc 72 18 83 bd
       -0.054059353 0.17942867 -0.008524121 -0.06401147
000180 46 30 5b 3e 80 4a 2a 3e 98 97 e9 ba 0b ff cc 3d
       0.21405134 0.16629982 -0.0017821668 0.10009583
000190 ba d8 af 3e 9a 01 4d 3e d8 87 3b 3e bb c4 bb 3d
       0.34345037 0.20020142 0.18313539 0.09168383
0001a0 93 e5 33 3c 61 07 86 3e 64 ce 2e 3e 28 34 e4 3d
       0.010980028 0.26177505 0.1707092 0.111427605
0001b0 b7 d7 9f 3e 03 39 c1 3d ff e7 52 3e 3b 90 58 3e
       0.31219265 0.09434702 0.20596312 0.2114877
0001c0 5c 81 1e bc 71 f0 0e 3e b2 47 86 3e 10 ea 07 3c
       -0.009674396 0.13958909 0.26226574 0.008295551
0001d0 3f 58 81 3e d2 a3 80 3e 7d 51 6b 3e 5e 5f 7f 3e
       0.2526264 0.25124985 0.22980304 0.24938723
0001e0 60 a4 fc 3d 43 9e 5f 3e df 51 39 bd 51 59 df 3d
       0.123360395 0.21837716 -0.045244094 0.10905708
0001f0 89 ed 30 3e 91 5b 00 3f 4d 5b b0 3e de 17 a3 3e
       0.17278112 0.5013972 0.34444657 0.31854147

mlp.0.weight f4 [16, 32]
000000 c0 19 03 3f 69 f1 22 3e 26 b6 a3 3c 6c 86 e8 3d
       0.51211166 0.15912403 0.019984316 0.11353764
000010 de 03 c5 bd 6a 91 94 3e 02 27 99 3e 2c 0f 97 3d
       -0.09619878 0.29017192 0.29912573 0.07375941
000020 35 16 d1 3e 0e de 2b 3e 89 fc e2 bd 8b f8 c9 3d
       0.40837255 0.16783926 -0.110833235 0.09861859
000030 17 fa 63 bd 31 3c 58 3e 4b c8 da 3b f1 3c aa be
       -0.055658426 0.21116711 0.006676709 -0.3324962
000040 7b 6d 88 3e 98 f4 94 3e 45 1b d8 be 60 3d a0 3d
       0.26646027 0.2909286 -0.42208305 0.07824206
000050 12 18 74 3e 11 e8 ae be 32 4f 0d 3e d0 d9 ca 3b
       0.23837307 -0.34161428 0.13799742 0.006190516
000060 8c 81 02 3c 4a 5d a4 bc 3f bc 86 3e 73 f6 a6 be
       0.007965457 -0.020064015 0.26315495 -0.326099
000070 f0 ee 49 3e 06 f2 5c be 27 fb 92 be f5 fe 6f be
       0.19720054 -0.215767 -0.2870724 -0.23437102
000080 0b fe 9d 3e 17 71 c6 3e 20 47 a9 be 64 be a5 3d
       0.30857882 0.38758156 -0.33062077 0.08092955
000090 9e ff 29 be 1f 42 e7 3e 4f bb 5e bd 2b 72 ba 3e
       -0.16601416 0.45167634 -0.05437785 0.36415228
0000a0 50 6b 9a bd b5 14 55 bd 06 1e ad be d9 79 4f be
       -0.075399995 -0.0520217 -0.3381197 -0.20261325
0000b0 20 e6 f8 3c ca b9 15 be 87 74 0f be 1b 04 be be
       0.03038317 -0.14621654 -0.14009295 -0.37112507
0000c0 3e 4a cc 3e e6 65 6c be d5 48 ef be 5a d5 91 3e
       0.39900392 -0.23085746 -0.46735254 0.28483087
0000d0 b9 25 0f 3e 31 bd 65 3e d6 ba 94 3d 66 d7 de 3e
       0.13979234 0.22435452 0.072621986 0.4352371
0000e0 d4 e2 78 3e 07 68 0e bf cc 48 38 3e bc 35 93 be
       0.24305278 -0.55627483 0.1799652 -0.28751934
0000f0 fa 4b 97 bd 64 4b 10 3e 99 24 ba 3e 9f 93 9d be
       -0.07387538 0.14091259 0.36356047 -0.30776688
000100 c5 f2 bb 3e 0c 71 68 3e c5 09 ab be 6b ce a8 be
       0.36708656 0.22699374 -0.3340589 -0.32969984
000110 e2 a0 77 be 90 f2 ed 3e 1e 59 84 be ce ec b2 3e
       -0.24182466 0.46474123 -0.2584924 0.34946293
000120 69 aa 08 be b9 35 5d be a2 c6 b1 be 55 fd cf bd
       -0.13346256 -0.21602525 -0.34721857 -0.10155741
000130 78 0c 63 3e 06 fc 45 3e de 7c 81 be cc d2 11 bf
       0.22172725 0.1933442 -0.2529058 -0.56962276
000140 40 f3 74 3e 0f f9 47 3d 11 5f aa be 55 a9 97 3c
       0.23920918 0.048821505 -0.33275655 0.018513361
000150 69 91 5c 3e c5 5b 9a 3c 4b 7d 92 3e 0c a0 03 3f
       0.21539845 0.018842587 0.28611216 0.5141609
000160 99 39 8e 3e 2d 22 b1 be 2d 0c bb 3e b5 94 01 be
       0.2777832 -0.34596387 0.36532727 -0.12654383
000170 bd 34 f7 3d 8e 73 be 3d f5 0f 5c 3e 2c 66 8e be
       0.12070606 0.09299384 0.21490462 -0.27812326
000180 ec 3f af be 14 60 d8 bd 34 02 bb bd 7f 2c 71 3e
       -0.34228456 -0.105652004 -0.091312796 0.2355213
000190 88 8d 8c 3e ad e2 87 be 1f db c2 3d 3a 57 08 be
       0.2745173 -0.26540127 0.0951445 -0.13314524
0001a0 9b aa 80 be f5 ce 57 3d 73 08 f2 3d 3a dc f2 bd
       -0.25130162 0.052687604 0.11818018 -0.11858411
0001b0 0e 8b 43 be 52 88 84 be 2b 40 12 be 45 c6 e8 3d
       -0.19096014 -0.25885254 -0.1428229 0.11365942
0001c0 b5 d4 53 be 8d 99 f6 3d 7c 39 48 3e 9d 16 9c 3d
       -0.2068661 0.12041006 0.19553179 0.07621501
0001d0 7a 2d 02 bd 43 6e bf 3d 31 0f cb bd 7b 50 d2 be
       -0.03178165 0.09347203 -0.09915007 -0.41077027
0001e0 67 c4 7f 3e ee 56 d0 3d 89 e0 95 bd f9 56 d5 3e
       0.24977265 0.101728305 -0.07318217 0.41667917
0001f0 61 f2 72 3e d8 5b 76 be 6c ef 3c be f7 86 6a 3e
       0.23725273 -0.24058473 -0.18450707 0.22903048
000200 3c f7 65 3d c2 b5 93 3d f4 9d 67 be 1e db a0 3d
       0.056143984 0.07212402 -0.22618848 0.07854293
000210 9f fb 83 bd b4 98 ae 3d 21 7c ae 3d 86 c2 e8 bd
       -0.06444477 0.085252196 0.085197695 -0.113652274
000220 c9 91 ed 3e cb af 81 3d b2 b6 45 be c5 99 78 3c
       0.46400288 0.06332358 -0.19307974 0.01517338
000230 4d d3 82 3e 4e be 51 3e a5 d3 37 bd a9 4e c9 3d
       0.25551835 0.20482752 -0.044879574 0.09829456
000240 67 ea 60 3e 06 3a 44 be b1 c9 59 bd 49 17 b1 bd
       0.21964417 -0.19162759 -0.053170864 -0.086470194
000250 b1 be d7 3d be 62 1d be 13 5c 5e 3d 57 dc 2c be
       0.105344184 -0.15369698 0.054287028 -0.16880928
000260 4a ee 24 be 9b 40 ad bd 76 20 a7 be 5a e8 2f 3e
       -0.16106525 -0.08459588 -0.32641953 0.17178479
000270 c7 a8 9f bc 79 fc c9 3d 71 3f 26 bd 6e 89 04 be
       -0.019489659 0.098626085 -0.040587846 -0.1294305
000280 82 cc 56 bd d1 fa 59 be 1c 1e 35 3e 80 7a a6 bc
       -0.052441128 -0.21287085 0.17687267 -0.020322084
000290 4c 8a b5 3e a3 2f e1 bb bf 08 f5 3d 55 62 7b bd
       0.35457075 -0.006872134 0.11964559 -0.061373074
0002a0 c8 39 85 be c1 cd 9b 3c 62 6c 74 3e 89 4d 36 3e
       -0.26020646 0.01901901 0.2386947 0.17803015
0002b0 36 44 9b be 7e 23 2c be 24 5c d6 3e 08 2e f1 3e
       -0.30325478 -0.16810414 0.41867173 0.47105432
0002c0 3f 81 1e be c8 0b 0b bd a5 fa bb 3e 0f 00 ae 3d
       -0.15478991 -0.033946782 0.36714664 0.08496105
0002d0 12 38 9c 3e c0 76 2b 3c ba 84 d0 be 61 3a c7 bd
       0.30511528 0.010465324 -0.40726262 -0.09727932
0002e0 bf 0f a4 be 70 49 aa 3e 6f a1 92 be 56 36 8f 3e
       -0.32043263 0.33259153 -0.2863879 0.27971143
0002f0 e8 05 01 3e 99 d6 36 3e e7 72 e6 3d 75 99 df bc
       0.1259991 0.178553 0.11252385 -0.027294854
000300 68 b5 43 be 87 c7 dc be 32 ac 5d 3e 6f bf 71 3e
       -0.1911217 -0.43120977 0.21647719 0.23608182
000310 9f 69 aa 3e 68 92 c3 bd dc e3 34 3e 8e 52 98 be
       0.33283707 -0.09549409 0.17665046 -0.29750484
000320 93 2c 87 be da 66 85 bc db f7 8f 3e 72 5e d2 bd
       -0.26401195 -0.016284395 0.28118786 -0.1027192
000330 79 34 e9 bd c3 9d 75 be a8 f3 64 3c 6f 91 62 3e
       -0.113869615 -0.23985963 0.013974108 0.22125791
000340 b8 a2 db be 6d d3 8c 3e 06 16 bc 3e 53 74 81 3e
       -0.42897582 0.27505055 0.36735553 0.2528406
000350 4c 85 84 bd b7 fb b1 3e 82 93 c2 be 07 19 81 be
       -0.06470737 0.34762356 -0.38003165 -0.25214407
000360 c8 33 26 bd ce bd 55 3e 21 6a a8 be eb 05 be 3e
       -0.040576726 0.20873186 -0.3289347 0.3711389
000370 1b 0b 29 3d 1b 90 79 be 4b 5b 21 3e cb e5 86 3e
       0.041270357 -0.24371378 0.15757482 0.26347193
000380 d2 88 83 be da 92 b1 be d9 f5 c7 3d e9 2d a5 3e
       -0.25690323 -0.3468235 0.097636886 0.3226159
000390 55 ed c5 3d 4d 7d c9 be a0 4b 09 3e 38 0a 60 be
       0.09664408 -0.3935341 0.13407755 -0.21878898
0003a0 31 a1 c8 be af 83 69 3c 3b 7c 67 3e 57 4c 65 be
       -0.3918548 0.014252587 0.22605984 -0.22392403
0003b0 b2 73 28 be 18 0d 93 bd fb 05 44 be 32 c9 f7 3d
       -0.16450384 -0.07180232 -0.19142906 0.12098922
0003c0 f0 5f ce be 4a 09 94 3e 95 98 b9 3e 45 69 63 3d
       -0.4030757 0.28913337 0.36249223 0.055520315
0003d0 f4 51 cd bd 65 12 b5 3e 84 e8 c1 be e3 76 98 be
       -0.10025397 0.35365596 -0.37872708 -0.29778203
0003e0 d4 55 9c 3e 97 74 8f 3e f8 f8 8e be f0 29 50 3e
       0.30534232 0.28018638 -0.27924323 0.20328498
0003f0 37 00 3d bd f6 70 af be b5 3a fb bd 25 fc 2f 3e
       -0.046142783 -0.3426587 -0.12267057 0.1718603

mlp.0.bias f4 [16]
000000 cb 4c 26 3e 7a cf 78 3e dc 2a b1 3e c3 3d 1d 3e
       0.16240232 0.24297896 0.34603012 0.15355591
000010 85 85 fd bd af 64 08 3e 88 84 18 3e 0f ef b1 3d
       -0.123789825 0.13319658 0.14894307 0.08688175
000020 23 9a df 3d f1 56 11 be 15 7e 3f 3e ac 32 08 be
       0.10918071 -0.14193322 0.1870044 -0.1330058
000030 be 1d ac 3d 8e d9 d1 3d 56 27 42 3e 10 71 c5 3e
       0.0840411 0.102465734 0.18960318 0.38562822

mlp.3.weight f4 [2, 16]
000000 4a dd f3 3e e3 76 13 3f 43 1e 02 3f 04 f7 24 be
       0.47629768 0.5760328 0.50827426 -0.16109854
000010 27 e0 37 bc 1b 8d 1c bf 96 cd d6 be a5 de 26 bf
       -0.011222876 -0.6115281 -0.41953725 -0.6518348
000020 5e 9a 18 3f b9 4a 00 3e 62 49 02 bf b8 4b 6f be
       0.59610546 0.12528504 -0.50893223 -0.23368728
000030 6b 5e b0 be cc 9f 13 bf b1 2d f1 be c1 6c e6 3e
       -0.34447035 -0.57665706 -0.47105172 0.45004848
000040 83 d4 1b bf 99 05 10 bf 8c 79 f4 be 8b 1a be 3e
       -0.6087114 -0.5625854 -0.47748983 0.37129626
000050 e4 a3 b9 be dd e1 0f 3f fa b7 22 3f 07 bf 04 3f
       -0.3625785 0.56204015 0.63561976 0.51853985
000060 e3 e3 08 bf 82 87 9d 3d 0a e5 fe 3e cf 38 98 3e
       -0.5347273 0.07691862 0.49784118 0.29730842
000070 cc 67 c8 3e 32 b9 bc 3e 16 c4 a1 3e 75 f8 39 bf
       0.3914169 0.36860043 0.31594914 -0.7264474

mlp.3.bias f4 [2]
000000 1c 24 b1 3d 18 f8 91 bd
       0.086494654 -0.07127398

weight f4 [28, 30]
000000 00 00 00 00 00 00 00 00 00 00 00 00 00 00 00 00
       0.0 0.0 0.0 0.0
000010 00 00 00 00 00 00 00 00 00 00 00 00 00 00 00 00
       0.0 0.0 0.0 0.0
000020 00 00 00 00 00 00 00 00 00 00 00 00 00 00 00 00
       0.0 0.0 0.0 0.0
000030 00 00 00 00 00 00 00 00 00 00 00 00 00 00 00 00
       0.0 0.0 0.0 0.0
000040 00 00 00 00 00 00 00 00 00 00 00 00 00 00 00 00
       0.0 0.0 0.0 0.0
000050 00 00 00 00 00 00 00 00 00 00 00 00 00 00 00 00
       0.0 0.0 0.0 0.0
000060 00 00 00 00 00 00 00 00 00 00 00 00 00 00 00 00
       0.0 0.0 0.0 0.0
000070 00 00 00 00 00 00 00 00 a6 fa fb 3d f0 4c b5 3d
       0.0 0.0 0.12303667 0.08852565
000080 62 ef 5e bf 21 54 a7 3f b7 f9 f4 be 58 36 32 3e
       -0.8708402 1.3072549 -0.47846767 0.17403543
000090 49 37 63 be d3 fe da be bf 0e 85 3f bc 25 c2 bf
       -0.22189058 -0.4277254 1.0395125 -1.5167766
0000a0 25 2b 95 be 2b fb 39 3f a0 93 b1 3f 5e 0b 1f bf
       -0.2913448 0.72648877 1.3873177 -0.6212672
0000b0 79 0c 8a 3f 41 5e 49 be fa a4 97 3f 82 e3 4d 3f
       1.0785056 -0.19664861 1.1847222 0.80425274
0000c0 05 7b ab be ad 05 87 bd 3e d2 fe bd 92 67 5a bf
       -0.33492294 -0.065928794 -0.12442444 -0.85314286
0000d0 ea 08 9d 3f e1 f6 00 c0 59 37 48 3e b2 ca cb bf
       1.2268345 -2.0150683 0.19552363 -1.5921233
0000e0 af f0 10 bf 36 24 cd 3e 29 9b 33 bf b2 4b 09 3e
       -0.56617254 0.4006669 -0.7015863 0.13407782
0000f0 e0 14 01 40 dd 5d 88 3f 5a aa d5 bf 17 c8 45 3f
       2.016899 1.0653645 -1.6692612 0.7725844
000100 19 26 ae 3e a7 c7 6a bf 90 34 8e 3f e3 84 5f be
       0.3401344 -0.91710895 1.1109791 -0.21828036
000110 85 5c 2d bf c4 a1 a0 3f 1e ad f9 be 46 80 7b bf
       -0.677193 1.2549367 -0.4876489 -0.98242605
000120 01 cf 80 bf 73 fb 82 bf 89 4d 6c bf d2 3e fd be
       -1.0063173 -1.0232986 -0.9230581 -0.4946199
000130 d6 c2 f3 3d 20 2e 95 bf e0 89 f8 3f 64 5b de 3e
       0.119023964 -1.1654701 1.9417076 0.434291
000140 46 86 70 bf c2 0c 79 3f 9f 9d 8d be 74 ba e3 be
       -0.93954885 0.9728509 -0.27659318 -0.4447819
000150 94 03 07 c0 dc e4 f7 3f 1b 19 e5 bf 67 16 c3 bf
       -2.1095934 1.9366717 -1.7898287 -1.5241212
000160 1e 54 8c bf ca e0 c4 3f fe a9 82 be 5a 9e 8e 3f
       -1.096317 1.53811 -0.2552032 1.1142075
000170 41 db 2b bf e2 0a d5 3f 8a ba 4c bf 92 cd fc 3e
       -0.6713143 1.6643946 -0.79972136 0.49375588
000180 be fc a5 3f 60 70 fe be 3a 81 99 3f 5e a6 a9 3f
       1.2967756 -0.4969511 1.1992562 1.3253896
000190 b9 d5 8d bf 98 49 eb bf a4 c4 f1 3c 24 b8 4e bf
       -1.1080848 -1.8381834 0.02951271 -0.80749726
0001a0 8d b4 84 3f e1 08 8d 3e 6d 22 62 bf 2f c5 5c be
       1.03676 0.27545837 -0.8833378 -0.21559595
0001b0 b1 6b be 3f a2 bb 87 bf b3 b4 94 3f 3d df 72 3e
       1.4876615 -1.0604136 1.1617645 0.23717971
0001c0 44 e5 4e 3f fd b8 64 3f 53 20 56 3e 5c 08 92 bf
       0.8081858 0.8934477 0.20910768 -1.1408801
0001d0 0c 1d c1 bf 8e 76 90 bf 7b 09 09 3f be 65 81 3e
       -1.5086989 -1.128618 0.5353009 0.25272936
0001e0 03 ef 36 be 25 18 55 bd f7 2c 86 bd 24 16 fe 3e
       -0.17864613 -0.05202498 -0.06551545 0.49626267
0001f0 52 32 75 bf 2a e8 39 bf a3 8a 4b 3e 9a 5e de bf
       -0.9577991 -0.7261988 0.19877104 -1.737262
000200 31 ac d4 3f 9d a6 18 bf 48 65 3f bd 25 62 b6 be
       1.6615049 -0.5962923 -0.04672745 -0.35621753
000210 be 91 1c 3f dd db 03 3f e0 07 1d 3f 61 57 f9 3e
       0.61159885 0.5150736 0.6134014 0.48699477
000220 51 f5 9b be 92 a5 a2 bf 0d a6 c7 3f 0e 67 f0 bf
       -0.304606 -1.2706778 1.559755 -1.878145
000230 9d f4 45 bf 4f 48 84 3f 50 7e 40 3f ad 8c 36 40
       -0.77326375 1.0334567 0.7519274 2.8523362
000240 c3 4c 41 bf 6c 30 48 bf 17 d4 ca bc 16 96 7c 3d
       -0.75507754 -0.78198886 -0.024759335 0.06166657
000250 08 81 1e c0 27 90 72 3f 72 f1 11 3f 5c 3a e1 3d
       -2.4766254 0.9475121 0.5700904 0.10997459
000260 aa 98 79 3f d1 4d 3b be 79 38 7c be f7 a8 3e bf
       0.9749857 -0.18291403 -0.24630918 -0.7447657
000270 93 65 a8 3f 65 cd 9b 3f 6c 21 84 bf b3 31 70 3f
       1.3155998 1.2172056 -1.03227 0.93825835
000280 c2 ab c3 3e a8 99 b8 be 17 1b de 3e c6 2b f4 bf
       0.38216978 -0.3605473 0.43380043 -1.9075859
000290 6c 4b a1 3f a1 a5 98 3e 96 96 61 bf 63 be 1f 3e
       1.2601142 0.29813865 -0.881204 0.1559997
0002a0 dc 7a 85 bf f1 d0 0d bf 5f 83 3e bf 2c e9 f3 bd
       -1.0428119 -0.55396944 -0.74419206 -0.119097084
0002b0 9d 26 94 bf 14 9a b9 bf 06 d6 1d 3f 29 df 3f 3f
       -1.1574284 -1.4500146 0.616547 0.7494989
0002c0 2c 47 e3 3f 4e e8 61 3e f7 1d b4 3d f0 12 ca bf
       1.7756095 0.22061273 0.08794778 -1.5787029
0002d0 c6 23 42 c0 22 00 1f 3f 1a 7a 6c bf 1a d6 d8 3f
       -3.0334334 0.6210958 -0.9237381 1.6940339
0002e0 20 d5 02 3f 7e 39 d5 3f 4f 43 b5 3f ac 2d 3f 3f
       0.5110645 1.665817 1.4161166 0.74679065
0002f0 47 6e 5d be 4c e6 11 bf 96 ab 90 bf 29 fe c0 3f
       -0.21624099 -0.5699203 -1.1302364 1.5077564
000300 d1 a1 e1 be 90 86 64 bf 78 ef 3d bf d2 14 f1 be
       -0.4406877 -0.89267826 -0.74193525 -0.47086197
000310 b8 62 f4 bf 2c 44 68 3f fa 19 33 bf c8 48 92 bf
       -1.9092627 0.9072902 -0.6996151 -1.1428461
000320 00 04 15 c0 07 cf 9f bf f8 38 8f 3e ea ec e9 3f
       -2.3283691 -1.2485055 0.2797315 1.8275425
000330 8e cb 88 3e 1f 4c 86 bf 18 86 f0 bf 46 2f c7 3f
       0.267178 -1.049198 -1.8790922 1.5561302
000340 df ec 0e 3e 7c 01 a4 3f 72 81 63 40 ff 89 5c 3f
       0.13957547 1.2812953 3.5547757 0.86148065
000350 1f f9 95 3f 4c 54 50 3f 3b 52 2a bf fe 0a 0a 3f
       1.1716651 0.81378627 -0.66531724 0.5392302
000360 74 be 36 3f e6 2c 34 3f 85 49 09 be cc df 30 bf
       0.7138436 0.7038101 -0.13406952 -0.69091487
000370 34 55 5d 3e 3c e1 1d 3f 48 6e d7 bf 05 78 b0 bf
       0.21614534 0.61671805 -1.683053 -1.3786627
000380 6d d7 9a bf 2f 94 bd 3e f3 47 90 3f 76 d8 9c 3f
       -1.2096993 0.37027118 1.1271957 1.2253559
000390 53 06 87 3f 82 2f a1 3f 04 cb 5f 3f 51 b2 ab be
       1.0548805 1.2592623 0.8741915 -0.33534482
0003a0 42 51 af 3f 0d 3e 43 3f 70 2b b6 3f eb d5 7c be
       1.3696673 0.76266557 1.4232006 -0.24690978
0003b0 35 43 b7 be 0f e8 ed 3e 05 71 0a 40 8c 4d 45 bf
       -0.35793462 0.4646611 2.1631482 -0.7707145
0003c0 b0 6a 35 be 06 40 8b 3f a9 86 a0 3f b0 f4 9a 3f
       -0.1771648 1.0878913 1.2541095 1.2105923
0003d0 f7 b8 a4 bf 1c b5 68 bf 3c 3a d4 bd 95 04 5c 3e
       -1.2868947 -0.9090135 -0.1036267 0.21486123
0003e0 6e 28 b5 3f 6e ee a3 3f e5 ad 97 bf c5 41 9c bf
       1.4152963 1.2807138 -1.1849943 -1.2207571
0003f0 3e b5 63 be 38 ee 7b bf bf 01 83 bf 5b bf 65 be
       -0.22237107 -0.9841037 -1.0234908 -0.22436278

weight_ih f4 [128, 30]
000000 5d 9b 64 3e d9 26 a3 3e 0a f7 32 3e d2 11 81 3c
       0.22324891 0.31865576 0.1747705 0.015755568
000010 26 a2 8b be 8c 38 52 be 7e 60 69 bd 9e 9a f0 bc
       -0.27272147 -0.20529383 -0.056976788 -0.029370602
000020 4b 8f 77 3d 15 55 95 3e 88 cc df 3d 2d 98 37 3e
       0.06043939 0.29166475 0.10927683 0.17929144
000030 55 be a4 bd c2 93 29 3d ad b4 70 be 2c ac 25 3e
       -0.080441155 0.04140068 -0.23506422 0.1617896
000040 8b 4d 69 3e 5b e0 4b 3d 3a 96 2a 3e 6b 67 48 3e
       0.22783487 0.04977451 0.1665887 0.19570701
000050 28 c5 bb 3d 5b e7 4d be 9e 08 a2 bd 91 cc 05 3d
       0.09168464 -0.20107786 -0.079118 0.032665793
000060 90 9d 47 3d da 41 c8 3d 95 d4 b9 3d ad a8 83 be
       0.048734248 0.09778185 0.0907375 -0.25714627
000070 5f 46 d0 bb 8e 28 71 3e cf c0 fc 3d 39 8b 74 bb
       -0.006356045 0.23550627 0.12341463 -0.0037314428
000080 90 7a 1d be d1 f1 68 be be 5b a3 be 08 1e 98 be
       -0.15378785 -0.22748496 -0.3190593 -0.29710412
000090 74 bc 48 3d 2d 67 92 3e 52 7a 07 3e ee 18 05 bd
       0.049007848 0.28594342 0.13230255 -0.032494478
0000a0 d3 14 e6 bd 77 db 5a be 43 ad 17 3d e9 a6 2a 3e
       -0.11234441 -0.21372782 0.03703047 0.16665234
0000b0 c6 c7 2c 3e a7 40 c2 3c ff 7a 6b be fb 2b 62 be
       0.16873083 0.02371247 -0.22996138 -0.2208709
0000c0 17 ce 2b 3d 11 e1 81 be a5 66 20 be 52 62 1d bd
       0.04194459 -0.25367025 -0.15664156 -0.038423844
0000d0 05 e9 b6 3d ef c2 6b 3e 89 57 29 be ba 56 05 be
       0.08931164 0.2302358 -0.16537298 -0.13021365
0000e0 c7 a6 cf bd 9a 1f 4c 3c 3e b9 8c bd aa ab 23 3e
       -0.10139232 0.012458706 -0.0687127 0.15983453
0000f0 4b 90 42 3e 92 a6 8d 3e ca 98 29 bb 55 bf 30 3e
       0.19000356 0.27666146 -0.0025878423 0.17260487
000100 ee d8 ad 3e 7c 38 db bc 00 01 9a 3e 7f 81 ef bc
       0.33954567 -0.026760332 0.30078888 -0.029236553
000110 a1 db 4f 3e e3 f4 35 bd df 31 35 be 26 2a e7 bd
       0.20298626 -0.044422995 -0.17694806 -0.11287336
000120 a7 a0 db 3d 53 01 b8 3c ab 5a ec bd de bd 89 be
       0.107240014 0.022461569 -0.11540731 -0.2690267
000130 5e 4b b2 be ff ce 5e bd d8 a6 f8 3d f1 a4 a5 3c
       -0.34823126 -0.054396626 0.12141198 0.020220252
000140 9e f9 a1 bd c9 bf bd 3c 70 87 ad bd 0a 21 c6 3d
       -0.07908939 0.02316274 -0.08473098 0.096742705
000150 97 65 01 3e 9f 42 fd 3d 11 94 5c be 15 26 27 3d
       0.1263641 0.123662226 -0.21540858 0.040807802
000160 be 5d b9 bd 0c 08 3a 3e a0 60 3d 3e a6 03 e4 ba
       -0.09051083 0.18167132 0.18493891 -0.0017396107
000170 67 26 b4 bc c8 f3 c1 bd 82 c8 2e 3c f6 14 55 3c
       -0.021990968 -0.09470326 0.010667922 0.013005486
000180 e1 38 84 3d 6c 73 ea ba 90 ff b5 3d 2d e1 d2 bc
       0.06456161 -0.0017887182 0.08886635 -0.025742138
000190 70 78 4a 3e 34 2e 8e bd 28 8b 59 be 3c f6 ea 3b
       0.19772506 -0.06942406 -0.2124449 0.0071704667
0001a0 53 8b 42 be 11 bc f7 bc 4a e0 3a 3c 2f d5 9d 3d
       -0.1899846 -0.030241044 0.011406014 0.07706677
0001b0 8b 3e 79 3d 5d 18 34 3e 75 2c 4c be ea c3 1f 3e
       0.06085066 0.17587419 -0.19938834 0.15602079
0001c0 3c 11 ce bc 27 8e 40 3e 9f 08 28 be dc 0b fc 3d
       -0.025154702 0.18804227 -0.16409539 0.123069495
0001d0 0c ee 09 be fd 3b 2e be 8c 69 40 3e a4 d5 e0 bc
       -0.13469714 -0.17015071 0.18790263 -0.027445622
0001e0 15 84 90 3d 49 e0 9b be b9 93 f8 3d 99 52 0b 3e
       0.07056443 -0.30444553 0.12137551 0.13605727
0001f0 e6 2d b0 3d fb d0 8c be a7 3f 19 be f6 e2 c2 bd
       0.086025044 -0.2750319 -0.14965688 -0.095159456
000200 56 c9 71 bd 78 81 c7 3c a7 89 a0 3c 5a 87 84 bd
       -0.0590299 0.024353728 0.019596888 -0.06471129
000210 0a 17 43 bd cb 4e ca bc c8 d0 1c be a1 da 5c 3e
       -0.047629394 -0.024695775 -0.15314019 0.21567775
000220 5a a0 45 be f9 63 6f be 09 95 83 3e 00 70 81 bd
       -0.1929945 -0.2337798 0.25699642 -0.063201904
000230 86 82 25 be 8f 74 85 be 3a 43 0d bd f6 cd bb 3b
       -0.16163072 -0.2606549 -0.03448794 0.0057313396
000240 f6 db ff bd db b7 27 be 48 18 bc 3c bc c5 35 3c
       -0.12493126 -0.16378729 0.022960797 0.011094507
000250 93 b0 e4 3d 72 0e 8d bd ac a0 45 bd 29 3c 87 bc
       0.11166491 -0.06887521 -0.04824893 -0.016508179
000260 de 97 78 3c 05 fa 67 bd c0 90 07 bc e4 e5 d3 3e
       0.015172927 -0.05663492 -0.008274257 0.4138633
000270 af 58 8c 3d 33 a9 24 3c e6 f0 99 3e 74 3a 0e be
       0.068528526 0.010050106 0.30066603 -0.13889486
000280 5c 69 0a 3e 38 40 35 be 43 1e 14 be 6e db 6c 3e
       0.13516754 -0.17700279 -0.14464669 0.23130581
000290 16 71 01 bd b1 00 d3 bd 11 ce 64 3e 14 90 9b bd
       -0.031601988 -0.10302866 0.22344233 -0.0759584
0002a0 ef ad 2c be b3 94 88 3e e6 94 07 3e 5f 26 64 3d
       -0.16863225 0.26675949 0.13240394 0.055700656
0002b0 cc b0 55 bc b6 fd ea 3e 1e b3 5d be 1c 27 01 be
       -0.01304264 0.4589669 -0.21650359 -0.12612575
0002c0 d1 78 0a bf d7 8a 27 be 0d 45 64 3e bb 9d 09 3e
       -0.540906 -0.16361557 0.22291966 0.13439076
0002d0 40 92 2d be 6a 47 16 be cf 98 6a be d9 9d 02 3f
       -0.16950321 -0.1467568 -0.22909854 0.51022106
0002e0 cc 10 1d bd 34 31 e4 3d 19 e6 c7 bd 83 2c 45 3d
       -0.038346097 0.11142197 -0.097606845 0.048138153
0002f0 14 c7 16 bd 65 e0 95 be 4d 0b 21 be cd a8 50 3e
       -0.03681095 -0.29272762 -0.15726967 0.20376892
000300 96 7e 0d 3e f7 70 85 be c6 c4 87 bd 46 38 46 3b
       0.1381782 -0.26062748 -0.066293284 0.0030245944
000310 32 1f 48 be a6 74 69 3d c0 a0 d8 bc 48 45 82 3e
       -0.1954315 0.05699601 -0.02644384 0.25443482
000320 3c bf 8c be 65 68 aa bd b0 1f 7f 3d 1c 7f c2 3e
       -0.2748965 -0.08320693 0.06228608 0.37987602
000330 b7 46 2f 3e 54 e4 13 bd 5c 97 34 3d 2f 89 3e be
       0.1711682 -0.036106423 0.04408966 -0.18607019
000340 a8 b3 9a bd a5 b4 93 bd 60 b1 c1 bd 32 3e 80 be
       -0.07553798 -0.072121896 -0.0945766 -0.2504745
000350 d0 99 0d 3d 06 c7 0a bd 30 a3 30 3c c3 78 61 3d
       0.034570515 -0.03388121 0.010781094 0.055046808
000360 87 9c 63 3e 0a dc fc bc 52 55 05 be 38 34 5f 3d
       0.22227679 -0.030866642 -0.13020828 0.05449316
000370 bc 4e e2 3d 09 d9 eb bd 13 25 11 3c b1 42 9f bd
       0.11050174 -0.115160055 0.008858937 -0.07776392
000380 87 94 0e bc 12 3a 3f 3d 3e 97 f7 3c 97 f8 a5 bd
       -0.008702404 0.04668624 0.030223485 -0.081040554
000390 5e 5f 1a 3e 91 80 be 3d 3a 31 be be 10 21 a2 3d
       0.15075442 0.09301866 -0.37146932 0.079164624
0003a0 24 5b 6c be 5c c4 2e 3e 24 6b 73 bc f9 1c 32 be
       -0.23081642 0.17067093 -0.014857087 -0.17393865
0003b0 43 a8 93 bd f1 9a 93 3d 26 62 c0 3d fb 5b 6b 3d
       -0.07209828 0.07207287 0.0939372 0.057460766
0003c0 18 5f f7 3d a9 b5 43 be 1f 53 40 bd b6 73 d0 be
       0.120786846 -0.19112267 -0.04695427 -0.4071328
0003d0 f8 f9 7d 3d a7 6f 5f 3e c3 f9 8a 3e f2 01 9c 3e
       0.062005967 0.21819936 0.27143678 0.30470234
0003e0 a2 d0 8d 3e 32 c4 6a 3e 10 52 3f bc 5c 01 a5 be
       0.27698237 0.22926405 -0.01167728 -0.322276
0003f0 7e 9a a4 be 1e 32 1a 3c f2 60 dc bd c4 18 f7 bd
       -0.32149118 0.009411363 -0.10760678 -0.120652705
