assignment_3/outputs/models/pos_neg_examples.pth (torch, 49276 bytes, 20 tensors)

embedding.weight f4 [15, 30]
0	0xbf4514ed	-0.76985055
1	0x3f261f91	0.64891917
2	0xbee768b1	-0.4519706
3	0x3f65cd66	0.8976654
4	0x3ec3aad5	0.38216272
5	0xbf22be9d	-0.635721
6	0xbf26fbfd	-0.65228254
7	0x3e4cb608	0.19991314
8	0xbee9032e	-0.45510238
9	0x3f397081	0.7243729
10	0xbf738d99	-0.95137936
11	0x3ed6c28a	0.41945297
12	0xc0224ad3	-2.535817
13	0xbeade714	-0.3396536
14	0x3d7582f5	0.059939343
15	0x40087fd5	2.1328022
16	0xbf33d186	-0.7024158
17	0x3f31a662	0.69394505
18	0x3f7011db	0.93777245
19	0x3edc8e18	0.4307716
20	0x3fa2d046	1.271981
21	0xbe1f180c	-0.15536517
22	0xbf5d5fac	-0.8647411
23	0xbf15768d	-0.5838402
24	0xbe0f5a94	-0.13999397
25	0x3df6e1d0	0.12054789
26	0xbf446052	-0.76709473
27	0xbf343900	-0.70399475
28	0xbf383f52	-0.7197162
29	0x3f1e6a31	0.61880785
30	0x3ed78b3e	0.4209842
31	0x3e2a1f42	0.16613486
32	0xbf588576	-0.84578645
33	0x3fa3ec04	1.2806401
34	0xbed5c577	-0.41752216
35	0x3daf50e9	0.08560354
36	0xbe547945	-0.20749386
37	0xbea3c8f4	-0.31989253
38	0x3f89e70b	1.0773634
39	0xbfb97ed0	-1.4491825
40	0xbe296950	-0.1654408
41	0x3f555768	0.83336496
42	0x3f95858a	1.1681378
43	0xbf54e560	-0.831625
44	0x3f85c544	1.0450826
45	0xbeadeb16	-0.3396842
46	0x3f9ab1fc	1.2085567
47	0x3f4d7857	0.8026175
48	0xbe81aae9	-0.25325707
49	0xbdec3076	-0.11532681
50	0xbd6294d1	-0.055317704
51	0xbf7d12d0	-0.9885683
52	0x3fa42ad5	1.2825571
53	0xc00ebfdf	-2.230461
54	0x3e9d8c9c	0.3077134
55	0xbfca0b8e	-1.5784776
56	0xbf06f363	-0.5271513
57	0x3ee49bba	0.4465006
58	0xbf1e7255	-0.61893207
59	0x3e80ff82	0.25194937
60	0x3ffdef34	1.9838624
61	0x3f8e2482	1.1104891
62	0xbfc63f5c	-1.5488086
63	0x3f315ece	0.69285285
64	0x3e3998c4	0.18124682
65	0xbf790121	-0.9726735
66	0x3f7dbf1d	0.9911974
67	0xbdd827e9	-0.10554487
68	0xbf55f0a7	-0.8357033
69	0x3f9e26e4	1.2355618
70	0xbeb0bf52	-0.34520966
71	0xbf43517f	-0.7629623
72	0xbfa651e5	-1.2993742
73	0xbf84b89e	-1.0368841
74	0xbf8ef278	-1.1167746
75	0xbee66b5c	-0.45003784
76	0x3e348d67	0.17632066
77	0xbf8ab250	-1.0835667
78	0x3ff5e1a1	1.9209481
79	0x3ea4f7f0	0.3222041
80	0xbf758ccd	-0.9591797
81	0x3f5f78de	0.87293804
82	0xbe7d6596	-0.24745783
83	0xbecb0bfc	-0.3965758
84	0xbff42367	-1.9073304
85	0x4002943b	2.0402973
86	0xbfc892bb	-1.5669779
87	0xbfbba0d1	-1.4658452
88	0xbf80b963	-1.0056576
89	0x3fc19a66	1.5125244
90	0xbe995ad7	-0.29952118
91	0x3f7267c4	0.94689584
92	0xbf54252d	-0.82869226
93	0x3fbb1dbe	1.4618452
94	0xbf1cba8b	-0.6122214
95	0x3f4c94a1	0.7991429
96	0x3f9a47ab	1.2053121
97	0xbeec173c	-0.46111476
98	0x3f813421	1.0094033
99	0x3fb1c2f3	1.3887619
100	0xbf859716	-1.0436733
101	0xbfdb1fed	-1.7119118
102	0x3e85e4aa	0.2615102
103	0xbf484980	-0.7823715
104	0x3f6d91e3	0.9280073
105	0x3e28945f	0.16462849
106	0xbf591294	-0.8479397
107	0xbec74197	-0.3891723
108	0x3fa97732	1.32395
109	0xbf66912d	-0.9006527
110	0x3f87da58	1.0613508
111	0x3ee97f3f	0.45604894
112	0x3f18504c	0.59497523
113	0x3f7066e0	0.93906975
114	0x3e754c0d	0.23954792
115	0xbf703a86	-0.938393
116	0xbfb5bd74	-1.4198442
117	0xbf9aaa43	-1.208321
118	0x3f0070d5	0.5017217
119	0x3d0e2cb5	0.034710605
120	0xbce3180b	-0.027721426
121	0x3c0bf7cc	0.008542966
122	0x3e6de9b0	0.23233676
123	0x3f4a620a	0.79055846
124	0xbf87c078	-1.0605612
125	0xbf6234eb	-0.88361996
126	0x3eb3089c	0.34967506
127	0xbfd10247	-1.632882
128	0x3fb9c6d3	1.4513801
129	0xbef787bf	-0.48345754
130	0xbe64092d	-0.22269125
131	0xbed0aef9	-0.40758494
132	0x3ed99b75	0.42501417
133	0x3e864818	0.26226878
134	0x3f14118e	0.57839286
135	0x3ee752f2	0.4518047
136	0xbebf79dd	-0.37397662
137	0xbfaa0a42	-1.328438
138	0x3fad7fb5	1.3554598
139	0xbff8908e	-1.9419115
140	0xbf0eb066	-0.5573791
141	0x3f39d82e	0.7259549
142	0x3f0a0d32	0.53926384
143	0x402b78a9	2.6792395
144	0xbf211fd2	-0.6293918
145	0xbf6beded	-0.9215992
146	0xbdf45278	-0.11929792
147	0x3d3f3c69	0.04668847
148	0xc01680b4	-2.3516054
149	0x3f3d6b37	0.7399172
150	0x3ec07788	0.37591195
151	0x3e81cabb	0.25349984
152	0x3f103578	0.56331587
153	0xbe668bab	-0.22514217
154	0xbdc4a697	-0.09602087
155	0xbf4b7b66	-0.79485166
156	0x3f6a4dd1	0.9152499
157	0x3f7a5de8	0.9779954
158	0xbf9005f4	-1.1251817
159	0x3f462ef6	0.77415407
160	0x3ed99ca3	0.42502317
161	0xbea87099	-0.32898405
162	0x3f14070e	0.57823265
163	0xc00170c6	-2.0225081
164	0x3f9d7c89	1.230363
165	0xbd53048c	-0.051518008
166	0xbf5fb9de	-0.87392986
167	0x3e9b613c	0.3034762
168	0xbf82f3f8	-1.0230703
169	0xbf1de56e	-0.61678207
170	0xbf5fa1ff	-0.8735656
171	0x3e2ddbd4	0.16978389
172	0xbf851bbc	-1.0399089
173	0xbf868bd3	-1.0511421
174	0x3f20dc7e	0.62836444
175	0x3f0aaea4	0.5417273
176	0x3f82c23f	1.0215529
177	0x3d7663d1	0.060153786
178	0x3db59d0d	0.08867846
179	0xbf730b6a	-0.9493929
180	0xc0371efd	-2.8612664
181	0x3f0eac7d	0.55731946
182	0xbf571b3f	-0.8402595
183	0x3fd13bdb	1.6346391
184	0x3f0553ca	0.52080977
185	0x3fc39b14	1.5281701
186	0x3fa30a9e	1.2737615
187	0x3f442d45	0.76631576
188	0xbe8d9cc6	-0.2765867
189	0xbee23c36	-0.44186562
190	0xbf716077	-0.9428782
191	0x3fc50f1f	1.539524
192	0xbedad804	-0.42742932
193	0xbf6193ba	-0.8811604
194	0xbf347815	-0.7049573
195	0xbf0dc45f	-0.55377764
196	0xbfe86b21	-1.8157693
197	0x3f495a1e	0.7865313
198	0xbf03bf27	-0.5146355
199	0xbf85079c	-1.0392947
200	0xc013a395	-2.3068593
201	0xbf935497	-1.151019
202	0x3c8e92ec	0.017404042
203	0x3fd3672a	1.6515858
204	0x3e12a4b7	0.14320646
205	0xbf73872f	-0.9512815
206	0xbff15914	-1.885531
207	0x3fbb3458	1.4625349
208	0x3e339b78	0.17539775
209	0x3f86e726	1.0539291
210	0x405360a6	3.302774
211	0x3f37376e	0.71568954
212	0x3f837d60	1.0272636
213	0x3f516014	0.8178723
214	0xbf59ef73	-0.85130996
215	0x3edc31b4	0.4300667
216	0x3f5e35d5	0.8680089
217	0x3f1db105	0.61598235
218	0xbe219e0e	-0.1578295
219	0xbf463a1c	-0.7743242
220	0x3e86c826	0.26324576
221	0x3ef98122	0.48731333
222	0xbfada61f	-1.3566321
223	0xbfa95b58	-1.3231001
224	0xbf922df2	-1.1420271
225	0x3ecb2cf7	0.39682743
226	0x3f787585	0.9705432
227	0x3f91560c	1.1354384
228	0x3f847ff9	1.0351554
229	0x3f9222f5	1.1416918
230	0x3f1dd69a	0.6165558
231	0xbe9acb8b	-0.30233416
232	0x3f93963f	1.1530226
233	0x3f38392f	0.71962255
234	0x3fac6347	1.3467797
235	0xbe8b97fb	-0.2726439
236	0xbec83654	-0.3910395
237	0x3ee17b5d	0.4403943
238	0x40037d67	2.054529
239	0xbf485833	-0.7825958
240	0xbe763973	-0.24045353
241	0x3f715134	0.9426453
242	0x3f93040c	1.148561
243	0x3fb7e528	1.4366808
244	0xbf954b9c	-1.1663699
245	0xbf83d8c6	-1.0300529
246	0xbe3a7f91	-0.18212725
247	0x3db74be2	0.089500204
248	0x3fc39476	1.5279682
249	0x3faed1cc	1.3657775
250	0xbf9c79ef	-1.2224711
251	0xbfa4f8fe	-1.2888486
252	0xbe9358d2	-0.28778702
253	0xbf56b24e	-0.8386582
254	0xbf8d2d53	-1.1029457
255	0xbe7f8e30	-0.24956584

lstm.lstm_cell.weight_ih f4 [128, 30]
0	0x3e089c84	0.13340956
1	0x3e4a58c9	0.19760431
2	0xbbf44edd	-0.0074556903
3	0xbdf15f0b	-0.11785706
4	0xbd2044a6	-0.03912797
5	0xbd5c3da9	-0.05376974
6	0xbc9c2a1b	-0.019063046
7	0xbe2772a5	-0.16352327
8	0xbd1bfa29	-0.03808037
9	0xbe9dcb1c	-0.30819023
10	0x3e19eb20	0.150311
11	0x3dfb589a	0.12272759
12	0xbd8f5fda	-0.07000704
13	0x3e971fc2	0.29516417
14	0x3e398cbc	0.18120092
15	0xbe210760	-0.1572547
16	0x3eb1bcd3	0.34714374
17	0xbe1598eb	-0.14609115
18	0xbc00e40f	-0.007866873
19	0x3dc0fae2	0.09422852
20	0xbd489968	-0.048974425
21	0x3e88bf48	0.26708436
22	0x3ea3fd4a	0.32029182
23	0xbc72813f	-0.0148013225
24	0x3d69fd84	0.057126537
25	0x3de31a1a	0.11088963
26	0x3e515209	0.2044145
27	0xbe41649b	-0.18886034
28	0x3e429604	0.19002539
29	0xbb874fc9	-0.004129384
30	0x3d8b29c2	0.06795074
31	0x3e0daeef	0.13836263
32	0xbccaf172	-0.024773333
33	0x3e0804bf	0.1328306
34	0xbe5e2cf6	-0.21696839
35	0xbe742885	-0.23843582
36	0x3e00b035	0.12567218
37	0x3deacf72	0.11465348
38	0x3d0d46b4	0.034491256
39	0x3d866d1b	0.06563779
40	0x3db6f498	0.08933371
41	0x3d0673af	0.03282517
42	0xbe7ea166	-0.24866256
43	0x3d2b22be	0.04178118
44	0xbd028d0a	-0.031872787
45	0x3e313438	0.17305076
46	0x3e18768c	0.14888972
47	0xbe0a04b6	-0.1347836
48	0x3e572999	0.21011962
49	0x3e1ca80a	0.15298477
50	0xbda85aa3	-0.082204126
51	0x3dec1f87	0.11529451
52	0x3daf779a	0.08567734
53	0xbd89f1cd	-0.06735573
54	0xbd383c7f	-0.04497957
55	0xbc739da5	-0.014869128
56	0xbe1dd145	-0.15411861
57	0xbe4ad1f0	-0.19806647
58	0xbe245c43	-0.1605082
59	0xbd1aeb2e	-0.03782194
60	0x3e9d7ea9	0.30760697
61	0xbdce9102	-0.10086252
62	0x3e125d61	0.14293434
63	0xbe47164e	-0.19442102
64	0xbe54541f	-0.20735215
65	0xbd975c53	-0.07390656
66	0xbe56f88f	-0.20993255
67	0x3d4eca66	0.05048599
68	0xbd28ab48	-0.04117897
69	0xbe95e51f	-0.29276368
70	0x3da8d372	0.08243455
71	0x3e0edfb7	0.13952528
72	0x3e3bf014	0.18353301
73	0x3e06f101	0.13177873
74	0x3aff47f6	0.0019476402
75	0x3c931c3c	0.0179578
76	0x3e1ed665	0.15511473
77	0x3d8782e0	0.06616759
78	0x3d212c83	0.03934909
79	0xbd98bc88	-0.074578345
80	0xbd6587bb	-0.056037646
81	0x3d5e82ae	0.054323845
82	0xbd3f10b7	-0.0466468
83	0xbe48ec02	-0.1962128
84	0x3e845fe6	0.25854415
85	0xbea28ec0	-0.31749535
86	0x3e9d3597	0.30704948
87	0x3d806dd2	0.062709466
88	0x3dbaa14b	0.091127954
89	0xbdd77b8a	-0.1052161
90	0x3e2e26c0	0.1700697
91	0x3e2520d9	0.16125812
92	0xbc2b69ba	-0.010462219
93	0xbe2d8ae2	-0.16947511
94	0x3ec2b18d	0.38026085
95	0x3cf22b14	0.029561557
96	0xbe070a7d	-0.13187595
97	0xbe1b8f4d	-0.15191384
98	0xbc54fa36	-0.012999108
99	0xbd925af0	-0.07146251
100	0x3d3ceb80	0.046123028
101	0xbe5bec23	-0.21476798
102	0xbdfe76d8	-0.124250114
103	0xbd791836	-0.060814105
104	0x3caedc87	0.02134539
105	0xbd64c4bb	-0.05585168
106	0x3d726db3	0.05918665
107	0x3de7d687	0.11320215
108	0x3e305729	0.17220749
109	0xbc945c3a	-0.018110383
110	0xbdc7eb44	-0.0976167
111	0x3e47f999	0.19528808
112	0x3db7d69e	0.08976482
113	0x3de52891	0.11189378
114	0x3d51cf69	0.051223192
115	0xbd943288	-0.072362006
116	0x3cecfd83	0.028929478
117	0x3ce17740	0.027522683
118	0x3e2d9f04	0.16955191
119	0xbe0ff0a4	-0.14056641
120	0x3d7f7525	0.062367577
121	0xbe68e5be	-0.2274389
122	0xbe037865	-0.12838896
123	0xbdcda696	-0.10041539
124	0x3de3ec48	0.111290514
125	0xbe04d35f	-0.12971257
126	0xbdfbc435	-0.12293283
127	0x3daf36e0	0.085553885
128	0x3d54a9bf	0.051919695
129	0x3d5720a9	0.05252138
130	0x3e7a4170	0.24439025
131	0xbd3cbbb5	-0.04607745
132	0xbe250165	-0.16113813
133	0x3df2297f	0.11824321
134	0x3e1a9ba6	0.15098438
135	0xbe293a6e	-0.16526195
136	0x3e2d658e	0.16933271
137	0x3e30190a	0.17197052
138	0xbe492ea4	-0.19646698
139	0xbd2c58e7	-0.04207697
140	0xbe79fc4a	-0.24412647
141	0x3e7535aa	0.23946252
142	0x3dec1b0c	0.11528596
143	0xbe2fde1b	-0.1717457
144	0xbc0a8e23	-0.00845674
145	0x3e8a761e	0.2704324
146	0xbe685500	-0.22688675
147	0xbde93bcb	-0.11388358
148	0xbdd531a9	-0.104098625
149	0xbe0798ef	-0.13241933
150	0x3e007c10	0.12547326
151	0x3dec30a9	0.11532719
152	0x3dd92a8a	0.10603817
153	0x3d944d59	0.072413154
154	0xbcaf5ec3	-0.02140749
155	0xbe21acd6	-0.15788588
156	0x3e1e4cfd	0.15459056
157	0x3d0c8eff	0.03431606
158	0x3e5ca114	0.21545821
159	0x3e14410d	0.1447794
160	0xbd709b67	-0.058741953
161	0xbd448e3d	-0.04798721
162	0xbe2811ea	-0.16413084
163	0xbe2903bf	-0.16505335
164	0xbdb4e975	-0.08833591
165	0xba5e9b2f	-0.0008491752
166	0x3c8deac6	0.017323863
167	0x3e095626	0.1341177
168	0x3dbd52f3	0.09244337
169	0x3b4caecf	0.0031232124
170	0xbe3cfd40	-0.18455982
171	0x3d245368	0.040118605
172	0x3d557a2e	0.052118473
173	0xbe000898	-0.12503278
174	0x3ce74d8a	0.028235216
175	0xbe3b83c4	-0.18311983
176	0xbe7dae67	-0.2477356
177	0xbdc0cae7	-0.094137006
178	0xbca146e2	-0.01968712
179	0x3dcd9627	0.10038405
180	0xbe24c951	-0.16092421
181	0xbd362a2b	-0.04447381
182	0x3d8bb868	0.06822282
183	0xbe1007bd	-0.14065452
184	0x3e4498cd	0.19198914
185	0xbe109345	-0.14118679
186	0x3d80a639	0.062817045
187	0x3c19a816	0.009378454
188	0xbe5dc75a	-0.21658078
189	0x3e1600a4	0.14648682
190	0x3df230a9	0.118256874
191	0xbd2bf0c9	-0.041977677
192	0x3dccf297	0.10007208
193	0x3e578063	0.2104507
194	0xbdc65725	-0.0968459
195	0xbdadfacc	-0.08495101
196	0xbe252f25	-0.16131265
197	0x3d072ae7	0.0329999
198	0x3d8a217b	0.06744667
199	0x3d1644e5	0.036686797
200	0x3b11986f	0.0022216102
201	0x3eb2ebe3	0.34945592
202	0xbd28f04e	-0.041244797
203	0xbc457883	-0.012052658
204	0xbeacb8a2	-0.33734614
205	0x3e961a40	0.29316902
206	0xbda9a762	-0.08283879
207	0xbe8d2c19	-0.27572706
208	0x3d9bf9de	0.07616018
209	0xbe2bfd09	-0.16795744
210	0x3d45dfd5	0.048309166
211	0x3e0c4160	0.13696814
212	0xbe255666	-0.1614624
213	0xbde09863	-0.109665655
214	0x3e50733a	0.20356455
215	0x3cc384c0	0.023867011
216	0xbde39365	-0.11112098
217	0x3dd1dbdb	0.10247012
218	0xbd0cbf80	-0.034362316
219	0xbdb2829a	-0.087163165
220	0xbdc39b50	-0.09551108
221	0xbe34591c	-0.17612118
222	0x3c8ad8cf	0.016949086
223	0x3c8e27b3	0.017352914
224	0xbc900317	-0.017579598
225	0x3e0cea33	0.13761215
226	0xbe288802	-0.16458133
227	0xbe3d3728	-0.18478072
228	0x3dcc0106	0.09961133
229	0xbe6133b1	-0.21992375
230	0x3e61df5d	0.22057863
231	0x3d83ea8c	0.06441221
232	0xbe132d0d	-0.14372654
233	0xbd61e948	-0.055154115
234	0x3dd6806c	0.10473713
235	0x3e849d97	0.25901482
236	0x3d69fa18	0.057123274
237	0xbe99b97c	-0.30024326
238	0x3ce7a91b	0.028278878
239	0xbe4f161e	-0.20223281
240	0x3dc79bb4	0.09746495
241	0xbe9c2b55	-0.3050181
242	0xbdf596cd	-0.119916536
243	0xbd44b0f2	-0.04802031
244	0x3e0a9932	0.13535002
245	0xbe86a8f1	-0.26300767
246	0x3d7a5a73	0.061121415
247	0xbb11a91c	-0.0022226041
248	0xbe207f25	-0.15673502
249	0xbe00c5d9	-0.12575473
250	0x3e8a4d7b	0.27012238
251	0x3e183479	0.14863767
252	0x3aa835f5	0.0012833463
253	0xbc2e38ff	-0.010633706
254	0x3d6c0abd	0.05762743
255	0x3cdb417b	0.026764622

lstm.lstm_cell.weight_hh f4 [128, 32]
0	0xbbb6edfc	-0.005582569
1	0x3b448a5d	0.0029989698
2	0xbdc416a7	-0.09574633
3	0xbdff9f67	-0.124815755
4	0x3c0e0edc	0.008670535
5	0xbe5579ce	-0.20847246
6	0xbd476ec6	-0.048689626
7	0xbd1f1a6a	-0.03884355
8	0x3e127417	0.14302097
9	0xbda4d814	-0.08049026
10	0x3ce4c2eb	0.027924975
11	0x3e022b6d	0.12711878
12	0x3e0ca2d6	0.13733992
13	0xbe6ac315	-0.2292598
14	0xbd853f3c	-0.065062016
15	0x3d50673a	0.050879695
16	0xbd8f39c2	-0.06993438
17	0x3e508284	0.20362288
18	0x3e18d2ae	0.14924118
19	0x3d3a851c	0.0455371
20	0x3e198a6c	0.1499421
21	0x3e586a0e	0.21134207
22	0xbddda044	-0.10821584
23	0x3d0da002	0.034576423
24	0x3d322f8a	0.043502368
25	0xbe556539	-0.20839395
26	0x3e0ef36c	0.13960046
27	0x3d101a70	0.035181463
28	0xbeb3af25	-0.35094562
29	0xbbc60cb6	-0.0060439957
30	0xbd072b68	-0.03300038
31	0xbe5e19d1	-0.21689536
32	0x3eb17a2c	0.34663522
33	0xbeaa586b	-0.33270583
34	0xbd22aac9	-0.039713655
35	0xbea28622	-0.3174296
36	0xbe063c01	-0.13108827
37	0xbdc7fa8b	-0.09764584
38	0xbd2619ff	-0.040552136
39	0x3dc4e4e2	0.096139684
40	0x3c99b8c3	0.018764859
41	0xbdf32611	-0.11872495
42	0xbbe5ec8c	-0.007016724
43	0x3e51c4a1	0.20485164
44	0xbdfcd859	-0.123459525
45	0xbda31f89	-0.07964999
46	0x3e866f27	0.26256678
47	0xbe0087ec	-0.1255185
48	0x3d84aec4	0.064786464
49	0xbe63f355	-0.22260793
50	0xbd03c629	-0.032171402
51	0x3d8f225a	0.06988974
52	0x3d3b8b34	0.04578705
53	0x3e80a7ea	0.25128108
54	0x3c81b0b9	0.015831338
55	0x3e462230	0.19348979
56	0xbe9436e5	-0.2894813
57	0xbd924070	-0.07141197
58	0x3e4a0994	0.19730216
59	0xbdc76657	-0.09736317
60	0x3dc3ad93	0.09554591
61	0x3d229d87	0.03970101
62	0x3e5c5dde	0.21520182
63	0x3e881bb0	0.26583624
64	0xbbe141ac	-0.006874284
65	0x3e055ccb	0.13023679
66	0x3e08a23c	0.13343138
67	0x3e63f9ef	0.22263311
68	0xbe04c971	-0.12967469
69	0x3e0c8712	0.137234
70	0xbe5470d2	-0.20746163
71	0xbea8408d	-0.32861748
72	0xbe5d921d	-0.21637769
73	0xbe0e51f4	-0.1389845
74	0xbdb434d1	-0.087991364
75	0x3e1f1e4c	0.15538901
76	0xbe46c1d7	-0.19409882
77	0xbd917adb	-0.07103511
78	0xbe6bfce9	-0.23045696
79	0x3d98eed0	0.07467425
80	0x3b58bd35	0.003307176
81	0xbca1c013	-0.019744908
82	0x3e9a8e83	0.30186853
83	0xbd376bc4	-0.044780508
84	0xbddec138	-0.10876697
85	0xbcee3b07	-0.02908088
86	0x3e5c4bed	0.21513338
87	0x3d2dcbca	0.042430677
88	0xbc82c303	-0.01596213
89	0xbbbd086f	-0.0057688276
90	0xbd99a4bf	-0.07502126
91	0xbe014021	-0.1262212
92	0xbeb3fbeb	-0.35153136
93	0xbdcd7c29	-0.10033447
94	0x3e106b61	0.14103462
95	0x3db5b687	0.08872705
96	0x3e1b58d1	0.151706
97	0xbc6189b0	-0.013765737
98	0xbebc3e41	-0.36766246
99	0xbe93027c	-0.28712833
100	0x3c012dbd	0.00788444
101	0x3c0fdcdf	0.008780687
102	0x3e490969	0.19632496
103	0x3dc6ed22	0.09713198
104	0x3ecd2787	0.4006922
105	0xbdad9ae3	-0.08476808
106	0xbdb13f77	-0.08654683
107	0x3e5fb583	0.21846585
108	0xbdb15e99	-0.08660621
109	0x3dad713a	0.08468862
110	0x3d77c959	0.060494754
111	0x3e32019e	0.1738343
112	0x3d8b3c19	0.06798572
113	0x3d63afea	0.055587687
114	0x3e67a5a9	0.22621788
115	0x3e50482b	0.2034003
116	0x3d1d2c20	0.03837216
117	0xbbc86564	-0.0061156023
118	0xbe324d2e	-0.17412254
119	0x3e1cc927	0.15311109
120	0xbd8d39b0	-0.06895769
121	0xbe129919	-0.14316215
122	0xbe49edab	-0.1971957
123	0x3e90ce93	0.28282604
124	0xbd53354f	-0.05156451
125	0x3da6a31c	0.081365794
126	0x3e862f3b	0.2620791
127	0x3ca309b2	0.019902084
128	0x3dbe8bbf	0.09303998
129	0xbe5008f5	-0.20315917
130	0xbe8a3024	-0.26989853
131	0x3b5e52d4	0.003392388
132	0x3e146470	0.14491439
133	0x3ce9c239	0.028534995
134	0xbe1cad7f	-0.15300559
135	0xbde113a0	-0.10990071
136	0x3e5550c7	0.20831595
137	0x3e832248	0.25612092
138	0xbdd402b4	-0.10352078
139	0xbd4f6bf8	-0.050640076
140	0x3e4915c8	0.19637215
141	0x3c5a6815	0.013330479
142	0xbe373333	-0.17890625
143	0x3d8a84b8	0.06763595
144	0x3d925105	0.071443595
145	0x3b1722d8	0.002306154
146	0xbe96db5a	-0.29464227
147	0x3c10e092	0.008842604
148	0x3e15b0f3	0.14618282
149	0x3cfcdc9f	0.03086692
150	0xbe14bf0c	-0.14526004
151	0xbe194fed	-0.14971896
152	0xbe4e77dd	-0.20162912
153	0xbe1af8e5	-0.15134008
154	0x3e13218c	0.14368266
155	0x3d825bd3	0.0636517
156	0xbe4bd423	-0.19905142
157	0xbda75f3e	-0.08172463
158	0xbe110278	-0.14161098
159	0x3df51fdd	0.11968968
160	0x3e80d213	0.25160274
161	0x3ddc2ae5	0.10750369
162	0x3e74b21b	0.23896067
163	0xbd99993c	-0.0749993
164	0x3cb7e676	0.02244876
165	0x3d987ba3	0.07445457
166	0x3dd18141	0.10229731
167	0x3dc4613e	0.0958886
168	0xbe92b58b	-0.2865413
169	0xbe5691e1	-0.20954086
170	0xbccfabc7	-0.025350465
171	0x3e011060	0.12603903
172	0xbead8406	-0.33889788
173	0xbe0929f7	-0.13394915
174	0x3c220c1d	0.009890583
175	0xbcd92a66	-0.026509475
176	0x3e973bb7	0.29537746
177	0xbd9336db	-0.07188197
178	0xbea3569b	-0.31902012
179	0x3e769817	0.24081455
180	0x3e8c3687	0.2738535
181	0xbbd68d36	-0.0065475954
182	0xbe060070	-0.13086104
183	0x3dd44740	0.10365152
184	0x3dce0a0f	0.10060512
185	0xbd34d775	-0.04415079
186	0x3e2aae92	0.16668156
187	0xbe20a4db	-0.15687887
188	0x3d2bc7ff	0.041938778
189	0xbe4ed38d	-0.20197888
190	0xbdfc3c06	-0.12316136
191	0xbd9a22dd	-0.07526181
192	0x3e6881f3	0.22705822
193	0xbe45b6b9	-0.19307984
194	0xbe0e1b55	-0.13877614
195	0xbdd548be	-0.10414265
196	0x3e00ed47	0.12590514
197	0xbe93c3b3	-0.28860244
198	0x3dcd29e5	0.100177564
199	0x3e92a8a6	0.28644294
200	0xbe08d96d	-0.13364191
201	0xbd1e05c1	-0.038579706
202	0xbdebb2e5	-0.11508731
203	0x3d70b81f	0.05876934
204	0xbe447f05	-0.19189079
205	0x3d9aced1	0.07558978
206	0x3e73559f	0.2376313
207	0xbd7c2c1a	-0.061565496
208	0xbca97833	-0.020687198
209	0xbd078e9e	-0.033094995
210	0x3e473ac6	0.19456014
211	0x3dca0ae9	0.09865362
212	0x3d08c058	0.03338656
213	0x3adef391	0.0017009844
214	0xbdc00ab0	-0.093770385
215	0xbcb7a4d9	-0.022417473
216	0xbe9ca956	-0.30597943
217	0xbc9660b0	-0.018356651
218	0xbdddb5ed	-0.10825715
219	0x3e8ec954	0.27887976
220	0x3d23e372	0.04001183
221	0xbe93e526	-0.28885764
222	0x3e566373	0.20936374
223	0x3e14ee77	0.14544092
224	0x3e241461	0.16023399
225	0x3db5d69e	0.088788256
226	0xbdf6258d	-0.12018881
227	0xbe59da08	-0.21274579
228	0x3e433827	0.19064389
229	0xbd81e7d8	-0.06343049
230	0x3dc5315a	0.09628554
231	0x3ddd1c63	0.1079643
232	0x3e2350d3	0.159488
233	0xbc73506e	-0.014850719
234	0xbe92acb3	-0.28647384
235	0x3e38051e	0.17970702
236	0xbe3cd138	-0.18439186
237	0x3e2bdf9a	0.16784516
238	0x3e6de02c	0.23230046
239	0x3db3064b	0.08741435
240	0x3caf5afe	0.021405693
241	0x3d2255fa	0.039632775
242	0x3e17a36b	0.14808433
243	0x3d3bac94	0.04581888
244	0xbd10e396	-0.035373293
245	0x3db098b8	0.08622879
246	0xbd27bb3d	-0.04095005
247	0x3e87d488	0.26529336
248	0xbde7673e	-0.11298989
249	0xbc8e3f82	-0.017364267
250	0xbd794892	-0.060860224
251	0xbde79f90	-0.11309731
252	0xbdcb3606	-0.099224135
253	0x3af267d3	0.0018494077
254	0x3cb6af92	0.022300515
255	0x3dedc798	0.11610335

lstm.lstm_cell.bias_ih f4 [128]
0	0x3d13d8e4	0.036095515
1	0x3eade3b7	0.33962795
2	0x3e230aa1	0.15922023
3	0x3ddcca73	0.107808016
4	0x3e6347a2	0.22195294
5	0x3d9bee53	0.07613816
6	0xbca62170	-0.020279616
7	0xbe0f085a	-0.1396803
8	0x3cc1c21d	0.02365213
9	0x3e0e4081	0.13891794
10	0xbbe39987	-0.006945792
11	0xbd07e85b	-0.033180576
12	0x3e103b09	0.1408502
13	0x3e5c32b1	0.21503712
14	0x3c95713e	0.018242475
15	0x3d627beb	0.05529396
16	0x3d86f3c1	0.06589461
17	0xbd8ad057	-0.06778019
18	0x3e55d987	0.20883761
19	0x3d02e8f9	0.03196046
20	0xbcfef595	-0.031122962
21	0x3e6130a6	0.21991214
22	0x3e2ce3e3	0.16883807
23	0x3eb21411	0.34780934
24	0x3e636bfe	0.22209165
25	0xbc74d963	-0.014944407
26	0xbd644046	-0.05572536
27	0x3e76df2b	0.2410857
28	0x3c66ba11	0.014082448
29	0xbd1ac082	-0.037781246
30	0x3d49ea25	0.049295563
31	0xbdd537ce	-0.104110345
32	0x3cf3bce7	0.029753162
33	0x3e538ef9	0.20660008
34	0xbe77fece	-0.24218294
35	0xbdff1485	-0.12455086
36	0x3e69aa64	0.22818905
37	0xbd3a2bc9	-0.045451913
38	0x3dbf9183	0.09353926
39	0x3e3ddcc3	0.18541245
40	0xbba445fa	-0.0050132247
41	0x3db9101c	0.09036276
42	0xbe529ded	-0.20568056
43	0x3c93008c	0.017944597
44	0x3c2ad8e7	0.01042769
45	0x3e293585	0.16524322
46	0xbdc1371f	-0.09434342
47	0xbe16b279	-0.1471652
48	0xbcf11c9b	-0.029432585
49	0x3d24b964	0.040215865
50	0x3e826be8	0.2547295
51	0x3e25bbd4	0.16184932
52	0x3e4ee7c6	0.20205602
53	0x3c45363f	0.012036859
54	0x3d7e871f	0.06214058
55	0x3e37f6d2	0.17965248
56	0x3df3f0ba	0.11911149
57	0x3e6b5a1d	0.22983594
58	0x3dc463d8	0.09589356
59	0x3d71f8bd	0.059075106
60	0xbe2d6f5b	-0.1693701
61	0x3e88b4c5	0.26700416
62	0x3e939eac	0.28831995
63	0xbda3c11b	-0.07995816
64	0xbdf6b664	-0.12046507
65	0xbe4136c9	-0.18868555
66	0xbc763dae	-0.015029354
67	0x3d5ec3fe	0.05438613
68	0xbce5c655	-0.028048674
69	0xbd5aa89c	-0.053383455
70	0x3d80a869	0.06282122
71	0x3e0ce91b	0.13760798
72	0xbdc9255e	-0.0982158
73	0xbdc1a1cc	-0.094546884
74	0x3d806ac5	0.06270365
75	0xbd8d0d0a	-0.06887253
76	0xbcc36364	-0.023851104
77	0xbddcae16	-0.10775392
78	0xbd77709b	-0.060410123
79	0x3e3a17de	0.18173167
80	0x3d053a4c	0.0325263
81	0xbe85c945	-0.2613012
82	0x3d370eab	0.044691723
83	0xbd9344f4	-0.07190886
84	0xbdf6a225	-0.12042645
85	0xbd83dbfa	-0.064384416
86	0xbd4e985b	-0.050438266
87	0x3e1a83f4	0.15089399
88	0xbd882388	-0.06647402
89	0xbdcb8792	-0.09937967
90	0xbda1bbd0	-0.078971505
91	0x3e13d0a7	0.14435063
92	0x3e21dae8	0.15806162
93	0xbdaaea61	-0.083454855
94	0xbce10dd9	-0.027472423
95	0xbdbc7e88	-0.092038214
96	0xbdd515c2	-0.104045406
97	0x3e34104d	0.17584343
98	0xbd324adc	-0.043528423
99	0x3e0f3039	0.13983239
100	0x3e83f5da	0.25773507
101	0x3e4902e9	0.19630016
102	0x3d9807a2	0.07423331
103	0xbe0b5098	-0.13604963
104	0x3d2a4c98	0.04157695
105	0x3dcef20d	0.10104761
106	0x3ded2ddf	0.11581015
107	0xbdc03996	-0.09385984
108	0xbdf6f755	-0.120588936
109	0x3d3c413a	0.045960642
110	0x3cdbb6fc	0.026820652
111	0xbd92f766	-0.07176094
112	0x3b974d88	0.0046173967
113	0xbdcb8f80	-0.0993948
114	0x3f0a23b9	0.5396076
115	0x3d099f5e	0.03359925
116	0x3e34e295	0.17664559
117	0x3e2d0223	0.16895346
118	0xbca7bb12	-0.020474944
119	0x3d430007	0.047607448
120	0x3e18d1ae	0.14923736
121	0x3e4be072	0.19909838
122	0x3e49c13e	0.19702622
123	0x3eb20948	0.34772706
124	0x3e683a3d	0.22678466
125	0x3cf31c3c	0.02967655
126	0x3d92c7b2	0.07166995
127	0x3d88d7a0	0.06681752

lstm.lstm_cell.bias_hh f4 [128]
0	0xbe55f75f	-0.20895146
1	0xbc40ee09	-0.011775502
2	0x3d3b201b	0.045684915
3	0xbd05de31	-0.0326826
4	0xbca5a2c7	-0.02021922
5	0x3cdf739a	0.027276803
6	0x3e387983	0.18015103
7	0xbe2f494c	-0.17117804
8	0x3c983acd	0.018582726
9	0xbc4ebc2d	-0.012618107
10	0xbe07ad80	-0.13249779
11	0xbdb0f266	-0.08639984
12	0x3d8f693d	0.070024945
13	0x3cc783ae	0.024354782
14	0x3d6d50fd	0.057938565
15	0x3e0b1c18	0.13584936
16	0xbbab0089	-0.0052185697
17	0x3d9b87cf	0.07594263
18	0x3df4803b	0.119385205
19	0x3e8442e3	0.2583228
20	0x3d054d9b	0.032544713
21	0x3e2d3758	0.16915643
22	0x3d72f193	0.059312414
23	0x3e60d898	0.21957624
24	0x3e08cb53	0.13358812
25	0x3e3998b4	0.18124658
26	0x3e672743	0.22573571
27	0x3eb5db4e	0.3551888
28	0xbd85740c	-0.06516275
29	0x3d57351e	0.05254089
30	0x3c90673e	0.017627355
31	0xbdd1d9e1	-0.10246635
32	0x3da29e13	0.079403065
33	0xbcb00129	-0.021484928
34	0x3c1ef7ee	0.009702666
35	0xbe43a4e1	-0.19105865
36	0x3e851e93	0.2599989
37	0x3e0f1568	0.1397301
38	0xbd81514e	-0.06314336
39	0xbcdd7f81	-0.027038338
40	0x3e7378ac	0.23776501
41	0x3e29ca0f	0.16580985
42	0xbab96400	-0.0014144182
43	0xbdc58231	-0.09643973
44	0xbd69bb13	-0.057063174
45	0x3e01f887	0.12692462
46	0x3b180e4b	0.0023201879
47	0xbd92ee64	-0.07174376
48	0xbd1dc249	-0.038515363
49	0x3e0aa27b	0.13538544
50	0x3ea18deb	0.31553587
51	0x3e82556c	0.25455797
52	0x3e478e85	0.1948796
53	0xbe07d73b	-0.13265698
54	0x3e8bec26	0.27328604
55	0x3e01e5a1	0.12685253
56	0x3e2a30a3	0.16620116
57	0x3e59aeae	0.21258041
58	0x3dcb2fa0	0.09921193
59	0xbd9e4a5e	-0.07729028
60	0xbda9e7b4	-0.08296147
61	0x3e27d000	0.1638794
62	0x3e692173	0.22766666
63	0x3d2171d0	0.03941518
64	0x3e25cc89	0.16191305
65	0x3df314fc	0.11869237
66	0x3d48a227	0.048982766
67	0x3e09ac17	0.13444553
68	0x3d456c7f	0.048199173
69	0xbd50bf4b	-0.05096368
70	0x3dce6314	0.100774914
71	0xbdceab6a	-0.100912884
72	0xbd506a46	-0.0508826
73	0xbdffa082	-0.12481786
74	0xbd241710	-0.040061057
75	0x3e329932	0.17441252
76	0xbdd96a5a	-0.10615988
77	0x3dcb50ac	0.09927496
78	0x3da77aeb	0.081777416
79	0x3dc218fa	0.0947742
80	0xbcfd2560	-0.03090161
81	0x3d2d816b	0.04235975
82	0x3d053a54	0.03252633
83	0x3e24aba4	0.160811
84	0xbe3ddd7f	-0.18541525
85	0xbd102232	-0.03518886
86	0xbda76365	-0.08173255
87	0x3e2e0119	0.16992606
88	0x3d1e4d6c	0.038648054
89	0x3d7e6f91	0.062118117
90	0x3df800de	0.121095404
91	0xbe2efdc9	-0.17088999
92	0xbdedd96d	-0.11613736
93	0xbe250e67	-0.16118775
94	0x3c361d3d	0.011115369
95	0x3da7af55	0.08187739
96	0xbe88bafe	-0.26705164
97	0x3e576ec3	0.21038346
98	0xbde58af6	-0.11208145
99	0x3d89494d	0.06703434
100	0x3c46d4f9	0.012135738
101	0x3e70489f	0.23465203
102	0x3e666168	0.22498095
103	0x3c57f119	0.013180041
104	0xbdc9053d	-0.09815452
105	0xbd9198bb	-0.07109209
106	0x3c07bf13	0.008285302
107	0x3be9ee3e	0.0071389964
108	0x3de4851c	0.11158201
109	0x3e3ebc7c	0.18626589
110	0x3d03679a	0.032081224
111	0xbe11fe63	-0.14257197
112	0xbe0b2b18	-0.13590658
113	0xbd51e9a7	-0.05124822
114	0x3e87ee3d	0.2654895
115	0x3e6b3fd3	0.22973566
116	0x3ea5f984	0.32416928
117	0x3e19f9ba	0.1503667
118	0x3e2bb8ed	0.16769762
119	0x3d92c642	0.07166721
120	0x3dcee985	0.10103134
121	0x3e9a3431	0.30117944
122	0x3eaac084	0.33350003
123	0x3e97b49c	0.29629982
124	0xbdf5b00e	-0.119964704
125	0xbc86a4f0	-0.01643607
126	0x3bfac443	0.0076527908
127	0x3cc24a47	0.023717059

mlp.0.weight f4 [16, 32]
0	0x3e6725a6	0.22572955
1	0xbe6607fe	-0.22463986
2	0x3ddba8b1	0.10725535
3	0x3dd26908	0.10273939
4	0x3dd6ae02	0.10482408
5	0xbcacd7b9	-0.021098958
6	0x3eb383bd	0.35061446
7	0xbd4e13f0	-0.050311983
8	0xbe9ffee0	-0.31249142
9	0xbb998223	-0.004684703
10	0x3d96d300	0.07364464
11	0x3c407051	0.011745528
12	0xbdc54e39	-0.096340604
13	0xbe162e43	-0.14666085
14	0xbd664b9d	-0.056224454
15	0xbe2c43c6	-0.16822729
16	0xbd585a8a	-0.05282072
17	0xbe5a451c	-0.21315426
18	0x3e39e4bd	0.18153663
19	0x3e4f224f	0.20227931
20	0xbdd6f473	-0.10495844
21	0x3c6917db	0.014226879
22	0x3e1855e8	0.1487652
23	0x3d6716f8	0.05641839
24	0xbe68c837	-0.22732626
25	0xbdcd74ac	-0.10032019
26	0x3e94c995	0.29060045
27	0x3e1f4f4d	0.15557595
28	0x3e57084d	0.2099926
29	0xbe9e296c	-0.30890977
30	0x3d1e5db6	0.03866359
31	0x3d060ab0	0.032725036
32	0xbda6b23c	-0.08139464
33	0x3ddf9761	0.10917545
34	0xbe02793b	-0.12741558
35	0xbca10795	-0.019656936
36	0x3d92d699	0.071698375
37	0x3e7b9352	0.24567917
38	0xbe9e2cc2	-0.30893523
39	0xbe84470b	-0.2583545
40	0xbdb36a75	-0.087605394
41	0xbdc8778d	-0.097884275
42	0xbcb07f24	-0.021545
43	0x3d05d1cd	0.032670785
44	0x3ba52cce	0.0050407415
45	0xbe00c1f9	-0.12573995
46	0xbe8c0734	-0.27349246
47	0x3da577de	0.080795035
48	0x3e6e5486	0.2327443
49	0xbddfb14e	-0.1092249
50	0xbe0d2796	-0.13784632
51	0xbea9f3d1	-0.3319383
52	0x3e20aed0	0.15691686
53	0xbe57e662	-0.21083978
54	0xbe16762a	-0.14693514
55	0xbe98bdfc	-0.29832447
56	0x3eac2937	0.33625194
57	0xbe2fd288	-0.17170155
58	0xbe87e456	-0.26541394
59	0xbebc3b69	-0.36764076
60	0x3e58ec7f	0.21183966
61	0x3e6fc0de	0.23413417
62	0xbd8b6dbc	-0.068080395
63	0xbe5c6f1c	-0.2152676
64	0x3e3a0c37	0.18168722
65	0xbe8cf0ed	-0.27527562
66	0x3e498f38	0.1968354
67	0xbe115003	-0.14190678
68	0x3e4d1634	0.20028001
69	0xbe431aac	-0.19053143
70	0x3e775811	0.24154688
71	0x3c82d96a	0.015972812
72	0xbe5d1f61	-0.21594001
73	0xbe76cf12	-0.24102429
74	0xbe11206f	-0.14172529
75	0x3cd6df56	0.026229542
76	0xbe08ff9f	-0.13378762
77	0x3d9ca0bf	0.076478474
78	0xbb7a75fd	-0.00382173
79	0xbbfccf2b	-0.007715126
80	0xbe1151dc	-0.14191383
81	0xbe750db0	-0.23931003
82	0x3eb31cb5	0.3498284
83	0x3e947ede	0.29003042
84	0xbe21be82	-0.15795329
85	0x3e381c30	0.17979503
86	0xbd3b50c5	-0.045731325
87	0xbc6eb082	-0.01456845
88	0xbd6d6227	-0.057954933
89	0xbe4a62f3	-0.19764309
90	0x3deb72b4	0.11496487
91	0x3e5282b8	0.20557678
92	0x3d417304	0.047228828
93	0xbdae6144	-0.08514646
94	0x3e897cd9	0.26853064
95	0xbda78698	-0.081799686
96	0x3d49d7ab	0.049277943
97	0xbe917560	-0.28409863
98	0xbe43b851	-0.1911328
99	0x39aa8461	0.00032523557
100	0x3cd4bc05	0.025968561
101	0xbe9583da	-0.29202157
102	0xbd951800	-0.07279968
103	0x3d91fd19	0.07128353
104	0xbe023ff9	-0.12719716
105	0xbd3cc402	-0.046085365
106	0x3df30622	0.11866404
107	0xbdf84f7c	-0.121245354
108	0xbd21e456	-0.0395244
109	0x3e7d9f94	0.24767905
110	0xbe150b92	-0.14555195
111	0xbe28da82	-0.16489604
112	0xbe1007a4	-0.14065415
113	0xbe4adb73	-0.19810276
114	0x3dfc7ad3	0.12328114
115	0x3e6b3fc9	0.22973551
116	0xbd3a8c13	-0.04554374
117	0x3d5ce167	0.053925898
118	0xbd9e5a62	-0.07732083
119	0x3e01abc8	0.12663186
120	0xbe34478a	-0.17605415
121	0x3e3c1c50	0.18370175
122	0x3ed95d4f	0.42454
123	0x3e467826	0.1938177
124	0x3e8026fe	0.2502975
125	0x3e280ea4	0.16411835
126	0x3de9ddcb	0.11419257
127	0xbaa691c2	-0.0012708234
128	0x3d9b292e	0.07576214
129	0x3e5599f0	0.20859504
130	0x3e48f6fd	0.19625469
131	0xbc5715bc	-0.0131277405
132	0x3e2d2a0d	0.16910572
133	0x3d39a13e	0.04531979
134	0xbe7ea75c	-0.2486853
135	0xbe5f396a	-0.21799245
136	0x3c253168	0.01008258
137	0x3e77a97a	0.24185744
138	0xbe59bfb9	-0.21264543
139	0x3c880fb3	0.016609048
140	0xbe023c53	-0.12718324
141	0xbd1e9e2c	-0.038725063
142	0x3e1f1c4d	0.1553814
143	0x3ead0214	0.33790648
144	0x3d9cfcd8	0.076654136
145	0xbdbf1d29	-0.09331734
146	0xbeca7276	-0.39540452
147	0xbeb7e053	-0.35913333
148	0x3e2d3981	0.16916467
149	0x3dc0758d	0.09397421
150	0xbde96782	-0.11396696
151	0xbe885b11	-0.26631978
152	0x3f05b0fa	0.5222317
153	0xbe549758	-0.20760858
154	0xbe35f824	-0.1777044
155	0xbeecfaf8	-0.46285224
156	0x3ba51719	0.005038154
157	0x3dac0292	0.08398928
158	0xbe86c878	-0.2632482
159	0xbe359b32	-0.17734984
160	0x3e4bbebb	0.19896977
161	0xbe2147eb	-0.15750091
162	0x3e2d92cb	0.16950528
163	0xbdea1e57	-0.11431568
164	0x3e1f7d7d	0.15575214
165	0xbe0de96c	-0.13858575
166	0x3e8c8bf1	0.27450517
167	0x3dfc56ec	0.123212665
168	0xbe7aaf47	-0.24480926
169	0xbe3fe986	-0.18741426
170	0xbd266ad9	-0.04062924
171	0x3e7a07ab	0.24416988
172	0xbe5239f1	-0.20529915
173	0x3c9f168c	0.01941993
174	0x3e25347b	0.16133301
175	0xbe15b3a8	-0.14619315
176	0xbc327f1e	-0.010894565
177	0xbe19d081	-0.15020944
178	0x3efd3cc8	0.49460435
179	0x3e9389ca	0.28816062
180	0xbe2446d9	-0.16042651
181	0x3d0fbc3b	0.03509162
182	0x3e383d3e	0.17992112
183	0x3e44cd78	0.19219005
184	0x3dda25e4	0.10651758
185	0xbdc34c7f	-0.09536075
186	0x3debc4a7	0.11512118
187	0x3e8538ab	0.26019797
188	0x3e643eeb	0.22289626
189	0xbe4eaa8e	-0.20182249
190	0x3e59d19c	0.21271366
191	0x3e0e8fd3	0.13922052
192	0x3d9ce4e3	0.07660844
193	0xbe2a7d01	-0.16649248
194	0xbe1507df	-0.14553784
195	0xbe314340	-0.1731081
196	0x3e921667	0.28532717
197	0xbddc4bda	-0.10756655
198	0x3e981129	0.29700592
199	0x3e1356c5	0.14388569
200	0xbe624c08	-0.22099316
201	0x3ccad3be	0.02475917
202	0xbd1cba58	-0.03826365
203	0xbd71c225	-0.05902304
204	0xbca78aa3	-0.02045185
205	0x3e4536a8	0.19259131
206	0xbdae423f	-0.08508729
207	0x3e566c69	0.20939793
208	0xbda69edf	-0.08135771
209	0xbeded489	-0.43521526
210	0x3eef0dde	0.46690267
211	0x3eb9d11d	0.36292353
212	0xbe908cc4	-0.28232396
213	0x3e30e270	0.17273879
214	0xbc7e72e9	-0.015530326
215	0x3d580399	0.052737806
216	0xbd3c32db	-0.045946937
217	0x3e09621a	0.13416329
218	0x3e94e3e4	0.29080117
219	0x3e9ee87c	0.31036747
220	0xbaf3d5d8	-0.0018603159
221	0xbda17f00	-0.078855515
222	0x3d81e330	0.06342161
223	0x3e25cd57	0.16191612
224	0x3da55738	0.08073276
225	0x3e7ff934	0.24997407
226	0xbe9a38cc	-0.30121458
227	0xbcf614d1	-0.030039223
228	0x3e1d2ce8	0.15349162
229	0x3e79e95d	0.24405427
230	0xbe29408a	-0.16528526
231	0xbe2b541f	-0.16731308
232	0x3e379ad1	0.17930152
233	0x3e1bf894	0.15231544
234	0xbd688ff0	-0.056777894
235	0x3e949426	0.29019278
236	0xbd4745b1	-0.048650447
237	0xbe7e2e47	-0.24822341
238	0xbd87599f	-0.06608891
239	0x3cfc5617	0.03080277
240	0x3df0e99c	0.117633075
241	0xbe1df955	-0.15427144
242	0xbee158a0	-0.44012928
243	0xbe8f87b4	-0.2803322
244	0x3e520951	0.20511366
245	0xbd8194d8	-0.06327218
246	0xbe801f6d	-0.25023976
247	0x3da48fd7	0.08035248
248	0xbe1357d4	-0.14388973
249	0xbda30137	-0.07959216
250	0xbe8302e3	-0.2558814
251	0xbe0ebb46	-0.13938627
252	0xbe078042	-0.1323252
253	0x3e7ebbea	0.24876371
254	0xbe9366b6	-0.287893
255	0x3dd11f73	0.102110766

mlp.0.bias f4 [16]
0	0x3e70d9b9	0.23520555
1	0x3e2b5a4a	0.16733661
2	0x3e7a2537	0.24428259
3	0x3d04f747	0.032462385
4	0x3d176a7a	0.03696678
5	0x3e51f35e	0.20502993
6	0x3e0c0ede	0.13677546
7	0x3e2173fa	0.15766898
8	0xbdc0978e	-0.09403907
9	0xbbe46f7d	-0.0069712983
10	0x3d970e4a	0.07375772
11	0x3e7d85ce	0.24758074
12	0x3e4a12cc	0.19733733
13	0xbe39e7c6	-0.18154821
14	0x3eb46882	0.35235983
15	0x3b8bd7e2	0.0042676786

mlp.3.weight f4 [2, 16]
0	0x3d079852	0.03310425
1	0xbdc57fa7	-0.096434884
2	0x3ecb6b48	0.39730287
3	0x3ec652db	0.3873509
4	0xbf119cbf	-0.568798
5	0x3e3fecd6	0.1874269
6	0x3ec86a99	0.39143828
7	0xbe8c7d04	-0.2743913
8	0xbf009b8a	-0.50237334
9	0xbe6e8eab	-0.23296611
10	0x3ec42283	0.3830758
11	0xbe8dbd2e	-0.27683395
12	0x3ea237bc	0.31683147
13	0xbe160073	-0.14648609
14	0x3e0e4358	0.13892877
15	0xbe9f07c3	-0.3106061
16	0xbea662e7	-0.32497332
17	0x3ecce220	0.4001627
18	0xbec37169	-0.38172463
19	0xbe9fd5ea	-0.3121789
20	0x3ee6d675	0.45085493
21	0xbeec3160	-0.4613142
22	0xbeae284a	-0.34015113
23	0x3ebab053	0.3646265
24	0x3ee9f002	0.45690924
25	0x3e3d4d68	0.1848656
26	0xbec4c609	-0.3843234
27	0x3e5eeed8	0.21770799
28	0xbd8b1344	-0.06790784
29	0x3dab2798	0.08357161
30	0xbec713d6	-0.3888232
31	0x3e5e0492	0.21681431

mlp.3.bias f4 [2]
0	0x3e3bac75	0.18327506
1	0x3e67edbe	0.22649285

weight f4 [15, 30]
0	0xbf4514ed	-0.76985055
1	0x3f261f91	0.64891917
2	0xbee768b1	-0.4519706
3	0x3f65cd66	0.8976654
4	0x3ec3aad5	0.38216272
5	0xbf22be9d	-0.635721
6	0xbf26fbfd	-0.65228254
7	0x3e4cb608	0.19991314
8	0xbee9032e	-0.45510238
9	0x3f397081	0.7243729
10	0xbf738d99	-0.95137936
11	0x3ed6c28a	0.41945297
12	0xc0224ad3	-2.535817
13	0xbeade714	-0.3396536
14	0x3d7582f5	0.059939343
15	0x40087fd5	2.1328022
16	0xbf33d186	-0.7024158
17	0x3f31a662	0.69394505
18	0x3f7011db	0.93777245
19	0x3edc8e18	0.4307716
20	0x3fa2d046	1.271981
21	0xbe1f180c	-0.15536517
22	0xbf5d5fac	-0.8647411
23	0xbf15768d	-0.5838402
24	0xbe0f5a94	-0.13999397
25	0x3df6e1d0	0.12054789
26	0xbf446052	-0.76709473
27	0xbf343900	-0.70399475
28	0xbf383f52	-0.7197162
29	0x3f1e6a31	0.61880785
30	0x3ed78b3e	0.4209842
31	0x3e2a1f42	0.16613486
32	0xbf588576	-0.84578645
33	0x3fa3ec04	1.2806401
34	0xbed5c577	-0.41752216
35	0x3daf50e9	0.08560354
36	0xbe547945	-0.20749386
37	0xbea3c8f4	-0.31989253
38	0x3f89e70b	1.0773634
39	0xbfb97ed0	-1.4491825
40	0xbe296950	-0.1654408
41	0x3f555768	0.83336496
42	0x3f95858a	1.1681378
43	0xbf54e560	-0.831625
44	0x3f85c544	1.0450826
45	0xbeadeb16	-0.3396842
46	0x3f9ab1fc	1.2085567
47	0x3f4d7857	0.8026175
48	0xbe81aae9	-0.25325707
49	0xbdec3076	-0.11532681
50	0xbd6294d1	-0.055317704
51	0xbf7d12d0	-0.9885683
52	0x3fa42ad5	1.2825571
53	0xc00ebfdf	-2.230461
54	0x3e9d8c9c	0.3077134
55	0xbfca0b8e	-1.5784776
56	0xbf06f363	-0.5271513
57	0x3ee49bba	0.4465006
58	0xbf1e7255	-0.61893207
59	0x3e80ff82	0.25194937
60	0x3ffdef34	1.9838624
61	0x3f8e2482	1.1104891
62	0xbfc63f5c	-1.5488086
63	0x3f315ece	0.69285285
64	0x3e3998c4	0.18124682
65	0xbf790121	-0.9726735
66	0x3f7dbf1d	0.9911974
67	0xbdd827e9	-0.10554487
68	0xbf55f0a7	-0.8357033
69	0x3f9e26e4	1.2355618
70	0xbeb0bf52	-0.34520966
71	0xbf43517f	-0.7629623
72	0xbfa651e5	-1.2993742
73	0xbf84b89e	-1.0368841
74	0xbf8ef278	-1.1167746
75	0xbee66b5c	-0.45003784
76	0x3e348d67	0.17632066
77	0xbf8ab250	-1.0835667
78	0x3ff5e1a1	1.9209481
79	0x3ea4f7f0	0.3222041
80	0xbf758ccd	-0.9591797
81	0x3f5f78de	0.87293804
82	0xbe7d6596	-0.24745783
83	0xbecb0bfc	-0.3965758
84	0xbff42367	-1.9073304
85	0x4002943b	2.0402973
86	0xbfc892bb	-1.5669779
87	0xbfbba0d1	-1.4658452
88	0xbf80b963	-1.0056576
89	0x3fc19a66	1.5125244
90	0xbe995ad7	-0.29952118
91	0x3f7267c4	0.94689584
92	0xbf54252d	-0.82869226
93	0x3fbb1dbe	1.4618452
94	0xbf1cba8b	-0.6122214
95	0x3f4c94a1	0.7991429
96	0x3f9a47ab	1.2053121
97	0xbeec173c	-0.46111476
98	0x3f813421	1.0094033
99	0x3fb1c2f3	1.3887619
100	0xbf859716	-1.0436733
101	0xbfdb1fed	-1.7119118
102	0x3e85e4aa	0.2615102
103	0xbf484980	-0.7823715
104	0x3f6d91e3	0.9280073
105	0x3e28945f	0.16462849
106	0xbf591294	-0.8479397
107	0xbec74197	-0.3891723
108	0x3fa97732	1.32395
109	0xbf66912d	-0.9006527
110	0x3f87da58	1.0613508
111	0x3ee97f3f	0.45604894
112	0x3f18504c	0.59497523
113	0x3f7066e0	0.93906975
114	0x3e754c0d	0.23954792
115	0xbf703a86	-0.938393
116	0xbfb5bd74	-1.4198442
117	0xbf9aaa43	-1.208321
118	0x3f0070d5	0.5017217
119	0x3d0e2cb5	0.034710605
120	0xbce3180b	-0.027721426
121	0x3c0bf7cc	0.008542966
122	0x3e6de9b0	0.23233676
123	0x3f4a620a	0.79055846
124	0xbf87c078	-1.0605612
125	0xbf6234eb	-0.88361996
126	0x3eb3089c	0.34967506
127	0xbfd10247	-1.632882
128	0x3fb9c6d3	1.4513801
129	0xbef787bf	-0.48345754
130	0xbe64092d	-0.22269125
131	0xbed0aef9	-0.40758494
132	0x3ed99b75	0.42501417
133	0x3e864818	0.26226878
134	0x3f14118e	0.57839286
135	0x3ee752f2	0.4518047
136	0xbebf79dd	-0.37397662
137	0xbfaa0a42	-1.328438
138	0x3fad7fb5	1.3554598
139	0xbff8908e	-1.9419115
140	0xbf0eb066	-0.5573791
141	0x3f39d82e	0.7259549
142	0x3f0a0d32	0.53926384
143	0x402b78a9	2.6792395
144	0xbf211fd2	-0.6293918
145	0xbf6beded	-0.9215992
146	0xbdf45278	-0.11929792
147	0x3d3f3c69	0.04668847
148	0xc01680b4	-2.3516054
149	0x3f3d6b37	0.7399172
150	0x3ec07788	0.37591195
151	0x3e81cabb	0.25349984
152	0x3f103578	0.56331587
153	0xbe668bab	-0.22514217
154	0xbdc4a697	-0.09602087
155	0xbf4b7b66	-0.79485166
156	0x3f6a4dd1	0.9152499
157	0x3f7a5de8	0.9779954
158	0xbf9005f4	-1.1251817
159	0x3f462ef6	0.77415407
160	0x3ed99ca3	0.42502317
161	0xbea87099	-0.32898405
162	0x3f14070e	0.57823265
163	0xc00170c6	-2.0225081
164	0x3f9d7c89	1.230363
165	0xbd53048c	-0.051518008
166	0xbf5fb9de	-0.87392986
167	0x3e9b613c	0.3034762
168	0xbf82f3f8	-1.0230703
169	0xbf1de56e	-0.61678207
170	0xbf5fa1ff	-0.8735656
171	0x3e2ddbd4	0.16978389
172	0xbf851bbc	-1.0399089
173	0xbf868bd3	-1.0511421
174	0x3f20dc7e	0.62836444
175	0x3f0aaea4	0.5417273
176	0x3f82c23f	1.0215529
177	0x3d7663d1	0.060153786
178	0x3db59d0d	0.08867846
179	0xbf730b6a	-0.9493929
180	0xc0371efd	-2.8612664
181	0x3f0eac7d	0.55731946
182	0xbf571b3f	-0.8402595
183	0x3fd13bdb	1.6346391
184	0x3f0553ca	0.52080977
185	0x3fc39b14	1.5281701
186	0x3fa30a9e	1.2737615
187	0x3f442d45	0.76631576
188	0xbe8d9cc6	-0.2765867
189	0xbee23c36	-0.44186562
190	0xbf716077	-0.9428782
191	0x3fc50f1f	1.539524
192	0xbedad804	-0.42742932
193	0xbf6193ba	-0.8811604
194	0xbf347815	-0.7049573
195	0xbf0dc45f	-0.55377764
196	0xbfe86b21	-1.8157693
197	0x3f495a1e	0.7865313
198	0xbf03bf27	-0.5146355
199	0xbf85079c	-1.0392947
200	0xc013a395	-2.3068593
201	0xbf935497	-1.151019
202	0x3c8e92ec	0.017404042
203	0x3fd3672a	1.6515858
204	0x3e12a4b7	0.14320646
205	0xbf73872f	-0.9512815
206	0xbff15914	-1.885531
207	0x3fbb3458	1.4625349
208	0x3e339b78	0.17539775
209	0x3f86e726	1.0539291
210	0x405360a6	3.302774
211	0x3f37376e	0.71568954
212	0x3f837d60	1.0272636
213	0x3f516014	0.8178723
214	0xbf59ef73	-0.85130996
215	0x3edc31b4	0.4300667
216	0x3f5e35d5	0.8680089
217	0x3f1db105	0.61598235
218	0xbe219e0e	-0.1578295
219	0xbf463a1c	-0.7743242
220	0x3e86c826	0.26324576
221	0x3ef98122	0.48731333
222	0xbfada61f	-1.3566321
223	0xbfa95b58	-1.3231001
224	0xbf922df2	-1.1420271
225	0x3ecb2cf7	0.39682743
226	0x3f787585	0.9705432
227	0x3f91560c	1.1354384
228	0x3f847ff9	1.0351554
229	0x3f9222f5	1.1416918
230	0x3f1dd69a	0.6165558
231	0xbe9acb8b	-0.30233416
232	0x3f93963f	1.1530226
233	0x3f38392f	0.71962255
234	0x3fac6347	1.3467797
235	0xbe8b97fb	-0.2726439
236	0xbec83654	-0.3910395
237	0x3ee17b5d	0.4403943
238	0x40037d67	2.054529
239	0xbf485833	-0.7825958
240	0xbe763973	-0.24045353
241	0x3f715134	0.9426453
242	0x3f93040c	1.148561
243	0x3fb7e528	1.4366808
244	0xbf954b9c	-1.1663699
245	0xbf83d8c6	-1.0300529
246	0xbe3a7f91	-0.18212725
247	0x3db74be2	0.089500204
248	0x3fc39476	1.5279682
249	0x3faed1cc	1.3657775
250	0xbf9c79ef	-1.2224711
251	0xbfa4f8fe	-1.2888486
252	0xbe9358d2	-0.28778702
253	0xbf56b24e	-0.8386582
254	0xbf8d2d53	-1.1029457
255	0xbe7f8e30	-0.24956584

weight_ih f4 [128, 30]
0	0x3e089c84	0.13340956
1	0x3e4a58c9	0.19760431
2	0xbbf44edd	-0.0074556903
3	0xbdf15f0b	-0.11785706
4	0xbd2044a6	-0.03912797
5	0xbd5c3da9	-0.05376974
6	0xbc9c2a1b	-0.019063046
7	0xbe2772a5	-0.16352327
8	0xbd1bfa29	-0.03808037
9	0xbe9dcb1c	-0.30819023
10	0x3e19eb20	0.150311
11	0x3dfb589a	0.12272759
12	0xbd8f5fda	-0.07000704
13	0x3e971fc2	0.29516417
14	0x3e398cbc	0.18120092
15	0xbe210760	-0.1572547
16	0x3eb1bcd3	0.34714374
17	0xbe1598eb	-0.14609115
18	0xbc00e40f	-0.007866873
19	0x3dc0fae2	0.09422852
20	0xbd489968	-0.048974425
21	0x3e88bf48	0.26708436
22	0x3ea3fd4a	0.32029182
23	0xbc72813f	-0.0148013225
24	0x3d69fd84	0.057126537
25	0x3de31a1a	0.11088963
26	0x3e515209	0.2044145
27	0xbe41649b	-0.18886034
28	0x3e429604	0.19002539
29	0xbb874fc9	-0.004129384
30	0x3d8b29c2	0.06795074
31	0x3e0daeef	0.13836263
32	0xbccaf172	-0.024773333
33	0x3e0804bf	0.1328306
34	0xbe5e2cf6	-0.21696839
35	0xbe742885	-0.23843582
36	0x3e00b035	0.12567218
37	0x3deacf72	0.11465348
38	0x3d0d46b4	0.034491256
39	0x3d866d1b	0.06563779
40	0x3db6f498	0.08933371
41	0x3d0673af	0.03282517
42	0xbe7ea166	-0.24866256
43	0x3d2b22be	0.04178118
44	0xbd028d0a	-0.031872787
45	0x3e313438	0.17305076
46	0x3e18768c	0.14888972
47	0xbe0a04b6	-0.1347836
48	0x3e572999	0.21011962
49	0x3e1ca80a	0.15298477
50	0xbda85aa3	-0.082204126
51	0x3dec1f87	0.11529451
52	0x3daf779a	0.08567734
53	0xbd89f1cd	-0.06735573
54	0xbd383c7f	-0.04497957
55	0xbc739da5	-0.014869128
56	0xbe1dd145	-0.15411861
57	0xbe4ad1f0	-0.19806647
58	0xbe245c43	-0.1605082
59	0xbd1aeb2e	-0.03782194
60	0x3e9d7ea9	0.30760697
61	0xbdce9102	-0.10086252
62	0x3e125d61	0.14293434
63	0xbe47164e	-0.19442102
64	0xbe54541f	-0.20735215
65	0xbd975c53	-0.07390656
66	0xbe56f88f	-0.20993255
67	0x3d4eca66	0.05048599
68	0xbd28ab48	-0.04117897
69	0xbe95e51f	-0.29276368
70	0x3da8d372	0.08243455
71	0x3e0edfb7	0.13952528
72	0x3e3bf014	0.18353301
73	0x3e06f101	0.13177873
74	0x3aff47f6	0.0019476402
75	0x3c931c3c	0.0179578
76	0x3e1ed665	0.15511473
77	0x3d8782e0	0.06616759
78	0x3d212c83	0.03934909
79	0xbd98bc88	-0.074578345
80	0xbd6587bb	-0.056037646
81	0x3d5e82ae	0.054323845
82	0xbd3f10b7	-0.0466468
83	0xbe48ec02	-0.1962128
84	0x3e845fe6	0.25854415
85	0xbea28ec0	-0.31749535
86	0x3e9d3597	0.30704948
87	0x3d806dd2	0.062709466
88	0x3dbaa14b	0.091127954
89	0xbdd77b8a	-0.1052161
90	0x3e2e26c0	0.1700697
91	0x3e2520d9	0.16125812
92	0xbc2b69ba	-0.010462219
93	0xbe2d8ae2	-0.16947511
94	0x3ec2b18d	0.38026085
95	0x3cf22b14	0.029561557
96	0xbe070a7d	-0.13187595
97	0xbe1b8f4d	-0.15191384
98	0xbc54fa36	-0.012999108
99	0xbd925af0	-0.07146251
100	0x3d3ceb80	0.046123028
101	0xbe5bec23	-0.21476798
102	0xbdfe76d8	-0.124250114
103	0xbd791836	-0.060814105
104	0x3caedc87	0.02134539
105	0xbd64c4bb	-0.05585168
106	0x3d726db3	0.05918665
107	0x3de7d687	0.11320215
108	0x3e305729	0.17220749
109	0xbc945c3a	-0.018110383
110	0xbdc7eb44	-0.0976167
111	0x3e47f999	0.19528808
112	0x3db7d69e	0.08976482
113	0x3de52891	0.11189378
114	0x3d51cf69	0.051223192
115	0xbd943288	-0.072362006
116	0x3cecfd83	0.028929478
117	0x3ce17740	0.027522683
118	0x3e2d9f04	0.16955191
119	0xbe0ff0a4	-0.14056641
120	0x3d7f7525	0.062367577
121	0xbe68e5be	-0.2274389
122	0xbe037865	-0.12838896
123	0xbdcda696	-0.10041539
124	0x3de3ec48	0.111290514
125	0xbe04d35f	-0.12971257
126	0xbdfbc435	-0.12293283
127	0x3daf36e0	0.085553885
128	0x3d54a9bf	0.051919695
129	0x3d5720a9	0.05252138
130	0x3e7a4170	0.24439025
131	0xbd3cbbb5	-0.04607745
132	0xbe250165	-0.16113813
133	0x3df2297f	0.11824321
134	0x3e1a9ba6	0.15098438
135	0xbe293a6e	-0.16526195
136	0x3e2d658e	0.16933271
137	0x3e30190a	0.17197052
138	0xbe492ea4	-0.19646698
139	0xbd2c58e7	-0.04207697
140	0xbe79fc4a	-0.24412647
141	0x3e7535aa	0.23946252
142	0x3dec1b0c	0.11528596
143	0xbe2fde1b	-0.1717457
144	0xbc0a8e23	-0.00845674
145	0x3e8a761e	0.2704324
146	0xbe685500	-0.22688675
147	0xbde93bcb	-0.11388358
148	0xbdd531a9	-0.104098625
149	0xbe0798ef	-0.13241933
150	0x3e007c10	0.12547326
151	0x3dec30a9	0.11532719
152	0x3dd92a8a	0.10603817
153	0x3d944d59	0.072413154
154	0xbcaf5ec3	-0.02140749
155	0xbe21acd6	-0.15788588
156	0x3e1e4cfd	0.15459056
157	0x3d0c8eff	0.03431606
158	0x3e5ca114	0.21545821
159	0x3e14410d	0.1447794
160	0xbd709b67	-0.058741953
161	0xbd448e3d	-0.04798721
162	0xbe2811ea	-0.16413084
163	0xbe2903bf	-0.16505335
164	0xbdb4e975	-0.08833591
165	0xba5e9b2f	-0.0008491752
166	0x3c8deac6	0.017323863
167	0x3e095626	0.1341177
168	0x3dbd52f3	0.09244337
169	0x3b4caecf	0.0031232124
170	0xbe3cfd40	-0.18455982
171	0x3d245368	0.040118605
172	0x3d557a2e	0.052118473
173	0xbe000898	-0.12503278
174	0x3ce74d8a	0.028235216
175	0xbe3b83c4	-0.18311983
176	0xbe7dae67	-0.2477356
177	0xbdc0cae7	-0.094137006
178	0xbca146e2	-0.01968712
179	0x3dcd9627	0.10038405
180	0xbe24c951	-0.16092421
181	0xbd362a2b	-0.04447381
182	0x3d8bb868	0.06822282
183	0xbe1007bd	-0.14065452
184	0x3e4498cd	0.19198914
185	0xbe109345	-0.14118679
186	0x3d80a639	0.062817045
187	0x3c19a816	0.009378454
188	0xbe5dc75a	-0.21658078
189	0x3e1600a4	0.14648682
190	0x3df230a9	0.118256874
191	0xbd2bf0c9	-0.041977677
192	0x3dccf297	0.10007208
193	0x3e578063	0.2104507
194	0xbdc65725	-0.0968459
195	0xbdadfacc	-0.08495101
196	0xbe252f25	-0.16131265
197	0x3d072ae7	0.0329999
198	0x3d8a217b	0.06744667
199	0x3d1644e5	0.036686797
200	0x3b11986f	0.0022216102
201	0x3eb2ebe3	0.34945592
202	0xbd28f04e	-0.041244797
203	0xbc457883	-0.012052658
204	0xbeacb8a2	-0.33734614
205	0x3e961a40	0.29316902
206	0xbda9a762	-0.08283879
207	0xbe8d2c19	-0.27572706
208	0x3d9bf9de	0.07616018
209	0xbe2bfd09	-0.16795744
210	0x3d45dfd5	0.048309166
211	0x3e0c4160	0.13696814
212	0xbe255666	-0.1614624
213	0xbde09863	-0.109665655
214	0x3e50733a	0.20356455
215	0x3cc384c0	0.023867011
216	0xbde39365	-0.11112098
217	0x3dd1dbdb	0.10247012
218	0xbd0cbf80	-0.034362316
219	0xbdb2829a	-0.087163165
220	0xbdc39b50	-0.09551108
221	0xbe34591c	-0.17612118
222	0x3c8ad8cf	0.016949086
223	0x3c8e27b3	0.017352914
224	0xbc900317	-0.017579598
225	0x3e0cea33	0.13761215
226	0xbe288802	-0.16458133
227	0xbe3d3728	-0.18478072
228	0x3dcc0106	0.09961133
229	0xbe6133b1	-0.21992375
230	0x3e61df5d	0.22057863
231	0x3d83ea8c	0.06441221
232	0xbe132d0d	-0.14372654
233	0xbd61e948	-0.055154115
234	0x3dd6806c	0.10473713
235	0x3e849d97	0.25901482
236	0x3d69fa18	0.057123274
237	0xbe99b97c	-0.30024326
238	0x3ce7a91b	0.028278878
239	0xbe4f161e	-0.20223281
240	0x3dc79bb4	0.09746495
241	0xbe9c2b55	-0.3050181
242	0xbdf596cd	-0.119916536
243	0xbd44b0f2	-0.04802031
244	0x3e0a9932	0.13535002
245	0xbe86a8f1	-0.26300767
246	0x3d7a5a73	0.061121415
247	0xbb11a91c	-0.0022226041
248	0xbe207f25	-0.15673502
249	0xbe00c5d9	-0.12575473
250	0x3e8a4d7b	0.27012238
251	0x3e183479	0.14863767
252	0x3aa835f5	0.0012833463
253	0xbc2e38ff	-0.010633706
254	0x3d6c0abd	0.05762743
255	0x3cdb417b	0.026764622
