assignment_3/outputs/models/pos_neg_examples.pth (torch, 47612 bytes, 20 tensors)

embedding.weight f4 [15, 20]
1.9393907 1.4899842 0.8863612 -2.1286983 0.6762173 -1.2425237 -0.037757814 -1.6190388
-0.74553704 1.6415255 -0.39308617 -1.4255562 -0.7321587 -0.59005654 -0.77409625 0.73124284
1.6439177 -0.16554564 -0.47990736 0.42709163 -0.7466936 1.0593469 0.8229485 1.6978686
1.298592 1.2816012 0.5828271 1.3399034 -0.24139951 0.08127155 -0.27457687 0.86152977
-1.3796802 -0.8652473 -0.24038659 1.6998931 0.3301735 -0.41670024 0.2672924 -0.7450588
-1.5752199 1.0037355 -0.87449443 -0.5944222 -1.290372 2.1329248 -1.1965709 -0.46014208
-0.9066563 -0.65393054 0.06861204 0.49878532 -0.47138065 1.1982118 -0.7943461 -0.74897915
-1.3834798 0.03486417 -0.056812447 0.6992747 -0.11729684 1.8376316 -1.1806768 1.3833588
1.4439149 0.8558647 2.219747 0.53748846 0.34160137 -0.23613648 -1.0578737 1.2613035
-0.17455512 0.54597306 0.051642716 0.42807752 0.6042737 -0.6811231 -2.2025187 -0.7679755
0.0031495108 -0.3161325 -1.3701658 -0.56922567 0.5049991 0.51210874 1.1873434 0.028952496
0.7802123 -0.5381659 -1.0550822 0.57782066 -1.7358482 -0.81425095 1.364675 0.5135763
-2.535609 0.48247808 0.778211 0.00045340313 0.66675764 0.5757336 1.0872675 -0.440208
-0.1914484 0.7449648 0.43503729 0.20955351 0.24359229 1.2921485 -0.0065238248 -0.29648235
-1.4475282 -0.08090895 -0.59991336 0.48233742 0.72676814 0.11934544 -0.408304 0.5870151
-0.032473516 0.2190951 0.16842194 0.73441637 1.0513436 0.34109098 0.7266824 0.38938627
1.9367698 1.041975 -1.446798 -1.1428192 -0.14465591 1.6626799 0.6529553 0.5763089
1.1637526 0.030113708 -1.8157108 0.942228 -0.37354654 1.0425664 -0.6672306 0.6049045
-0.96172905 0.9632062 1.650823 1.4472551 0.27693734 -0.20431468 -0.7328684 0.08297298
0.37638736 0.97820854 -0.47577727 1.6370113 -2.4436698 -0.41540366 -1.217098 0.81145996
-1.880285 0.24390422 0.02405481 -0.3586185 0.2766463 -0.75711095 0.22148892 -1.0782677
-1.6061809 1.3877037 1.2490093 0.06577997 -1.5531965 0.77284294 0.7533502 2.0547805
0.048826963 0.15023129 -0.8333033 -0.18418956 0.0 0.0 0.0 0.0
0.0 0.0 0.0 0.0 0.0 0.0 0.0 0.0
0.0 0.0 0.0 0.0 0.0 0.0 0.0 0.0
0.5260621 2.112038 -0.52075714 -0.9320061 0.18516134 1.0686918 1.3065344 0.45983452
-0.8146269 -1.0212393 -0.49492356 -0.59225166 0.15431595 0.44076708 -0.1482923 -2.3184433
-0.39799532 1.0804863 -1.7808644 1.5080454 0.28472212 -0.5059557 1.0677022 1.6778649
0.008258169 1.6542495 0.14323872 -1.0255144 -0.5809304 0.065426305 0.39786112 1.9973078
-0.118106075 -0.875566 -2.0796857 -1.0865299 0.04286985 0.037033066 0.16943978 0.41497728
-0.89884907 0.29098558 -0.53298706 0.44273466 -0.8515742 -0.04395184 -0.35369036 1.4241674
1.2414378 -0.6690816 0.82265294 0.5293852 0.5548091 0.5283048 0.4913996 0.22842313
00000000: f43d f83f cdb7 be3f 91e8 623f 983c 08c0
00000010: 941c 2d3f 040b 9fbf f0a7 1abd aa3c cfbf
00000020: 84db 3ebf 821d d23f 9742 c9be a078 b6bf
00000030: c16e 3bbf f20d 17bf 2c2b 46bf bb32 3b3f
00000040: e56b d23f cc84 29be 6bb6 f5be c1ab da3e
00000050: 5027 3fbf ae98 873f c1ac 523f c253 d93f
00000060: 4338 a63f 820b a43f 2834 153f f481 ab3f
00000070: 6f31 77be b371 a63d 5795 8cbe 378d 5c3f
00000080: 5c99 b0bf d980 5dbf e727 76be 1996 d93f
00000090: 800c a93e bc59 d5be 8dda 883e 2cbc 3ebf
000000a0: cea0 c9bf 687a 803f dede 5fbf 0e2c 18bf
000000b0: e92a a5bf d781 0840 3c29 99bf be97 ebbe
000000c0: a11a 68bf fe67 27bf 7884 8c3d ca60 ff3e
000000d0: ce58 f1be 015f 993f 445a 4bbf 19bd 3fbf
000000e0: de15 b1bf bbcd 0e3d 2bb4 68bd ab03 333f
000000f0: 5339 f0bd 8337 eb3f 6b20 97bf e711 b13f
00000100: 34d2 b83f f319 5b3f 5610 0e40 d898 093f
00000110: 60e6 ae3e c3cd 71be 6868 87bf 6572 a13f
00000120: 94be 32be e4c4 0b3f 5087 533d fa2c db3e
00000130: aeb1 1a3f 155e 2ebf 11f6 0cc0 0b9a 44bf
00000140: 0668 4e3b 1edc a1be 9861 afbf c6b8 11bf
00000150: 9f47 013f 8f19 033f defa 973f c92d ed3c
00000160: febb 473f 3ec5 09bf ef0c 87bf 0eec 133f
00000170: 4630 debf c072 50bf acad ae3f bd79 033f
00000180: 6b47 22c0 5e07 f73e d638 473f bdb6 ed39
00000190: a1b0 2a3f 4763 133f 952b 8b3f f162 e1be
000001a0: 0d0b 44be 03b6 3e3f 35bd de3e 3295 563e
000001b0: 4270 793e 1f65 a53f cfc5 d5bb 89cc 97be
000001c0: 9b48 b9bf 97b3 a5bd ec93 19bf eef4 f63e
000001d0: 7a0d 3a3f 626b f43d 390d d1be 9f46 163f
000001e0: f302 05bd 775a 603e cd76 2c3e b602 3c3f
000001f0: 6d92 863f 7aa3 ae3e dc07 3a3f a35d c73e
00000200: 13e8 f73f 705f 853f ad30 b9bf e647 92bf
00000210: ae20 14be b2d2 d43f 1428 273f fb88 133f
00000220: d8f5 943f 06b1 f63c 3669 e8bf db35 713f
00000230: 7e41 bfbe d172 853f a0cf 2abf 05db 1a3f
00000240: e033 76bf ae94 763f 2b4e d33f a83f b93f
00000250: bbca 8d3e de37 51be 439d 3bbf bded a93d
00000260: d8b5 c03e e06b 7a3f 1499 f3be 9689 d13f
00000270: 1665 1cc0 caaf d4be dec9 9bbf d7bb 4f3f
00000280: 2ead f0bf 07c2 793e 980e c53c d89c b7be
00000290: 95a4 8d3e 06d2 41bf fecd 623e ad04 8abf
000002a0: 5697 cdbf 46a0 b13f 89df 9f3f a6b7 863d
000002b0: 25cf c6bf 09d9 453f 8fdb 403f 8681 0340
000002c0: c8fe 473d 3bd6 193e 5d53 55bf 309c 3cbe
000002d0: 0000 0000 0000 0000 0000 0000 0000 0000
000002e0: 0000 0000 0000 0000 0000 0000 0000 0000
000002f0: 0000 0000 0000 0000 0000 0000 0000 0000
00000300: 0000 0000 0000 0000 0000 0000 0000 0000
00000310: 0000 0000 0000 0000 0000 0000 0000 0000
00000320: 01ac 063f a12b 0740 5750 05bf f497 6ebf
00000330: ef9a 3d3e e5ca 883f 853c a73f 6e6f eb3e
00000340: 638b 50bf f8b7 82bf 9f66 fdbe ce9d 17bf
00000350: 0005 1e3e 39ac e13e f0d9 17be 6061 14c0
00000360: 0bc6 cbbe 604d 8a3f 5df3 e3bf a207 c13f
00000370: 19c7 913e 5086 01bf 77aa 883f 47c4 d63f
00000380: 454d 073c 73be d33f 2cad 123e 0e44 83bf
00000390: dbb7 14bf 3afe 853d 74b4 cb3e c8a7 ff3f
000003a0: 99e1 f1bd 1825 60bf 9219 05c0 6913 8bbf
000003b0: 4c98 2f3d fcaf 173d 9f81 2d3e e777 d43e
000003c0: f91a 66bf 10fc 943e d771 08bf 1eae e23e
000003d0: c400 5abf d806 34bd e716 b5be 1e4b b63f
000003e0: 6fe7 9e3f ef48 2bbf 6299 523f ca85 073f
000003f0: f807 0e3f fc3e 073f ba98 fb3e c1e7 693e

lstm.lstm_cell.weight_ih f4 [128, 20]
0.15444079 0.18702075 -0.00045566767 -0.015278911 -0.09413671 -0.07677526 0.12083671 0.043832097
-0.14996353 -0.10041718 -0.1227333 -0.20241342 -0.15843014 -0.0913954 0.11518026 0.07054133
-0.09628846 -0.12150416 0.081805296 -0.11299914 -0.019922964 0.07886632 -0.100453176 -0.019891303
-0.0026456765 -0.031564105 -0.08614565 -0.12992284 -0.13507222 -0.10217659 0.15913774 -0.082760006
-0.111688696 0.05415925 0.07051274 0.10011564 0.113550186 0.10380578 -0.18590622 0.02579473
0.10470967 -0.03216875 -0.09437058 0.15211707 -0.055421192 -0.11458337 -0.17873311 -0.02724909
0.08279393 0.05982908 0.03800781 -0.14926943 -0.17545968 0.006686725 0.20143309 0.09845266
-0.08900056 -0.014996929 -0.11421307 -0.07252725 0.01642582 0.097587615 0.13933256 -0.15964061
0.114280604 -0.101685554 0.05557953 0.15627004 -0.009161628 0.15086156 -0.16377102 -0.046091724
0.09460658 -0.035107274 -0.07374087 -0.08220783 0.12389232 0.08868948 0.06472813 -0.09752869
-0.15106216 -0.021758538 0.031577546 -0.11010598 -0.019692596 0.1485557 -0.011833027 0.026657289
-0.05488748 -0.14543949 -0.17150797 -0.053387012 -0.10058752 0.053063057 -0.027630966 -0.050604973
0.17212345 0.1025299 0.115179025 -0.054266527 -0.10086425 0.07322915 -0.13892534 -0.098978154
-0.030272834 -0.050065182 -0.11100277 0.12598903 0.14517058 0.033480693 -0.04203554 -0.15958855
-0.080637306 0.075878955 0.082196645 0.0050487802 -0.107594065 0.09545982 -0.15530735 0.12665911
-0.071837194 0.0030618266 -0.059912186 0.007020572 -0.051766474 0.13302028 -0.0043654568 0.123486884
0.16485551 -0.091136076 -0.13660167 0.15504263 0.13379161 -0.14166838 -0.013308021 -0.18476094
-0.15142614 0.040841877 0.04436329 0.03210131 -0.066569485 0.14429604 0.0041628545 -0.10684281
-0.019167932 0.065890566 0.05704474 -0.120991684 0.06855637 -0.08785589 -0.16937093 -0.077865556
0.15367539 0.16573377 0.14566131 0.10559852 0.11659214 -0.009728046 -0.07307181 0.11372327
-0.06291358 -0.120696135 -0.06558209 -0.00629289 0.11287177 -0.08405121 -0.1089872 -0.001888589
-0.14619559 -0.100025356 0.10095995 -0.034829527 0.15928198 0.15156586 0.06793919 0.08204727
0.03712536 0.040329624 -0.032542977 0.028773682 0.079123646 0.1788802 -0.025118476 -0.06631581
-0.038138706 -0.0724755 0.03817344 0.15607433 0.13079937 0.09688718 -0.12009113 -0.11183124
-0.0078677405 -0.007510133 0.018841406 -0.14737585 0.063336104 -0.13893922 -0.1557489 -0.13142478
0.14269707 -0.18239078 0.11419407 -0.018480465 -0.024087533 0.11362879 -0.027734049 0.1022867
0.11425091 -0.15447207 0.076673836 0.047152814 0.037014406 0.034309555 0.06928877 -0.09388979
-0.033686943 0.17892665 0.121341854 -0.0005028341 -0.15587096 0.016762687 -0.0931313 0.12666287
-0.11424135 -0.02312217 -0.058068164 0.011784982 0.1511114 0.033671048 0.11931971 0.11556377
0.12609446 -0.07681146 -0.053289905 0.08824995 -0.03960324 0.07138324 -0.020534398 -0.10692737
0.064787865 0.032794148 0.08199258 0.14191927 0.10645937 0.14400482 0.0021304726 -0.19309542
-0.13913132 -0.078152075 -0.1726939 -0.09029014 -0.23277886 -0.18991695 -0.14437024 -0.16782616
00000000: ba25 1e3e 5e82 3f3e aee6 eeb9 6654 7abc
00000010: bfca c0bd 593c 9dbd 3d79 f73d 4989 333d
00000020: 0a90 19be 86a7 cdbd 995b fbbd 7745 4fbe
00000030: 833b 22be 832d bbbd a1e3 eb3d f977 903d
00000040: e232 c5bd 2cd7 f8bd 8989 a73d 186c e7bd
00000050: 7c35 a3bc aa84 a13d 65ba cdbd 16f3 a2bc
00000060: 1663 2dbb 5d49 01bd 216d b0bd 7e0a 05be
00000070: 5f50 0abe f641 d1bd 01f5 223e 147e a9bd
00000080: 0bbd e4bd 17d6 5d3d fc68 903d 6e09 cd3d
00000090: 008d e83d 2098 d43d 335e 3ebe 784f d33c
000000a0: 0672 d63d 61c3 03bd 5d45 c1bd 94c4 1b3e
000000b0: 5501 63bd b0aa eabd d005 37be 7c39 dfbc
000000c0: dd8f a93d 560f 753d 14ae 1b3d 16da 18be
000000d0: b4ab 33be 511c db3b 7a44 4e3e 8ca1 c93d
000000e0: ed45 b6bd aeb5 75bc 8be8 e9bd 2b89 94bd
000000f0: 718f 863c 04dc c73d 32ad 0e3e d478 23be
00000100: f30b ea3d 8440 d0bd 5ca7 633d 4105 203e
00000110: a71a 16bc 747b 1a3e 97b3 27be adca 3cbd
00000120: 18c1 c13d a5cc 0fbd 7405 97bd 945c a8bd
00000130: 42bb fd3d d5a2 b53d 2f90 843d 1fbd c7bd
00000140: 0ab0 1abe f63e b2bc 7557 013d 3e7f e1bd
00000150: 5e52 a1bc fc1e 183e 50df 41bc 6360 da3c
00000160: b2d1 60bd 17ee 14be c99f 2fbe 57ac 5abd
00000170: d400 cebd a658 593d 565a e2bc 2947 4fbd
00000180: 2141 303e 32fb d13d fbe2 eb3d 9446 5ebd
00000190: ea91 cebd 2af9 953d 7242 0ebe 0fb5 cabd
000001a0: bcfe f7bc 2611 4dbd 6c55 e3bd 4503 013e
000001b0: 99a7 143e 0d23 093d 752d 2cbd 2e6b 23be
000001c0: 2c25 a5bd 6d66 9b3d b756 a83d 3d70 a53b
000001d0: 475a dcbd 7080 c33d e408 1fbe edb2 013e
000001e0: 611f 93bd eda8 483b 7b66 75bd d40c e63b
000001f0: 1509 54bd 7836 083e 1b0c 8fbb b1e6 fc3d
00000200: e2cf 283e 8da5 babd 4fe1 0bbe 7fc3 1e3e
00000210: ab00 093e 8411 11be e309 5abc f931 3dbe
00000220: 740f 1bbe d049 273d 48b6 353d aa7c 033d
00000230: 9555 88bd 57c2 133e 8e68 883b 67d0 dabd
00000240: 1106 9dbc a2f1 863d bfa7 693d 7dca f7bd
00000250: 4867 8c3d caed b3bd 936f 2dbe fa77 9fbd
00000260: 155d 1d3e 1db6 293e 3d28 153e 0944 d83d
00000270: dcc7 ee3d 6262 1fbc aca6 95bd bfe7 e83d
00000280: d6d8 80bd 892f f7bd e74f 86bd 9634 cebb
00000290: 5129 e73d 0a23 acbd ae34 dfbd 888a f7ba
000002a0: 4cb4 15be 18da ccbd 17c4 ce3d 68a9 0ebd
000002b0: d11a 233e 1534 1b3e b423 8b3d 6608 a83d
000002c0: c310 183d ad30 253d c94b 05bd c9b6 eb3c
000002d0: 940b a23d 5f2c 373e 43c5 cdbc 95d0 87bd
000002e0: 5537 1cbd 096e 94bd c15b 1c3d f3d1 1f3e
000002f0: 45f0 053e c96c c63d 57f2 f5bd c707 e5bd
00000300: b2e7 00bc 9017 f6bb 4b59 9a3c b2e9 16be
00000310: 5cb6 813d 1546 0ebe a47c 1fbe 3894 06be
00000320: 2e1f 123e a6c4 3abe 95de e93d 5864 97bc
00000330: 3853 c5bc 36b6 e83d 8432 e3bc b07b d13d
00000340: 62fc e93d ed2d 1ebe 2c07 9d3d 4f23 413d
00000350: 6b9c 173d 2d88 0c3d 45e7 8d3d 4a49 c0bd
00000360: 52fb 09bd 8c38 373e 1482 f83d a0d0 03ba
00000370: a39c 1fbe e751 893c 9fbb bebd e9b3 013e
00000380: 5ef7 e9bd b46a bdbc e2d8 6dbd cc15 413c
00000390: f2bc 1a3e a7ea 093d e45d f43d b3ac ec3d
000003a0: e81e 013e 544f 9dbd 8446 5abd 64bc b43d
000003b0: 0237 22bd 6031 923d c137 a8bc bdfc dabd
000003c0: 80af 843d 2853 063d baeb a73d 4953 113e
000003d0: 5f07 da3d 0076 133e 669f 0b3b ceba 45be
000003e0: 7178 0ebe 320e a0bd abd6 30be 09ea b8bd
000003f0: 955d 6ebe 9779 42be cbd5 13be 9fda 2bbe

lstm.lstm_cell.weight_hh f4 [128, 32]
0.06050144 0.037540413 -0.07779161 0.049802646 -0.059960183 -0.07281338 -0.16133046 -0.12109469
-0.13211265 0.16893621 0.024163676 -0.16329405 -0.07427005 0.06287104 -0.07299269 -0.047538307
-0.079120785 -0.034320917 0.030971661 0.012141456 0.077253334 0.123721845 0.13679144 -0.008137012
-0.0697394 0.024306674 -0.1078028 0.065548025 -0.040756274 -0.076580174 -0.13214852 0.04687976
0.08320627 0.16793355 -0.08110952 0.053321693 -0.03877971 -0.10302419 -0.13618384 0.096944354
-0.10668294 0.12646456 0.059287973 0.06337054 0.14049043 0.07555087 0.061849967 0.07818484
-0.10859061 -0.12678392 -0.0075182705 0.08843587 0.12633587 0.13185619 -0.08746969 -0.036813125
-0.13667735 0.13191661 -0.145374 -0.09736685 0.15544577 0.07311416 -0.056262776 -0.114365615
-0.12260791 0.1411822 -0.17253178 0.15011942 0.14566806 0.00391875 -0.0036278844 0.14638314
0.0826433 0.17023608 0.14762469 -0.09599793 0.10174363 0.110830694 -0.13268517 0.07941776
-0.09443217 -0.099364385 0.017915733 0.0014308778 -0.056531556 -0.10106909 0.14220722 0.14592855
-0.010120682 -0.119234584 -0.011561943 -0.14901458 -0.15552704 -0.08020857 0.122526176 -0.12889889
-0.027887024 -0.095366254 -0.17165641 -0.0317011 -0.020641763 -0.023353852 0.11199713 0.068887286
0.108193465 0.078176916 0.023869414 0.112262435 -0.11278823 0.086233795 0.078894265 -0.088665724
-0.03936287 -0.16632225 -0.12982595 0.00038355 0.031701997 -0.06432315 0.055394743 -0.15770032
-0.105508454 0.13459997 -0.20312648 0.0032737034 0.12982899 0.14786653 0.052104827 -0.1525075
0.010428193 -0.08620175 -0.051275738 0.15105207 -0.07730633 -0.14202869 -0.13053925 0.15526836
0.029966457 0.21008617 0.071060814 -0.16644564 0.052464765 0.19171825 0.092400104 0.0150532415
-0.14400013 -0.12783496 0.13450281 -0.14272259 0.03329863 -0.0053764908 0.07451721 0.037052847
-0.121397555 -0.031578355 0.15604764 0.039608076 0.067335844 -0.10753616 0.17230041 -0.006572729
-0.08012039 0.05943207 -0.08367718 -0.09115552 -0.03187912 0.010108235 -0.13274072 0.059761394
-0.19692262 0.09116478 0.14677946 0.0033593245 -0.05275333 -0.17140259 0.10236474 0.16271536
0.13115557 0.010980023 0.07382576 0.1884151 0.0364809 -0.05935431 -0.19743417 0.05980264
0.047620263 0.14745116 -0.09054247 0.05481698 -0.042075332 -0.029996563 0.12256891 -0.17202105
0.13882434 0.0697131 -0.1121619 0.101224534 -0.046439454 0.016093168 -0.026872812 -0.17063269
-0.010619038 0.09348093 -0.014875198 -0.038102366 0.016795598 0.034612175 -0.06482359 -0.16249555
-0.08325719 -0.022549137 0.055540502 0.1495503 0.0013635099 0.031296242 0.09863376 -0.059867658
-0.049780257 0.13652264 0.1205248 0.04664454 -0.15422153 0.09354696 -0.15286934 0.08258258
0.022893772 0.035537284 -0.20233436 -0.03785641 0.082577996 0.10952067 -0.02958431 0.16337208
-0.030330418 -0.09591204 -0.054980714 0.030984597 -0.015120484 0.09591636 -0.1272025 -0.057481214
-0.20080256 0.16371928 -0.055933803 -0.16273955 -0.03147913 0.02282915 0.046310615 -0.022833737
0.10595628 -0.03168654 -0.0730937 -0.04026835 0.0064690444 0.14613496 -0.007569756 0.12848058
00000000: 5cd0 773d fac3 193d 3551 9fbd dcfd 4b3d
00000010: cf98 75bd 2e1f 95bd d033 25be 7e00 f8bd
00000020: 8a48 07be 9dfd 2c3e e7f2 c53c 8e36 27be
00000030: e51a 98bd 88c2 803d 317d 95bd 87b7 42bd
00000040: 140a a2bd 1794 0cbd 48b8 fd3c f5ec 463c
00000050: ff36 9e3d e161 fd3d 0e13 0c3e 1a51 05bc
00000060: 88d3 8ebd ca1e c73c b7c7 dcbd 0b3e 863d
00000070: 0df0 26bd 11d6 9cbd f151 07be fe04 403d
00000080: 0d68 aa3d c6f6 2b3e bf1c a6bd d967 5a3d
00000090: 79d7 1ebd 59fe d2bd c773 0bbe c38a c63d
000000a0: 967c dabd ed7f 013e f2d7 723d 6ac8 813d
000000b0: b9dc 0f3e 6aba 9a3d 6456 7d3d 601f a03d
000000c0: c164 debd a5d3 01be d35b f6bb de1d b53d
000000d0: 315e 013e 4f05 073e 4f23 b3bd 5cc9 16bd
000000e0: 26f5 0bbe 2615 073e ecdc 14be 4568 c7bd
000000f0: 2d2d 1f3e e0bc 953d cc73 66bd 8538 eabd
00000100: db19 fbbd 1192 103e 2cac 30be e8b8 193e
00000110: 022a 153e dc68 803b cdc1 6dbb 76e5 153e
00000120: e440 a93d 5e52 2e3e ed2a 173e 909a c4bd
00000130: f75e d03d 34fb e23d 9fde 07be c7a5 a23d
00000140: a765 c1bd 8e7f cbbd 04c4 923c 4b8c bb3a
00000150: a28d 67bd 50fd cebd c59e 113e 4b6e 153e
00000160: 38d1 25bc 4331 f4bd 4e6e 3dbc 4797 18be
00000170: 7b42 1fbe 6444 a4bd 01ef fa3d 12fe 03be
00000180: 5473 e4bc 624f c3bd b3c6 2fbe 03d9 01bd
00000190: ea18 a9bc 9450 bfbc c05e e53d c714 8d3d
000001a0: 8994 dd3d 381b a03d ca89 c33c d9e9 e53d
000001b0: 84fd e6bd 589b b03d 5193 a13d 6096 b5bd
000001c0: f63a 21bd 6150 2abe 18f1 04be 3617 c939
000001d0: f4d9 013d dbbb 83bd 99e5 623d 317c 21be
000001e0: d114 d8bd 93d4 093e 6300 50be a18b 563b
000001f0: e4f1 043e 536a 173e df6b 553d ed2a 1cbe
00000200: 03db 2a3c 8b8a b0bd 8206 52bd 65ad 1a3e
00000210: c852 9ebd f86f 11be 15ac 05be abfe 1e3e
00000220: 377c f53c d420 573e 5588 913d ba70 2abe
00000230: 4be5 563d ca51 443e 443c bd3d dfa1 763c
00000240: c574 13be 2be7 02be 1bbb 093e df25 12be
00000250: 2564 083d 462d b0bb 7b9c 983d bac4 173d
00000260: 489f f8bd 4e58 01bd f4ca 1f3e 143c 223d
00000270: 60e7 893d eb3b dcbd 856f 303e 0c60 d7bb
00000280: 2916 a4bd 0b6f 733d f15e abbd bfaf babd
00000290: ae93 02bd 039d 253c 2fed 07be 5dc8 743d
000002a0: 15a6 49be 9ab4 ba3d 5b4d 163e 1d28 5c3b
000002b0: e013 58bd 2984 2fbe 9ba4 d13d db9e 263e
000002c0: a54d 063e 8ee5 333c f631 973d e3ef 403e
000002d0: ff6c 153d 811d 73bd 2f2c 4abe 9df3 743d
000002e0: 770d 433d 70fd 163e 556e b9bd c587 603d
000002f0: 2f57 2cbd 5abb f5bc 6905 fb3d 4926 30be
00000300: f827 0e3e bec5 8e3d 23b5 e5bd cf4e cf3d
00000310: 4c37 3ebd d2d5 833c 5f24 dcbc 56ba 2ebe
00000320: 79fb 2dbc ee72 bf3d 1ab7 73bc 3a11 1cbd
00000330: ec96 893c 7fc5 0d3d 3bc2 84bd 3c65 26be
00000340: bf82 aabd f8b8 b8bc 707e 633d b723 193e
00000350: cdb7 b23a 7d30 003d 7f00 ca3d ca37 75bd
00000360: 62e6 4bbd 97cc 0b3e b5d5 f63d 580e 3f3d
00000370: 40ec 1dbe 8c95 bf3d c889 1cbe 0e21 a93d
00000380: b88b bb3c 8b8f 113d bd30 4fbe 530f 1bbd
00000390: a71e a93d 5f4c e03d cb5a f2bc 034b 273e
000003a0: 7f77 f8bc 886d c4bd 7533 61bd 69d3 fd3c
000003b0: e8bb 77bc cc6f c43d 5f41 02be 6c71 6bbd
000003c0: 309f 4dbe 07a6 273e d81a 65bd 32a5 26be
000003d0: 43f0 00bd 3304 bb3c 33b0 3d3d d10d bbbc
000003e0: 9bff d83d bfc9 01bd 26b2 95bd 6df0 24bd
000003f0: 47fa d33b 67a4 153e b70b f8bb 6a90 033e

lstm.lstm_cell.bias_ih f4 [128]
0.12856771 -0.122323416 -0.07775684 0.14127012 -0.1529771 -0.14209555 -0.059745386 -0.16669457
0.050709732 -0.022345116 -0.072387435 0.10472619 0.024491888 -0.15166326 -0.15966743 0.1264318
0.0808328 0.095298454 -0.15815912 -0.040729802 0.14514422 0.16807732 0.1263995 0.18225007
-0.048394646 -0.12153688 0.110040724 0.11311025 -0.06009334 -0.011522259 -0.009569212 -0.17583431
-0.09446797 -0.026438553 0.085712574 -0.05077322 0.085511185 0.17810056 -0.055413708 -0.07337017
-0.116394676 0.007629589 -0.18405128 0.12103351 0.1422063 0.059707426 0.16801345 0.09313954
0.11250542 0.17079993 -0.13041133 -0.03362064 0.07672597 -0.05455482 -0.11809922 -0.04310309
-0.08154953 -0.07473084 -0.11906946 -0.052638825 0.09750807 -0.07969808 0.069095165 -0.16701636
-0.11842585 0.058826137 0.15663974 -0.19352552 0.057714608 0.029020619 -0.12829913 -0.123703055
0.07881585 -0.1143504 0.15615527 -0.14183523 0.12828203 -0.09916697 0.06346513 0.04302711
-0.14524719 -0.11752852 -0.052189503 -0.0031389457 0.09617269 -0.065027304 0.021200012 -0.099653855
-0.08626029 0.10525833 -0.07142426 -0.14629073 -0.014173482 0.001810341 0.07049879 -0.07457314
4.541354e-05 -0.07342088 -0.11333056 0.039406538 0.034230694 0.060718037 0.15140109 -0.005243052
0.008428669 -0.02401803 -0.19429396 0.071007125 0.15980253 0.026979629 -0.13919993 0.16453883
0.03861713 0.12739746 0.06515408 0.013334995 -0.050447293 0.06023797 0.06513661 0.009430369
-0.106861964 -0.08090676 -0.15257122 -0.06914034 -0.041688517 0.14504409 -0.09958091 -0.19045517
00000000: 41a7 033e b384 fabd fa3e 9fbd 1da9 103e
00000010: 07a6 1cbe 7f81 11be 94b7 74bd fbb1 2abe
00000020: 02b5 4f3d 1b0d b7bc dd3f 94bd af7a d63d
00000030: 36a3 c83c 9d4d 1bbe dc7f 23be 5677 013e
00000040: ab8b a53d d62b c33d 77f4 21be 4bd4 26bd
00000050: b0a0 143e 761c 2c3e df6e 013e c39f 3a3e
00000060: 7739 46bd 54e8 f8bd 085d e13d 59a6 e73d
00000070: 6f24 76bd dbc7 3cbc 2fc8 1cbc e90d 34be
00000080: 6c78 c1bd aa95 d8bc 138a af3d 94f7 4fbd
00000090: 7d20 af3d fe5f 363e 7cf9 62bd 1a43 96bd
000000a0: 5560 eebd a201 fa3b f077 3cbe 6be0 f73d
000000b0: 879e 113e c68f 743d b80b 2c3e f1bf be3d
000000c0: 3e69 e63d 2de6 2e3e 8c8a 05be ccb5 09bd
000000d0: 8122 9d3d e074 5fbd 01de f1bd de8c 30bd
000000e0: 7103 a7bd 7c0c 99bd b0da f3bd cf9b 57bd
000000f0: 50b2 c73d bf38 a3bd c481 8d3d 5606 2bbe
00000100: 4189 f2bd adf3 703d 2b66 203e 8e2b 46be
00000110: 2766 6c3d a6bc ed3c d960 03be 0758 fdbd
00000120: 346a a13d 8b30 eabd 2be7 1f3e 413d 11be
00000130: 5d5c 033e 0d18 cbbd 02fa 813d 323d 303d
00000140: aebb 14be cbb2 f0bd a9c4 55bd c5b6 4dbb
00000150: 30f6 c43d 092d 85bd a6ab ad3c 5217 ccbd
00000160: 3ca9 b0bd ae91 d73d e246 92bd 3dcd 15be
00000170: e437 68bc f748 ed3a ab61 903d cdb9 98bd
00000180: 6b7a 3e38 b05d 96bd da19 e8bd c068 213d
00000190: 7c35 0c3d 7ab3 783d e308 1b3e e8cd abbb
000001a0: 6618 0a3c 76c1 c4bc fff4 46be 2f6c 913d
000001b0: 46a3 233e 6204 dd3c 6d8a 0ebe de7c 283e
000001c0: ff2c 1e3d 7b74 023e 816f 853d 067b 5a3c
000001d0: d2a1 4ebd 17bc 763d 5866 853d d681 1a3c
000001e0: 72da dabd 72b2 a5bd a13b 1cbe 7399 8dbd
000001f0: 94c1 2abd 7086 143e 13f1 cbbd ae06 43be

lstm.lstm_cell.bias_hh f4 [128]
0.09792921 0.176751 -0.14820658 0.006606035 0.035311315 0.13766193 -0.0468599 0.061098848
0.13394798 0.11218377 0.06577813 0.114471056 -0.14420342 0.04529818 0.14417389 -0.12465477
-0.15035926 -0.1478271 0.046254802 0.15749143 -0.021923507 -0.044983894 0.016681766 -0.12761627
0.037602328 -0.100906715 -0.108319 -0.12855488 -0.05675562 0.12018673 0.034849156 0.10400501
-0.1917953 -0.11438794 0.12803274 0.14005502 0.15585247 -0.1452541 0.061451696 -0.20459555
-0.057642046 0.024701888 0.06038812 -0.0524569 -0.16313764 -0.15922116 -0.0700672 0.13881552
0.072025344 0.09496342 -0.15184122 -0.17859145 0.17387745 0.108232014 -0.06889527 0.027267873
0.13343613 0.14639981 -0.12664168 -0.08692984 0.06491323 0.13295536 0.024549127 -0.032549113
-0.00018505301 0.20137122 -0.14586018 0.050265003 -0.14579372 0.014910948 -0.15084596 0.11914341
-0.10874306 -0.014277574 -0.07859483 -0.0033980163 -0.091345385 -0.09938898 -0.084753364 0.09981862
0.018171022 -0.070352115 0.14119472 0.030942947 -0.048339523 -0.0003544435 -0.07392742 -0.073889315
-0.05743517 0.032026455 -0.18041545 -0.12906155 0.09706771 -0.015327677 0.013716508 0.07734389
-0.08663962 0.13762939 -0.046508536 0.009768532 -0.14301123 0.09989844 -0.13753636 0.08587959
-0.031631097 -0.065470785 -0.082562394 0.069311135 0.19513422 0.057489403 0.10702182 -0.14319684
-0.04270399 -0.10057857 -0.13850045 0.015804341 -0.053627566 0.06396205 -0.062033385 -0.14104398
-0.08492434 -0.15792194 0.047738668 -0.13271312 0.1226982 0.07697309 -0.1042068 -0.06703095
00000000: 1c8f c83d 37fe 343e 77c3 17be 7077 d83b
00000010: 99a2 103d 40f7 0c3e 2bf0 3fbd c942 7a3d
00000020: a929 093e 9bc0 e53d afb6 863d cd6f ea3d
00000030: 10aa 13be 968a 393d 52a2 133e 004b ffbd
00000040: c7f7 19be fd5f 17be ad75 3d3d 6f45 213e
00000050: ed98 b3bc 0841 38bd 33a8 883c d7ad 02be
00000060: e604 1a3d 2ea8 cebd 5ad6 ddbd e4a3 03be
00000070: 9578 68bd 7624 f63d fdbd 0e3d 9400 d53d
00000080: fd65 44be 3944 eabd 041b 033e 956a 0f3e
00000090: ca97 1f3e 7ebd 14be c6b4 7b3d 7f81 51be
000000a0: 111a 6cbd 9d5b ca3c 8959 773d 0cdd 56bd
000000b0: 8e0d 27be df0a 23be 647f 8fbd a825 0e3e
000000c0: 0682 933d 2e7c c23d 447c 1bbe ade0 36be
000000d0: ee0c 323e bfa8 dd3d f718 8dbd e060 df3c
000000e0: 7ba3 083e d5e9 153e 5bae 01be 4608 b2bd
000000f0: 3af1 843d 7325 083e 401b c93c 3852 05bd
00000100: ca0a 42b9 4234 4e3e 5f5c 15be ade2 4d3d
00000110: f34a 15be 0d4d 743c 5d77 1abe 7601 f43d
00000120: aeb4 debd 7cec 69bc 54f6 a0bd 41b1 5ebb
00000130: 4a13 bbbd 738c cbbd 2c93 adbd b46d cc3d
00000140: 65db 943c c514 90bd 5995 103e 107c fd3c
00000150: aaff 45bd 9ad4 b9b9 4267 97bd 4853 97bd
00000160: 2441 6bbd 2c2e 033d d4be 38be b628 04be
00000170: 6fcb c63d f020 7bbc 34bb 603c 7966 9e3d
00000180: 1d70 b1bd b8ee 0c3e bc7f 3ebd 310c 203c
00000190: 8971 12be 8e97 cc3d 55d6 0cbe a3e1 af3d
000001a0: 9c8f 01bd 8c15 86bd 7916 a9bd fff2 8d3d
000001b0: 44d1 473e 027a 6b3d 422e db3d 31a2 12be
000001c0: 61ea 2ebd 23fc cdbd 10d3 0dbe 1b78 813c
000001d0: 94a8 5bbd 89fe 823d b816 7ebd d56d 10be
000001e0: d0ec adbd 4ab6 21be 9f89 433d f3e5 07be
000001f0: 3249 fb3d 11a4 9d3d 606a d5bd 8647 89bd

mlp.0.weight f4 [16, 32]
-0.17644933 0.14882018 -0.071508035 -0.05200002 0.03335262 0.09275459 -0.055006906 0.07432621
0.09070518 -0.021111323 0.120127425 -0.13275388 -0.13997136 -0.01694152 -0.037186004 0.03867352
0.09177031 -0.1623175 0.091255516 0.026651083 0.14321348 0.109223105 -0.06106566 -0.025521282
-0.1502501 0.067691654 0.17059849 0.07784524 0.1501714 0.06422175 0.06215755 -0.027209174
-0.16607298 -0.045166425 0.12321937 0.14032818 -0.037044544 0.16403858 0.12827629 -0.15700719
-0.17321986 -0.06899192 -0.01496708 0.07116607 0.080511115 0.056570258 -0.089245066 0.11290436
0.04129111 -0.11625016 -0.13144836 0.030811287 0.17564589 -0.12943602 0.0014081099 -0.18408826
0.10622141 0.06190791 -0.020589659 0.10752147 0.086357035 0.10885046 0.024477838 0.0024622215
0.0667052 0.07538491 -0.15754773 -0.08014638 0.10808983 -0.050657023 0.13587224 -0.046181828
0.15235606 -0.14358164 0.08865062 -0.09110226 0.120074354 0.11595807 0.08713527 0.082377076
0.11206373 -0.07831202 -0.061588965 0.0705729 -0.13383497 -0.024407506 0.067452356 -0.17731473
-0.017871805 -0.01437123 -0.13493328 0.10826336 0.0014068313 -0.15615332 -0.0666918 0.03814221
0.13665643 -0.07025737 0.17056799 -0.06451526 -0.12595707 -0.05339309 -0.10124057 0.05692856
0.11805051 -0.13563003 -0.11096414 0.10210722 -0.04199048 0.16248311 0.16935481 -0.13855915
0.09814569 -0.16581735 0.045704424 -0.104547285 0.004934368 0.16757184 0.03234088 -0.07014099
0.10003921 -0.013842705 0.17066783 -0.11895265 -0.058747984 -0.15716848 -0.09754489 -0.0680417
-0.109796055 -0.13632484 -0.025829826 -0.08932234 -0.10419408 -0.015315314 -0.13184865 0.10348406
0.1053692 0.19006245 0.06210967 -0.008158106 -0.009856948 -0.07921759 0.12760857 0.10051002
0.11880496 -0.040351313 -0.13705248 0.044607572 0.1445696 -0.033086304 0.14899969 0.1168836
0.07100762 -0.054690566 -0.05186178 -0.016951451 -0.0021564353 -0.02844291 -0.16883425 -0.10555685
-0.07305593 0.13062535 0.059196215 -0.15839218 -0.12941699 -0.11573419 0.15286268 0.028349932
0.1276049 -0.13642344 0.17084375 0.12843171 0.0010080024 -0.1059459 0.069618054 -0.09923322
-0.06542427 0.044391807 -0.15391287 0.01451943 0.0061882627 0.042300645 -0.0009021204 0.036341697
-0.11347658 0.11680392 -0.173864 0.077150725 -0.14183226 0.18349753 0.05120919 0.049253926
0.0044592684 0.045192808 -0.084181994 -0.19195929 0.116185315 0.14176717 -0.07802233 -0.019482141
-0.03728518 -0.050257742 0.11518384 -0.1404066 -0.23007703 -0.10619408 -0.087757416 -0.0863455
-0.111873426 -0.036500122 0.122594625 0.07034821 0.16560635 0.17805289 0.0039960775 -0.04548612
-0.031142434 -0.10742395 -0.027600767 -0.08374495 -0.027764285 0.17735857 0.10995634 0.099808075
0.11796489 -0.10241296 0.05779823 -0.029914964 0.059038125 0.12243869 -0.04483681 0.13239343
-0.008134457 -0.037757628 0.11488168 0.14259024 -0.047446664 0.07094227 -0.02146623 0.010004217
-0.14618494 -0.07514285 0.038942225 -0.031414583 -0.005322421 0.042242352 -0.07954427 0.077828646
0.16458601 0.15902627 0.14032583 -0.049683113 0.018004388 -0.0882289 -0.10802597 -0.04112041
00000000: 22af 34be 5164 183e ce72 92bd f9fd 54bd
00000010: c29c 083d 1ef6 bd3d ec4e 61bd 5738 983d
00000020: a3c3 b93d a7f1 acbc 5e05 f63d a2f0 07be
00000030: a754 0fbe f1c8 8abc 5a50 18bd 2068 1e3d
00000040: 13f2 bb3d 8f36 26be 2ce4 ba3d 5f53 da3c
00000050: 8ea6 123e 5db0 df3d fc1f 7abd 0212 d1bc
00000060: 2adb 19be eca1 8a3d 5fb1 2e3e 536d 9f3d
00000070: 88c6 193e b186 833d ea98 7e3d c6e5 debc
00000080: 090f 2abe 6e00 39bd 705a fc3d 31b2 0f3e
00000090: 05bc 17bd bbf9 273e dc5a 033e 7ec6 20be
000000a0: 8c60 31be a34b 8dbd 7c38 75bc 84bf 913d
000000b0: 03e3 a43d 37b6 673d 1ec6 b6bd 673a e73d
000000c0: de20 293d 9014 eebd 669a 06be f467 fc3c
000000d0: 84dc 333e e08a 04be 5490 b83a a281 3cbe
000000e0: 9c8a d93d 2693 7d3d a5ab a8bc 3734 dc3d
000000f0: f5db b03d fdec de3d bf85 c83c 395d 213b
00000100: bc9c 883d 6763 9a3d 3154 21be c923 a4bd
00000110: 335e dd3d bd7d 4fbd 1822 0b3e 2829 3dbd
00000120: 3a03 1c3e 1107 13be 758e b53d d293 babd
00000130: 8be9 f53d 6d7b ed3d fa73 b23d 50b5 a83d
00000140: ab81 e53d 0d62 a0bd b644 7cbd 8688 903d
00000150: 090c 09be 40f2 c7bc 7624 8a3d fe91 35be
00000160: e467 92bc 4f75 6bbc f32b 0abe 2eb9 dd3d
00000170: 6d65 b83a a8e6 1fbe b695 88bd 023b 1c3d
00000180: aaef 0b3e 19e3 8fbd 60a9 2e3e 9420 84bd
00000190: e4fa 00be b6b2 5abd 3757 cfbd ec2d 693d
000001a0: 77c4 f13d 99e2 0abe 2b41 e3bd 971d d13d
000001b0: 36fe 2bbd f961 263e 596b 2d3e 73e2 0dbe
000001c0: 9c00 c93d 06cc 29be 9034 3b3d e31c d6bd
000001d0: 7bb0 a13b f497 2b3e df77 043d 14a6 8fbd
000001e0: 5be1 cc3d 83cc 62bc 8cc3 2e3e 729d f3bd
000001f0: baa1 70bd c6f0 20be 9ec5 c7bd 7259 8bbd
00000200: c1dc e0bd bd98 0bbe 1299 d3bc a2ee b6bd
00000210: b563 d5bd 15ed 7abc 5503 07be 73ef d33d
00000220: cfcb d73d bb9f 423e b666 7e3d 94a9 05bc
00000230: 097f 21bc d53c a2bd d2ab 023e 33d8 cd3d
00000240: 0450 f33d 6b47 25bd 7c57 0cbe 6eb6 363d
00000250: 0e0a 143e 8185 07bd 6093 183e ab60 ef3d
00000260: 716c 913d 3703 60bd 056d 54bd c5dd 8abc
00000270: fb52 0dbb 1b01 e9bc e3e2 2cbe 312e d8bd
00000280: 599e 95bd a7c2 053e bb77 723d 8f31 22be
00000290: e385 04be 0c06 edbd 0988 1c3e 1e3e e83c
000002a0: dcaa 023e 96b2 0bbe aaf1 2e3e 9a83 033e
000002b0: f31e 843a 2afa d8bd e993 8e3d c93a cbbd
000002c0: 29fd 85bd 2fd4 353d 569b 1dbe e7e2 6d3c
000002d0: e9c6 ca3b 7143 2d3d 467c 6cba 08db 143d
000002e0: 6966 e8bd e536 ef3d 6809 32be 3301 9e3d
000002f0: 7a3c 11be c7e6 3b3e bac0 513d 7cbe 493d
00000300: 0e1f 923b 181c 393d 9c67 acbd fa90 44be
00000310: 91f2 ed3d 6a2b 113e 2cca 9fbd 0399 9fbc
00000320: 58b8 18bd 10db 4dbd 81e5 eb3d bfc6 0fbe
00000330: 5099 6bbe 487c d9bd 29ba b3bd e9d5 b0bd
00000340: e51d e5bd 2781 15bd e412 fb3d b912 903d
00000350: b694 293e 7f53 363e 87f1 823b a74f 3abd
00000360: 6b1e ffbc 1701 dcbd 011b e2bc 7982 abbd
00000370: ed71 e3bc 7c9d 353e ca30 e13d 2d68 cc3d
00000380: 9497 f13d e3bd d1bd d6bd 6c3d 3a10 f5bc
00000390: f6d1 713d 23c1 fa3d cea6 37bd 2592 073e
000003a0: 6346 05bc bea7 1abd 1647 eb3d 2d03 123e
000003b0: 6f57 42bd 2e4a 913d f2d9 afbc bae8 233c
000003c0: 81b1 15be 7fe4 99bd e281 1f3d 94ac 00bd
000003d0: b467 aebb 5106 2d3d 1be8 a2bd a064 9f3d
000003e0: 3c89 283e c8d7 223e 93b1 0f3e 8580 4bbd
000003f0: f07d 933c 5bb1 b4bd b83c ddbd e06d 28bd

mlp.0.bias f4 [16]
-0.09852785 0.08724235 0.019635793 -0.04059231 -0.13812454 0.0010604582 0.14882648 -0.08177192
0.055667948 -0.18554392 -0.05137422 -0.0149694765 -0.16567297 0.05067513 -0.16011152 0.12495357
00000000: f8c8 c9bd 1eac b23d 3edb a03c 1f44 26bd
00000010: 8570 0dbe 13ff 8a3a f865 183e 0978 a7bd
00000020: 1304 643d 3aff 3dbe c66d 52bd 8942 75bc
00000030: 2da6 29be ba90 4f3d 46f4 23be a8e7 ff3d

mlp.3.weight f4 [2, 16]
0.07653243 -0.002759955 -0.15315254 -0.09741122 0.067660734 0.23151149 -0.07035143 -0.17008568
-0.10432489 -0.16715421 -0.07153677 -0.16473775 0.16865472 0.20665726 -0.14659932 0.24779318
0.026483957 -0.15297581 0.10291201 -0.21456206 -0.13992408 -0.17161414 -0.18843366 -0.05412893
0.05035879 0.035278484 -0.2057402 -0.25274888 -0.025315195 0.18416403 0.08013814 0.19584896
00000000: 09bd 9c3d 5ce0 34bb 05d4 1cbe 897f c7bd
00000010: b691 8a3d 5911 6d3e 6914 90bd f12a 2ebe
00000020: 4aa8 d5bd 792a 2bbe df81 92bd 03b1 28be
00000030: d3b3 2c3e f69d 533e 221e 16be 7fbd 7d3e
00000040: e2f4 d83c b1a5 1cbe 88c3 d23d 28b6 5bbe
00000050: 4248 0fbe 9ebb 2fbe c1f4 40be 4cb6 5dbd
00000060: 0545 4e3d 2c80 103d 8fad 52be 4d68 81be
00000070: d061 cfbc 7f95 3c3e 771f a43d a18c 483e

mlp.3.bias f4 [2]
-0.074277446 0.025515022
00000000: c61e 98bd e104 d13c

weight f4 [15, 20]
1.9393907 1.4899842 0.8863612 -2.1286983 0.6762173 -1.2425237 -0.037757814 -1.6190388
-0.74553704 1.6415255 -0.39308617 -1.4255562 -0.7321587 -0.59005654 -0.77409625 0.73124284
1.6439177 -0.16554564 -0.47990736 0.42709163 -0.7466936 1.0593469 0.8229485 1.6978686
1.298592 1.2816012 0.5828271 1.3399034 -0.24139951 0.08127155 -0.27457687 0.86152977
-1.3796802 -0.8652473 -0.24038659 1.6998931 0.3301735 -0.41670024 0.2672924 -0.7450588
-1.5752199 1.0037355 -0.87449443 -0.5944222 -1.290372 2.1329248 -1.1965709 -0.46014208
-0.9066563 -0.65393054 0.06861204 0.49878532 -0.47138065 1.1982118 -0.7943461 -0.74897915
-1.3834798 0.03486417 -0.056812447 0.6992747 -0.11729684 1.8376316 -1.1806768 1.3833588
1.4439149 0.8558647 2.219747 0.53748846 0.34160137 -0.23613648 -1.0578737 1.2613035
-0.17455512 0.54597306 0.051642716 0.42807752 0.6042737 -0.6811231 -2.2025187 -0.7679755
0.0031495108 -0.3161325 -1.3701658 -0.56922567 0.5049991 0.51210874 1.1873434 0.028952496
0.7802123 -0.5381659 -1.0550822 0.57782066 -1.7358482 -0.81425095 1.364675 0.5135763
-2.535609 0.48247808 0.778211 0.00045340313 0.66675764 0.5757336 1.0872675 -0.440208
-0.1914484 0.7449648 0.43503729 0.20955351 0.24359229 1.2921485 -0.0065238248 -0.29648235
-1.4475282 -0.08090895 -0.59991336 0.48233742 0.72676814 0.11934544 -0.408304 0.5870151
-0.032473516 0.2190951 0.16842194 0.73441637 1.0513436 0.34109098 0.7266824 0.38938627
1.9367698 1.041975 -1.446798 -1.1428192 -0.14465591 1.6626799 0.6529553 0.5763089
1.1637526 0.030113708 -1.8157108 0.942228 -0.37354654 1.0425664 -0.6672306 0.6049045
-0.96172905 0.9632062 1.650823 1.4472551 0.27693734 -0.20431468 -0.7328684 0.08297298
0.37638736 0.97820854 -0.47577727 1.6370113 -2.4436698 -0.41540366 -1.217098 0.81145996
-1.880285 0.24390422 0.02405481 -0.3586185 0.2766463 -0.75711095 0.22148892 -1.0782677
-1.6061809 1.3877037 1.2490093 0.06577997 -1.5531965 0.77284294 0.7533502 2.0547805
0.048826963 0.15023129 -0.8333033 -0.18418956 0.0 0.0 0.0 0.0
0.0 0.0 0.0 0.0 0.0 0.0 0.0 0.0
0.0 0.0 0.0 0.0 0.0 0.0 0.0 0.0
0.5260621 2.112038 -0.52075714 -0.9320061 0.18516134 1.0686918 1.3065344 0.45983452
-0.8146269 -1.0212393 -0.49492356 -0.59225166 0.15431595 0.44076708 -0.1482923 -2.3184433
-0.39799532 1.0804863 -1.7808644 1.5080454 0.28472212 -0.5059557 1.0677022 1.6778649
0.008258169 1.6542495 0.14323872 -1.0255144 -0.5809304 0.065426305 0.39786112 1.9973078
-0.118106075 -0.875566 -2.0796857 -1.0865299 0.04286985 0.037033066 0.16943978 0.41497728
-0.89884907 0.29098558 -0.53298706 0.44273466 -0.8515742 -0.04395184 -0.35369036 1.4241674
1.2414378 -0.6690816 0.82265294 0.5293852 0.5548091 0.5283048 0.4913996 0.22842313
00000000: f43d f83f cdb7 be3f 91e8 623f 983c 08c0
00000010: 941c 2d3f 040b 9fbf f0a7 1abd aa3c cfbf
00000020: 84db 3ebf 821d d23f 9742 c9be a078 b6bf
00000030: c16e 3bbf f20d 17bf 2c2b 46bf bb32 3b3f
00000040: e56b d23f cc84 29be 6bb6 f5be c1ab da3e
00000050: 5027 3fbf ae98 873f c1ac 523f c253 d93f
00000060: 4338 a63f 820b a43f 2834 153f f481 ab3f
00000070: 6f31 77be b371 a63d 5795 8cbe 378d 5c3f
00000080: 5c99 b0bf d980 5dbf e727 76be 1996 d93f
00000090: 800c a93e bc59 d5be 8dda 883e 2cbc 3ebf
000000a0: cea0 c9bf 687a 803f dede 5fbf 0e2c 18bf
000000b0: e92a a5bf d781 0840 3c29 99bf be97 ebbe
000000c0: a11a 68bf fe67 27bf 7884 8c3d ca60 ff3e
000000d0: ce58 f1be 015f 993f 445a 4bbf 19bd 3fbf
000000e0: de15 b1bf bbcd 0e3d 2bb4 68bd ab03 333f
000000f0: 5339 f0bd 8337 eb3f 6b20 97bf e711 b13f
00000100: 34d2 b83f f319 5b3f 5610 0e40 d898 093f
00000110: 60e6 ae3e c3cd 71be 6868 87bf 6572 a13f
00000120: 94be 32be e4c4 0b3f 5087 533d fa2c db3e
00000130: aeb1 1a3f 155e 2ebf 11f6 0cc0 0b9a 44bf
00000140: 0668 4e3b 1edc a1be 9861 afbf c6b8 11bf
00000150: 9f47 013f 8f19 033f defa 973f c92d ed3c
00000160: febb 473f 3ec5 09bf ef0c 87bf 0eec 133f
00000170: 4630 debf c072 50bf acad ae3f bd79 033f
00000180: 6b47 22c0 5e07 f73e d638 473f bdb6 ed39
00000190: a1b0 2a3f 4763 133f 952b 8b3f f162 e1be
000001a0: 0d0b 44be 03b6 3e3f 35bd de3e 3295 563e
000001b0: 4270 793e 1f65 a53f cfc5 d5bb 89cc 97be
000001c0: 9b48 b9bf 97b3 a5bd ec93 19bf eef4 f63e
000001d0: 7a0d 3a3f 626b f43d 390d d1be 9f46 163f
000001e0: f302 05bd 775a 603e cd76 2c3e b602 3c3f
000001f0: 6d92 863f 7aa3 ae3e dc07 3a3f a35d c73e
00000200: 13e8 f73f 705f 853f ad30 b9bf e647 92bf
00000210: ae20 14be b2d2 d43f 1428 273f fb88 133f
00000220: d8f5 943f 06b1 f63c 3669 e8bf db35 713f
00000230: 7e41 bfbe d172 853f a0cf 2abf 05db 1a3f
00000240: e033 76bf ae94 763f 2b4e d33f a83f b93f
00000250: bbca 8d3e de37 51be 439d 3bbf bded a93d
00000260: d8b5 c03e e06b 7a3f 1499 f3be 9689 d13f
00000270: 1665 1cc0 caaf d4be dec9 9bbf d7bb 4f3f
00000280: 2ead f0bf 07c2 793e 980e c53c d89c b7be
00000290: 95a4 8d3e 06d2 41bf fecd 623e ad04 8abf
000002a0: 5697 cdbf 46a0 b13f 89df 9f3f a6b7 863d
000002b0: 25cf c6bf 09d9 453f 8fdb 403f 8681 0340
000002c0: c8fe 473d 3bd6 193e 5d53 55bf 309c 3cbe
000002d0: 0000 0000 0000 0000 0000 0000 0000 0000
000002e0: 0000 0000 0000 0000 0000 0000 0000 0000
000002f0: 0000 0000 0000 0000 0000 0000 0000 0000
00000300: 0000 0000 0000 0000 0000 0000 0000 0000
00000310: 0000 0000 0000 0000 0000 0000 0000 0000
00000320: 01ac 063f a12b 0740 5750 05bf f497 6ebf
00000330: ef9a 3d3e e5ca 883f 853c a73f 6e6f eb3e
00000340: 638b 50bf f8b7 82bf 9f66 fdbe ce9d 17bf
00000350: 0005 1e3e 39ac e13e f0d9 17be 6061 14c0
00000360: 0bc6 cbbe 604d 8a3f 5df3 e3bf a207 c13f
00000370: 19c7 913e 5086 01bf 77aa 883f 47c4 d63f
00000380: 454d 073c 73be d33f 2cad 123e 0e44 83bf
00000390: dbb7 14bf 3afe 853d 74b4 cb3e c8a7 ff3f
000003a0: 99e1 f1bd 1825 60bf 9219 05c0 6913 8bbf
000003b0: 4c98 2f3d fcaf 173d 9f81 2d3e e777 d43e
000003c0: f91a 66bf 10fc 943e d771 08bf 1eae e23e
000003d0: c400 5abf d806 34bd e716 b5be 1e4b b63f
000003e0: 6fe7 9e3f ef48 2bbf 6299 523f ca85 073f
000003f0: f807 0e3f fc3e 073f ba98 fb3e c1e7 693e

weight_ih f4 [128, 20]
0.15444079 0.18702075 -0.00045566767 -0.015278911 -0.09413671 -0.07677526 0.12083671 0.043832097
-0.14996353 -0.10041718 -0.1227333 -0.20241342 -0.15843014 -0.0913954 0.11518026 0.07054133
-0.09628846 -0.12150416 0.081805296 -0.11299914 -0.019922964 0.07886632 -0.100453176 -0.019891303
-0.0026456765 -0.031564105 -0.08614565 -0.12992284 -0.13507222 -0.10217659 0.15913774 -0.082760006
-0.111688696 0.05415925 0.07051274 0.10011564 0.113550186 0.10380578 -0.18590622 0.02579473
0.10470967 -0.03216875 -0.09437058 0.15211707 -0.055421192 -0.11458337 -0.17873311 -0.02724909
0.08279393 0.05982908 0.03800781 -0.14926943 -0.17545968 0.006686725 0.20143309 0.09845266
-0.08900056 -0.014996929 -0.11421307 -0.07252725 0.01642582 0.097587615 0.13933256 -0.15964061
0.114280604 -0.101685554 0.05557953 0.15627004 -0.009161628 0.15086156 -0.16377102 -0.046091724
0.09460658 -0.035107274 -0.07374087 -0.08220783 0.12389232 0.08868948 0.06472813 -0.09752869
-0.15106216 -0.021758538 0.031577546 -0.11010598 -0.019692596 0.1485557 -0.011833027 0.026657289
-0.05488748 -0.14543949 -0.17150797 -0.053387012 -0.10058752 0.053063057 -0.027630966 -0.050604973
0.17212345 0.1025299 0.115179025 -0.054266527 -0.10086425 0.07322915 -0.13892534 -0.098978154
-0.030272834 -0.050065182 -0.11100277 0.12598903 0.14517058 0.033480693 -0.04203554 -0.15958855
-0.080637306 0.075878955 0.082196645 0.0050487802 -0.107594065 0.09545982 -0.15530735 0.12665911
-0.071837194 0.0030618266 -0.059912186 0.007020572 -0.051766474 0.13302028 -0.0043654568 0.123486884
0.16485551 -0.091136076 -0.13660167 0.15504263 0.13379161 -0.14166838 -0.013308021 -0.18476094
-0.15142614 0.040841877 0.04436329 0.03210131 -0.066569485 0.14429604 0.0041628545 -0.10684281
-0.019167932 0.065890566 0.05704474 -0.120991684 0.06855637 -0.08785589 -0.16937093 -0.077865556
0.15367539 0.16573377 0.14566131 0.10559852 0.11659214 -0.009728046 -0.07307181 0.11372327
-0.06291358 -0.120696135 -0.06558209 -0.00629289 0.11287177 -0.08405121 -0.1089872 -0.001888589
-0.14619559 -0.100025356 0.10095995 -0.034829527 0.15928198 0.15156586 0.06793919 0.08204727
0.03712536 0.040329624 -0.032542977 0.028773682 0.079123646 0.1788802 -0.025118476 -0.06631581
-0.038138706 -0.0724755 0.03817344 0.15607433 0.13079937 0.09688718 -0.12009113 -0.11183124
-0.0078677405 -0.007510133 0.018841406 -0.14737585 0.063336104 -0.13893922 -0.1557489 -0.13142478
0.14269707 -0.18239078 0.11419407 -0.018480465 -0.024087533 0.11362879 -0.027734049 0.1022867
0.11425091 -0.15447207 0.076673836 0.047152814 0.037014406 0.034309555 0.06928877 -0.09388979
-0.033686943 0.17892665 0.121341854 -0.0005028341 -0.15587096 0.016762687 -0.0931313 0.12666287
-0.11424135 -0.02312217 -0.058068164 0.011784982 0.1511114 0.033671048 0.11931971 0.11556377
0.12609446 -0.07681146 -0.053289905 0.08824995 -0.03960324 0.07138324 -0.020534398 -0.10692737
0.064787865 0.032794148 0.08199258 0.14191927 0.10645937 0.14400482 0.0021304726 -0.19309542
-0.13913132 -0.078152075 -0.1726939 -0.09029014 -0.23277886 -0.18991695 -0.14437024 -0.16782616
00000000: ba25 1e3e 5e82 3f3e aee6 eeb9 6654 7abc
00000010: bfca c0bd 593c 9dbd 3d79 f73d 4989 333d
00000020: 0a90 19be 86a7 cdbd 995b fbbd 7745 4fbe
00000030: 833b 22be 832d bbbd a1e3 eb3d f977 903d
00000040: e232 c5bd 2cd7 f8bd 8989 a73d 186c e7bd
00000050: 7c35 a3bc aa84 a13d 65ba cdbd 16f3 a2bc
00000060: 1663 2dbb 5d49 01bd 216d b0bd 7e0a 05be
00000070: 5f50 0abe f641 d1bd 01f5 223e 147e a9bd
00000080: 0bbd e4bd 17d6 5d3d fc68 903d 6e09 cd3d
00000090: 008d e83d 2098 d43d 335e 3ebe 784f d33c
000000a0: 0672 d63d 61c3 03bd 5d45 c1bd 94c4 1b3e
000000b0: 5501 63bd b0aa eabd d005 37be 7c39 dfbc
000000c0: dd8f a93d 560f 753d 14ae 1b3d 16da 18be
000000d0: b4ab 33be 511c db3b 7a44 4e3e 8ca1 c93d
000000e0: ed45 b6bd aeb5 75bc 8be8 e9bd 2b89 94bd
000000f0: 718f 863c 04dc c73d 32ad 0e3e d478 23be
00000100: f30b ea3d 8440 d0bd 5ca7 633d 4105 203e
00000110: a71a 16bc 747b 1a3e 97b3 27be adca 3cbd
00000120: 18c1 c13d a5cc 0fbd 7405 97bd 945c a8bd
00000130: 42bb fd3d d5a2 b53d 2f90 843d 1fbd c7bd
00000140: 0ab0 1abe f63e b2bc 7557 013d 3e7f e1bd
00000150: 5e52 a1bc fc1e 183e 50df 41bc 6360 da3c
00000160: b2d1 60bd 17ee 14be c99f 2fbe 57ac 5abd
00000170: d400 cebd a658 593d 565a e2bc 2947 4fbd
00000180: 2141 303e 32fb d13d fbe2 eb3d 9446 5ebd
00000190: ea91 cebd 2af9 953d 7242 0ebe 0fb5 cabd
000001a0: bcfe f7bc 2611 4dbd 6c55 e3bd 4503 013e
000001b0: 99a7 143e 0d23 093d 752d 2cbd 2e6b 23be
000001c0: 2c25 a5bd 6d66 9b3d b756 a83d 3d70 a53b
000001d0: 475a dcbd 7080 c33d e408 1fbe edb2 013e
000001e0: 611f 93bd eda8 483b 7b66 75bd d40c e63b
000001f0: 1509 54bd 7836 083e 1b0c 8fbb b1e6 fc3d
00000200: e2cf 283e 8da5 babd 4fe1 0bbe 7fc3 1e3e
00000210: ab00 093e 8411 11be e309 5abc f931 3dbe
00000220: 740f 1bbe d049 273d 48b6 353d aa7c 033d
00000230: 9555 88bd 57c2 133e 8e68 883b 67d0 dabd
00000240: 1106 9dbc a2f1 863d bfa7 693d 7dca f7bd
00000250: 4867 8c3d caed b3bd 936f 2dbe fa77 9fbd
00000260: 155d 1d3e 1db6 293e 3d28 153e 0944 d83d
00000270: dcc7 ee3d 6262 1fbc aca6 95bd bfe7 e83d
00000280: d6d8 80bd 892f f7bd e74f 86bd 9634 cebb
00000290: 5129 e73d 0a23 acbd ae34 dfbd 888a f7ba
000002a0: 4cb4 15be 18da ccbd 17c4 ce3d 68a9 0ebd
000002b0: d11a 233e 1534 1b3e b423 8b3d 6608 a83d
000002c0: c310 183d ad30 253d c94b 05bd c9b6 eb3c
000002d0: 940b a23d 5f2c 373e 43c5 cdbc 95d0 87bd
000002e0: 5537 1cbd 096e 94bd c15b 1c3d f3d1 1f3e
000002f0: 45f0 053e c96c c63d 57f2 f5bd c707 e5bd
00000300: b2e7 00bc 9017 f6bb 4b59 9a3c b2e9 16be
00000310: 5cb6 813d 1546 0ebe a47c 1fbe 3894 06be
00000320: 2e1f 123e a6c4 3abe 95de e93d 5864 97bc
00000330: 3853 c5bc 36b6 e83d 8432 e3bc b07b d13d
00000340: 62fc e93d ed2d 1ebe 2c07 9d3d 4f23 413d
00000350: 6b9c 173d 2d88 0c3d 45e7 8d3d 4a49 c0bd
00000360: 52fb 09bd 8c38 373e 1482 f83d a0d0 03ba
00000370: a39c 1fbe e751 893c 9fbb bebd e9b3 013e
00000380: 5ef7 e9bd b46a bdbc e2d8 6dbd cc15 413c
00000390: f2bc 1a3e a7ea 093d e45d f43d b3ac ec3d
000003a0: e81e 013e 544f 9dbd 8446 5abd 64bc b43d
000003b0: 0237 22bd 6031 923d c137 a8bc bdfc dabd
000003c0: 80af 843d 2853 063d baeb a73d 4953 113e
000003d0: 5f07 da3d 0076 133e 669f 0b3b ceba 45be
000003e0: 7178 0ebe 320e a0bd abd6 30be 09ea b8bd
000003f0: 955d 6ebe 9779 42be cbd5 13be 9fda 2bbe
