assignment_3/outputs/models/pos_neg_examples.pth (torch, 121020 bytes, 20 tensors)

embedding.weight f4 [15, 30]
00000000: c1f3 8ebf d828 313f f7e3 1bbf 4848 4e3f
00000010: 007d 353f 22f5 01bf 90c4 8dbf ea02 873e
00000020: e52d 14bf d2c4 fe3e 8149 91bf 8b11 453f
00000030: 2990 2bc0 567b 863d 2745 173e b4b0 2540
00000040: 7fbf 25bf f42d 863f ae95 763f 3cd7 df3e
00000050: 833f ce3f 8c3e c0be d024 4ebf 3664 5abf
00000060: ff8e 56be 43ff e33d 3108 c4be 78e8 24bf
00000070: 1e31 2abf c05d 3e3f 4d49 6bbd 60d5 f13b
00000080: 3b7b 74bf 547a 9e3f f89b 6cbe 0839 5e3e
00000090: a851 c9be 75c8 dbbe 3e0a 7f3f 1245 e7bf
000000a0: 883b ecbd 6411 663f 6dc0 ba3f bd98 c6be
000000b0: c152 9a3f b36b ecbd fe6c ac3f ca0b 5e3f
000000c0: 18b3 02bf 4718 ca3d 22c9 0bbc 82a5 85bf
000000d0: b6bc 953f a577 0cc0 42d1 373e 72f3 c1bf
000000e0: a4dd bfbe a08c 193f be7f 2ebf 847b 6f3e
000000f0: 8c56 e43f 02c9 8a3f e77c e2bf d8d2 303f
00000100: 86f5 093f 3254 87bf e406 433f 21db 25be
00000110: f7fd 38bf efeb 913f 59ca f0be 19b8 3dbf
00000120: c0ec 9cbf 3fe5 3cbf 0d13 99bf 6759 d5be
00000130: 0814 893d 142f 96bf 56c7 fa3f 1b03 ed3e
00000140: 9301 45bf 8187 423f ed0f c0be 6363 f4be
00000150: cee6 18c0 6bed 0a40 fb22 d9bf 5d97 c8bf
00000160: ce94 96bf 9175 de3f 9bfb 6fbb a8ca 573f
00000170: b75f 5abf 97e8 9e3f bd0e 1dbf 4f04 913f
00000180: b645 9e3f af5b 0bbf f499 833f 39c1 a33f
00000190: 60bc 0dbf 19e4 e6bf d885 9a3e 0272 03bf
000001a0: 9b1f 983f 9398 0f3e 2cdb 62bf 9866 78be
000001b0: ebd7 d73f 6af3 3cbf 9d43 b03f 47e7 043f
000001c0: 1e35 2b3f 59a6 2a3f 085d 943e fbe8 5cbf
000001d0: 0ef5 c6bf 42d1 a0bf b3db 8c3f cd3d 23be
000001e0: 533e 15bd c15a 82be 2fb6 773e 038f 293f
000001f0: 38c5 87bf c3ce 75bf 32f7 3b3d 7566 ecbf
00000200: f6f9 d63f b29d 1dbf fe5c 30be 1026 91be
00000210: be84 fc3e b471 383f 4890 b13e 7f5f 013f
00000220: 60e3 61be 6733 b4bf 63c4 b53f 0078 03c0
00000230: 014f 58bf 5e0f 4f3f 4291 1c3f 2de3 4a40
00000240: 9f04 0cbf fb86 85bf 5ecc 15be a933 a23e
00000250: 4ea2 1fc0 5c81 5c3f 370f 763e cee8 7b3e
00000260: 2714 183f bb62 dbbe 07fb 4dbd 9d0e 49bf
00000270: 94e1 193f 2c53 6a3f e431 a1bf 0808 f93e
00000280: 9ae0 ed3e 9dd0 3dbd 7063 273f b925 bfbf
00000290: 7014 bd3f 1417 f93d ff76 72bf 8058 e13e
000002a0: 7556 81bf 966e 17bf 54e4 27bf 8cd6 4dbd
000002b0: 2932 89bf d8ab 7ebf d3c2 e63e 60d4 1d3f
000002c0: bde6 ac3f 165a 3a3e 980e 223e 22df 82bf
000002d0: c869 3dc0 138d da3e c5b8 55bf 5d84 ca3f
000002e0: 89e3 093f ebc7 d63f dcb7 a93f 655d c63e
000002f0: 1efd 1dbe 7e5c 01bf fe9c 66bf 7388 da3f
00000300: 130a a6be 4fe6 0abf 2b51 4abf 64fc 16bf
00000310: abe8 dcbf 2733 213f 080a 21bf 1646 84bf
00000320: b847 15c0 8ae3 80bf 90e2 e03d 8352 e93f
00000330: 3f8e 2b3e 5f33 52bf 6c4a f3bf f845 af3f
00000340: 4a1a 5f3e 0e6d 8a3f 5e97 6740 9b03 4c3f
00000350: 4f9e 953f d66f 173f 35d3 46bf 59cb 083f
00000360: 0aa2 2e3f c250 2f3f b82f 68be f473 83bf
00000370: d72a ac3e 06eb 1d3f 6627 debf 274f a9bf
00000380: f919 aabf 1a54 093f 227a 843f f469 b13f
00000390: 5927 9c3f 672d 9c3f a66b 4e3f 2252 c9be
000003a0: 3b88 c03f ba6c 793f 18b5 a93f e703 423c
000003b0: ee6e b3be 7678 1b3f 5523 1140 378a 68bf
000003c0: e285 49be f64c 833f 4b54 9a3f 3d13 a13f
000003d0: be2f 84bf f097 71bf 9388 12bf fc97 1c3d
000003e0: 65cd c53f 9078 c73f 381e abbf d052 aebf
000003f0: abaa c4be 37ff 4abf ef98 babf 1d99 bcbe
-1.1168138 0.6920295 -0.6089472 0.8057904 0.7089386 -0.5076467 -1.1075611 0.2636941
-0.5788253 0.49759537 -1.1350557 0.76979893 -2.6806738 0.06566493 0.14772473 2.58891
-0.64745325 1.0482774 0.96322143 0.43718898 1.6113132 -0.3754772 -0.8052492 -0.8530916
-0.20952986 0.11132672 -0.382875 -0.6441722 -0.66481197 0.743618 -0.057442952 0.0073801726
-0.95500535 1.2381082 -0.23106372 0.21701443 -0.3932011 -0.42926374 0.99625003 -1.8067954
-0.11534792 0.89870286 1.4589974 -0.38788405 1.2056504 -0.115439795 1.3470762 0.8673674
-0.51054525 0.09867912 -0.0085318405 -1.0441134 1.1698215 -2.1948025 0.1795092 -1.5152419
-0.37473786 0.599802 -0.6816367 0.23386961 1.7838912 1.0842593 -1.7694367 0.6907172
0.53890264 -1.0572569 0.7618239 -0.16196872 -0.7226252 1.1400126 -0.4702938 -0.74109036
-1.225975 -0.737873 -1.1958939 -0.4166977 0.06693274 -1.1733117 1.9592083 0.46291432
-0.7695553 0.7598801 -0.3751215 -0.47732076 -2.3890872 2.1707408 -1.69638 -1.5671192
-1.1764162 1.7379628 -0.0036618474 0.84293604 -0.853023 1.2414731 -0.61350614 1.132944
1.2365024 -0.54436773 1.0281358 1.2793342 -0.5536556 -1.803836 0.3018024 -0.5134584
1.1884645 0.14023046 -0.8861568 -0.24257886 1.6862768 -0.7380892 1.3770634 0.519154
0.66877925 0.66660076 0.28977227 -0.86293 -1.5543535 -1.256386 1.1004547 -0.15941544
-0.03643639 -0.25459865 0.24190591 0.66233844 -1.0607061 -0.9601862 0.04589004 -1.8468767
1.6795032 -0.6156875 -0.17222974 -0.28349352 0.49320024 0.720485 0.3468039 0.5053634
-0.22059393 -1.4078187 1.4200557 -2.0541992 -0.8449555 0.80882823 0.61159146 3.1701157
-0.5469455 -1.0431818 -0.14628741 0.3168004 -2.4942813 0.86134887 0.24029242 0.24600527
0.5940575 -0.42848763 -0.050288226 -0.78537923 0.6010983 0.9153316 -1.259335 0.4863894
0.4646042 -0.046341527 0.65386105 -1.4933387 1.4771862 0.12162605 -0.94712824 0.44012833
-1.010451 -0.59153116 -0.65582776 -0.050253436 -1.0718433 -0.9948096 0.45070514 0.61652184
1.3507916 0.18198428 0.1582588 -1.0224345 -2.9595814 0.42685756 -0.8348506 1.5821644
0.53862816 1.677976 1.3259234 0.3874313 -0.15428588 -0.50531757 -0.900833 1.7072891
-0.3242956 -0.54257673 -0.790301 -0.5897887 -1.7258505 0.6296868 -0.6290593 -1.0333889
-2.3325024 -1.006944 0.10980713 1.8228306 0.16753481 -0.82109636 -1.9007087 1.3693228
0.21787372 1.0814531 3.6186137 0.79693 1.1688937 0.59155023 -0.77666026 0.53435284
0.68216 0.684826 -0.22674453 -1.0269761 0.33626434 0.6168674 -1.7355773 -1.322728
-1.3289176 0.53643954 1.0349772 1.3860459 1.2199508 1.2201356 0.8063301 -0.39320475
1.5041574 0.9743153 1.325839 0.011841751 -0.3504557 0.60730684 2.2677815 -0.908359
-0.19679978 1.0257862 1.2056974 1.2583996 -1.032707 -0.94372463 -0.57239646 0.03823088
1.5453306 1.5583668 -1.3368597 -1.3619022 -0.3841146 -0.79295677 -1.4577922 -0.36835566

lstm.lstm_cell.weight_ih f4 [256, 30]
00000000: bb4e b43d 58de 8b3e e01c 953e c980 84bd
00000010: 316c bcbd cf48 9abe 9948 68be b4ab aa3d
00000020: d740 04be b7f0 92bd fae8 5abd 6a05 103e
00000030: 8718 a2be 2b40 8d3d e5a8 a3bc 160a 1e3e
00000040: 571f ed3d b527 503d 2fb6 a0bd 3b24 283e
00000050: 9a7e 753e 0ae1 cebd f1f8 9b3d b089 b33d
00000060: d10f 743e 9b58 2a3e e197 d83e a2e9 5bbd
00000070: 099a 863d 3f1f a3bd 9562 4dbe ffe7 ad3e
00000080: 664d 43be 009c 7c3e a98e 4dbd 4657 c8be
00000090: e5ac 47be f583 dabd 0db4 043d fa5d aebc
000000a0: b6ff 3abe 4e6c b83d 1482 e3bc 3ac3 8c3d
000000b0: 127c 983e 2baf a83e 2daa acbd 99dc 96bd
000000c0: 479c 7fbd 6599 b4be 0d7e c8bb 2909 77be
000000d0: 9831 053e 38c6 6f3d 4054 6abd 3d92 333c
000000e0: 4425 743e c959 883d a3fc 5cbe bd79 053e
000000f0: 139d 543e 2e7a 2bbe 9937 56be cef5 b4bd
00000100: 59fd bfbd 5fc9 10be 3e0d eebd 2c2c 0ebe
00000110: 7c40 9fbd 1b80 c5bd 9c12 373c b3e6 3f3d
00000120: c5d9 cfbd 66e3 613e c038 f33d 1896 ce3e
00000130: 9a90 a13d 4e1b c9bd eeac 0d3f d1b8 e3bc
00000140: eb58 db3d cb0c e23e 7051 6dbe 6413 4fbe
00000150: 9e80 f6bd 9d3b 44be 9cec 21be f739 ccbe
00000160: 6a31 00bc b05b 433e 7f93 7c3b 6560 b33e
00000170: 31cb 873e 0427 c03d 9010 4fbc 6fd6 3e3c
00000180: 0f4a 7f3d 516b bf3d f96f 513b 1a86 cc3d
00000190: fd8e 98bd f162 26be 1721 a6bd 33cc e7be
000001a0: 0cbf c0bd 7a0e 03ba 3c19 d2bd 5bda 323e
000001b0: 51f4 03be d1a3 e3bc 5ce0 b5bc fd01 5ebe
000001c0: 09af e33d 8714 3e3e 8a72 a13e 73d2 c4bd
000001d0: 7145 6d3e 0049 283e 60e4 de3d c429 91be
000001e0: 8ea5 4cbb fcf7 42be ece7 b5bc 737d 8a3e
000001f0: cc6e 4ebe 97c0 203e 9d6e 893e 8571 373d
00000200: eb5d 8c3e 4c00 c53b 35cf 283d d033 9b3d
00000210: 68d0 b8bc f9c1 5abe e912 bfbd b2c8 29be
00000220: a1eb f63d 5d78 c03d db6e 00be 1dbe 333d
00000230: db72 acbe 5bdc 7dbb f4d4 373e bb61 c3bc
00000240: 2218 293e 7c84 25be ef96 aabe 8087 893d
00000250: 1d2f 61be ddcc 2b3d 3e08 3dbc b6af 053e
00000260: 4c77 02bd d202 b23d dfe8 9a3d 18c9 db3c
00000270: 8e07 353e 250e 623c 7a55 763c 21d3 c73c
00000280: 4037 67bd 53e2 8e3d 4c61 58bd 3611 13be
00000290: 31d4 873d d831 2c3d d398 7ebd 108c a23d
000002a0: e84e 2d3d 733c c4bd 5d71 51be 410e c6bd
000002b0: b088 a8bc f740 e7bc 424c 743c 7ff3 14be
000002c0: 493f 53be 76d2 983d 6b2a 993d c0ff 383e
000002d0: bc88 1fbe 6cdf 28be 9d28 fd3d d871 08be
000002e0: 9e2e c63d 9aec 4b3d ff50 3fbd 590b 06bc
000002f0: dd28 21be d971 61be 4864 353e 8f4a 903e
00000300: f970 e63d 2165 1e3e 9022 3f3e 98d0 7a3e
00000310: d1a1 9ebd 964a 9f3e d89f c73c c62c bb3d
00000320: 0648 3d3e 61b2 79bc 889f 9ebc b0d0 7abd
00000330: c465 173e c042 2fbd cffd 7c3d 4e55 c33c
00000340: 9d25 6f3e 93fe 61be f935 6e3d c2dd c03e
00000350: 0867 d6be c758 5c3e 0f42 f73d 13ec d9bd
00000360: cc0a 683b c1fa a0bd f9b6 363d aca0 1bbd
00000370: b9fb 87be 1138 f4bd 2e18 c13d 9a73 40be
00000380: 9337 043e c0ed db3d 711d 04be 3abb 5fbe
00000390: d4ae 393e f98e a0be 749b 843d aa94 85bd
000003a0: 3fe0 f9bb 742b d9bd d99e 19be 9f3f 073e
000003b0: e211 4fbd 39aa 8bbe 9e4f 39be 4334 093e
000003c0: 9493 97bd 7163 11bd d2a6 8abe 7d05 8c3d
000003d0: c11f 843e b613 19be 270c a3bd 8f4d 56be
000003e0: 54a8 b3bd 8d92 93bd 5bdd c1bc 592d 173e
000003f0: ba47 40be 2c92 2a3e 8629 c3bb f79e 393e
0.08804079 0.27318072 0.29123592 -0.06469876 -0.092003234 -0.30133674 -0.22683944 0.08333531
-0.1291536 -0.07174819 -0.05344484 0.14064565 -0.31659338 0.06897005 -0.019977996 0.15433535
0.11578243 0.050819118 -0.07847249 0.16420071 0.23974076 -0.101015165 0.07615841 0.08766496
0.23834158 0.16635363 0.42303374 -0.053689606 0.065723486 -0.07964944 -0.20057137 0.3396606
-0.19072494 0.24668884 -0.05018488 -0.39129084 -0.19499548 -0.106697 0.032398272 -0.021285046
-0.18261608 0.090050325 -0.027771987 0.06873174 0.29782158 0.32946143 -0.08430896 -0.073662944
-0.062404897 -0.3527328 -0.006118542 -0.24124588 0.130072 0.058538646 -0.057209253 0.010960159
0.2384234 0.0665775 -0.21580748 0.1303472 0.20763044 -0.16745827 -0.20919646 -0.08835946
-0.09374494 -0.14139317 -0.116236195 -0.13884038 -0.07775971 -0.09643575 0.01117387 0.04685087
-0.10148958 0.22059402 0.118760586 0.40348887 0.07888909 -0.09819661 0.55341995 -0.027798088
0.10710319 0.44150385 -0.23175597 -0.2022224 -0.120362505 -0.19163366 -0.15812916 -0.39887974
-0.007824281 0.19077945 0.0038540063 0.3503448 0.2652221 0.09382442 -0.012638226 0.011647805
0.062326487 0.09346641 0.003195761 0.09986515 -0.07449148 -0.1624868 -0.0811178 -0.4527298
-0.09411439 -0.00049994106 -0.10258719 0.17466109 -0.12886168 -0.027788075 -0.02220171 -0.21680446
0.1111737 0.18562518 0.315327 -0.096104525 0.23171021 0.16434097 0.10883403 -0.28352177
-0.0031226608 -0.19039911 -0.022205316 0.27048835 -0.20159453 0.15698467 0.26842204 0.044785995
0.27415404 0.0060119983 0.041213233 0.07578242 -0.022560313 -0.21363057 -0.09329779 -0.16580465
0.120566614 0.093979575 -0.12542288 0.043882478 -0.33681378 -0.0038736078 0.17952329 -0.023850312
0.16513112 -0.1616382 -0.33318278 0.06715298 -0.21990629 0.04194342 -0.01153761 0.1305531
-0.03185205 0.08691944 0.07563948 0.026829287 0.17678663 0.013797318 0.015035028 0.024392666
-0.056449175 0.06976762 -0.052827165 -0.14362034 0.06632269 0.042039722 -0.062157463 0.07936871
0.04231158 -0.09581842 -0.20453401 -0.096706875 -0.02057299 -0.02822922 0.014910759 -0.14546011
-0.2062961 0.07462017 0.07478794 0.18066311 -0.15579504 -0.16491479 0.12361262 -0.13324678
0.0967686 0.049786188 -0.046708103 -0.008181416 -0.15738244 -0.22016086 0.17714036 0.28181884
0.112520166 0.15468265 0.18665528 0.24493635 -0.07745708 0.31111592 0.024368212 0.09139399
0.18484506 -0.015240283 -0.01936318 -0.061234176 0.14784914 -0.042788267 0.06176549 0.023844387
0.23354192 -0.22069769 0.05815694 0.37669188 -0.41875482 0.21518241 0.120731466 -0.10640731
0.0035406826 -0.078603275 0.04460809 -0.037995026 -0.26559237 -0.11924756 0.0942844 -0.18794098
0.12911825 0.107387066 -0.12901856 -0.21848765 0.18133098 -0.3135908 0.06474963 -0.06522496
-0.007625609 -0.10603991 -0.15002002 0.13207863 -0.050554164 -0.27278307 -0.18096778 0.13398843
-0.07401195 -0.035495225 -0.270804 0.06836984 0.25805476 -0.14948925 -0.07961302 -0.20928024
-0.087723404 -0.07205687 -0.02366512 0.14763393 -0.18777362 0.16657323 -0.0059558777 0.18127047

lstm.lstm_cell.weight_hh f4 [256, 64]
00000000: 4f21 d2be 50dc 0abf b5b9 60bd f072 403d
00000010: 7069 cabe c83c 423e 1a7f 823d 7b79 c1bc
00000020: 69b2 1dbe 28a7 b7bd ebb9 0d3f a904 3ebe
00000030: bf6f 163d 5ed5 d6be 6c8c b8bd e645 213e
00000040: 1a93 38bc 3ab6 9abe 57c9 4dbd b106 3fbd
00000050: e488 b1bc bcc5 44be 310c ef3c f0bb e03e
00000060: 1f62 5e3b e22c 59bd 283b 2c3e 6c0c 5abe
00000070: 209a a43d 8347 80bd 4469 bb3e 558d a03c
00000080: 3923 0fbe b492 693c 6665 af3e 92c9 25bf
00000090: f8a0 11be 3e9d 4c3f 2a77 ed3d b46f 2dbe
000000a0: 3426 c03d 3f0c 793e d287 d03e af5a 583d
000000b0: ae4e a3bd a9f8 aabe 4714 afbd bcda 163e
000000c0: 5930 a73e 70b9 b3bc f2c9 ae3e cc37 ce3e
000000d0: 90bd da3d 674d 33bf e072 d23e 7c7c 79be
000000e0: f073 c33e dd8b 17bf 46de f23d 70cf 9f3c
000000f0: 5201 cf3e 886c 203e 1873 90bd 2a01 c03e
00000100: 1246 7bbe c3eb 83be ad05 4c3e 8dc4 00bd
00000110: bdbc e03e 0c74 543e 53b2 3bbb 1c15 74be
00000120: f128 2bbe d0d3 01be e3a7 bfbe adad ff3e
00000130: f299 e4be b46b 50bd 8ca0 363e a084 6cbe
00000140: 43fc e2be 75a4 343e 1b2d 5f3e 3be3 573c
00000150: 4a82 87bd 1396 e9bd 6de4 683e 1cba a0be
00000160: c85f 053f 4be7 87be 927e d6bd 5007 98bd
00000170: 8f4d 273d 4a83 13bc cda2 183e 5e49 443e
00000180: 9c4b 743b 7033 ac3e c4cd 073e 9af4 31be
00000190: 44e9 353e 33c0 e0be 08a2 08be 7b0b 7c3b
000001a0: 8e60 493e 073f 5e3e a67d a13d 12ad a93c
000001b0: d586 babe 436d 223e 151d 413d c7ef 46bf
000001c0: a6ea f0be 8a4c 653e a981 2fbe a99c 8fbe
000001d0: 4af8 cdbb 9bc5 81be 87e4 b4be fb0e 9a3e
000001e0: 860b 83be 8df0 783e ea15 98bd bca3 b3be
000001f0: acd5 2dbe fe41 5cbd b6c1 993e 3d9d 82be
00000200: 565d 733d 4552 05be 5001 003e 8766 993c
00000210: 5ddd 9f3c 1a2e 26be 617d d8bd a522 2cbe
00000220: 7193 ac3d 0c80 e5bd 7270 b1bd e708 ed3e
00000230: 994c 143f d2ef 363e 324e 4cbb 83c3 8d3e
00000240: 89ec 5fbd 9983 523c 823d e83d 81d1 75be
00000250: 9dce 87be 623d a8be ba88 953e 4df9 a4be
00000260: 29df ad3e 0f8a 623e 2456 5e3d 939a 603d
00000270: 61cb 363e d73c 58be 5b2a 15bd ced3 88ba
00000280: 419c bfbb dee2 8c3e 0c01 cbbc 6cab 0a3f
00000290: 9858 c43d 3990 623e 52a8 353d 2e0e 453d
000002a0: 1248 1dbd f32a a6be 9094 29be 90e5 a43d
000002b0: 803d 0c3e 88d6 a1be feb8 5a3e d84d ef3d
000002c0: 6037 cbbd d1d5 85be 082e 3abe 23eb 0ebd
000002d0: 1789 35be 9d8e 373e d255 8e3d a5cf c3bd
000002e0: 9ebd 08bd 547f 5ebe 880c 6838 1cc7 d53a
000002f0: 8c81 4e3e 63b6 a43e 5989 bfbe 99df 41be
00000300: b776 9c3e 71a2 913e 4083 cabd 391d 053d
00000310: 1edf 80bd 7558 8c3e b095 fb3c 91f7 aa3e
00000320: 055a 033d f4f8 a13a d8ce 083e 0464 6ebc
00000330: 5bca 273e aa9a bfbc d833 ae3d 036d 123f
00000340: 7c6a 88be 5bd9 a43d a32e 4f3e a882 b6be
00000350: 6990 723c 0563 343e 9ffb b83e 66cc 323e
00000360: ad67 b63e 95c6 e0be de4f 093f 293e dc3d
00000370: c1ee 453d dc57 92be dba4 50be a6c5 8e3d
00000380: acc1 3e3e d0b1 d4be c2dd 623e caec cb3e
00000390: 8fb4 053e 9bc0 573f ed62 ae3e e4ef f63d
000003a0: 039a 65be 92ac 22be 0bcb e83d 258d ff3d
000003b0: 7d99 cbbe 87c4 2dbf 62e5 443e 98aa e13e
000003c0: c92b cb3e 9acc 6bbc 51ee ba3e b852 6b3e
000003d0: 5715 e6bc 1caa 603e fa1e 82be 7948 cbbd
000003e0: 7642 2b3e b6d9 f0be 29f5 de3d 5a10 a5bd
000003f0: bca0 3f3e eb28 8d3e 32c1 c7be b0ee a13e
-0.41041037 -0.5424242 -0.054864604 0.046984613 -0.39533567 0.18968499 0.06371899 -0.023617497
-0.1540009 -0.089674294 0.55361813 -0.18556465 0.036727663 -0.4195966 -0.09011158 0.1574932
-0.0112655405 -0.30217153 -0.05024084 -0.04663724 -0.02167172 -0.19216055 0.029180618 0.43893385
0.0033932996 -0.05302132 0.16819441 -0.21293801 0.080372095 -0.0626364 0.3660375 0.019598642
-0.1397828 0.014256168 0.34257048 -0.64760697 -0.14221561 0.7992743 0.11594994 -0.16937143
0.09382287 0.24321078 0.40728623 0.052820858 -0.07973991 -0.33392838 -0.085487895 0.14731878
0.32654074 -0.02193901 0.34138447 0.40276945 0.106806874 -0.7003998 0.41103268 -0.24363893
0.3817439 -0.5919779 0.118588015 0.019508094 0.40430695 0.15666401 -0.070532024 0.37500888
-0.24538448 -0.2576581 0.1992404 -0.031437445 0.43893996 0.20747393 -0.0028640225 -0.23836178
-0.16714837 -0.12678456 -0.37432775 0.49937192 -0.446487 -0.050883964 0.17834681 -0.23097467
-0.44333085 0.1764086 0.2179455 0.013176735 -0.066166475 -0.114055775 0.22743388 -0.3139199
0.52099276 -0.2654365 -0.1047336 -0.0742327 0.04084545 -0.00900347 0.14905854 0.19168612
0.0037276512 0.33632994 0.13262087 -0.17378464 0.17764765 -0.43896636 -0.1334306 0.0038458991
0.19665739 0.2170373 0.07885294 0.02071241 -0.36430994 0.15861993 0.047146875 -0.7770962
-0.47054023 0.22392479 -0.17139305 -0.2804921 -0.006285702 -0.25346074 -0.35330603 0.30089554
-0.2559473 0.24310513 -0.07426055 -0.35085857 -0.1697604 -0.053773873 0.30030602 -0.25510588
0.059415184 -0.13019665 0.125005 0.018725647 0.019514734 -0.16228524 -0.10570789 -0.16810091
0.0842656 -0.11206064 -0.08664025 0.46295854 0.5792938 0.17864922 -0.0031174538 0.27688226
-0.054668937 0.012848758 0.11339857 -0.240057 -0.2652482 -0.3285933 0.29205877 -0.3222145
0.3395932 0.22122978 0.05428137 0.054834913 0.1785102 -0.21116959 -0.036417346 -0.0010439099
-0.0058474843 0.27516836 -0.024780773 0.5416782 0.095872104 0.22125329 0.044349976 0.048109226
-0.03839881 -0.32454643 -0.16560578 0.08051598 0.13695335 -0.31608987 0.21359631 0.116847694
-0.09922671 -0.2613969 -0.18181622 -0.034892213 -0.17728077 0.17925496 0.06949963 -0.095610894
-0.033383958 -0.2172826 5.532478e-05 0.001630995 0.20166606 0.321704 -0.37409475 -0.18932952
0.30559322 0.28444245 -0.09888315 0.032498572 -0.06292556 0.27411237 0.030711025 0.33392003
0.03206827 0.0012357519 0.13360155 -0.014550213 0.16385786 -0.02338918 0.08505982 0.5719759
-0.2664374 0.0804927 0.20232634 -0.35646558 0.014804938 0.17615898 0.36129472 0.17460784
0.35625973 -0.43901506 0.5363749 0.107540436 0.048323397 -0.28582656 -0.20375387 0.06971292
0.18628567 -0.4154191 0.22154906 0.39829093 0.13057159 0.8427827 0.3405985 0.12057474
-0.22422032 -0.15886143 0.113668524 0.12478093 -0.3976554 -0.67878 0.19228128 0.44075465
0.39681843 -0.0143920425 0.36509946 0.22980773 -0.028086348 0.21939892 -0.25414258 -0.099259324
0.16724572 -0.470411 0.10886604 -0.080597594 0.18713659 0.2757028 -0.39014584 0.31627417

lstm.lstm_cell.bias_ih f4 [256]
00000000: 8012 e9bd b8a2 7e3d e65e 643e 605c 843e
00000010: bdc6 893e 2a23 7a3e e6a7 cfbc 567e 2b3e
00000020: 6b7c d43d a135 d63c 5e1f b63e 4a42 48bd
00000030: d634 833e e97a 8e3d 1fb1 9bbd e317 3d3e
00000040: 1c44 333e 4e03 013e 167d 8b3d eb76 ce3d
00000050: 1871 743d 9072 903e 55ec 653d 3707 42bc
00000060: 3396 11be ff32 6c3e 4bc2 203e bc5b 223e
00000070: 1bb0 a43e 7fff 613d 4f2d 8abd 5066 a9bd
00000080: 50d2 5d3c 472f 813d 1fec 383e 9eac 653d
00000090: 17fb 7a3d 02aa 4a3e 822f 493e 1351 4d3e
000000a0: 11fa ac3e b56e 7f3e 41c3 da3d 042b a13d
000000b0: 3ee0 0f3e be2b e63e 3180 1f3e 4ade a53d
000000c0: eba9 a63c 242e 143d 28ff 9c3e 3466 82bd
000000d0: 1e86 37be 099c afbc 9e29 d13e 9ca0 ac3d
000000e0: b31f 063e 9a2c f4bd 3027 4a3e f1d0 063d
000000f0: 4679 bb3d 2638 003d e5ff eabb e4c3 60bd
00000100: f48b 66be 2a9a 313e 7cc0 443e 5f1e 213e
00000110: a003 863e 34de 123d 83d8 1f3e f7ed 4a3e
00000120: 1a9b f83d 666a f5bd 35b5 7c3d 5850 333d
00000130: 5f3d 523e 5604 aebd 854d 273e 3797 2dbe
00000140: 94ef 78be bd3c b4bd 0744 eebd a307 783d
00000150: f2e3 493d 81d6 723e 7817 883e 03ec 8dbd
00000160: c8a8 2f3d fbb8 b5bd 2611 753e 990d 8c3d
00000170: 99a2 593d 2a53 aabd f681 553c 9cdd 613e
00000180: c7d8 7e3e 7d91 55bd 3867 803e 006b 1d3e
00000190: a8b4 2bbd 0ebb 2b3d 5d24 e2bd 90fa 273d
000001a0: c268 3e3d be01 143d a325 89bd 67fe b8bd
000001b0: 9327 f53d bd6a 07bd 84a3 13be 4004 4fbe
000001c0: 0b51 443e ba9f 4f3d 2b8f 293e dedb b4bd
000001d0: 84bf 82bc b449 143e 581e d63c a70d 56bd
000001e0: c5d2 053e eddd 093e a5b9 e4bc ca1e 1f3d
000001f0: 7eed 15be d3fa 24be 0bfd 0a3e b617 ad3d
00000200: 40ff 183e 22ad 27bd 490e c03d 9cde 963b
00000210: 67f6 62bd a8e6 2e3d 3be6 0d3c 7763 a63c
00000220: b5d5 663c 1493 2abe 0d5f 81be d250 0b3e
00000230: cebc 1dbd 5681 223e ee18 05be 19d9 a6bd
00000240: a828 f9bd 7e7b 833b 4340 00be 0e48 043e
00000250: 18a1 7cbd e57e a9bc e44b 0fbd 0bb9 503d
00000260: f4a4 20bb 3fd2 093e c80d b1bd ccd0 273b
00000270: dc71 01bd dfb3 813e 6804 e63d 920a 253e
00000280: 70a4 35bd f3e8 0c3e d89d c3bd f496 873d
00000290: 1179 c8bd c65d b9bd 7e96 b8bd a062 7bbd
000002a0: 4c0a a2bd 1f08 513d 1770 af3d 875b 92bd
000002b0: 09a8 0a3e 62ce 6abd d219 753b 7a0c 27bb
000002c0: eb9a 24bd fd18 413d f834 05be 0916 5b3d
000002d0: 82ec 02bc 4c68 5abc a9c1 3c3d 5799 20be
000002e0: 7584 983d d195 88bc eefe 103d 522d 433b
000002f0: 3e57 85bd aaa7 8fbe b7fc 903c c846 8d3d
00000300: 9a87 10bd 8e33 fb3c 8e04 973e 0031 3e3e
00000310: 2de1 333e c4e2 8e3e e6fc fabc 044a b83d
00000320: a4df 873e bf8a 1b3d ac99 b13e 6a76 4b3c
00000330: 24c6 6e3e 9441 cd3d 42a3 87bc 3a4c dfbc
00000340: d65e 653e 0b4a c63b f410 453e d039 90b6
00000350: a859 7dbb 9e96 663d c607 833d fb4e 513e
00000360: 3dd8 33ba 510c 1e3e 50e9 b3bd e298 c63b
00000370: 4f56 863e 4faa 3b3e 7a0f 4c3e 6382 023e
00000380: 4976 853d 5a46 5b3e 0eca 3a3e 5f79 e73e
00000390: e7ac 353e e684 973e 0825 abbd 5af8 89bb
000003a0: 6a84 49bc 78b6 1e3e 5f75 c1bd 224d 953d
000003b0: ba96 9e3e f5da e23e b20f a13d ca4c 5f3e
000003c0: 22ab bf3d 2a05 983e 3a69 a53e 1e12 7f3c
000003d0: 5133 123e 292a f2bd b93a 073e 8e26 a33e
000003e0: f4b0 0cbe 467e 9b3d d809 a13d 316d d23d
000003f0: 7329 063e 0c2c 16be 7bba babd 7ed4 ec3d
-0.11380482 0.0621669 0.22301826 0.25851727 0.26909438 0.24427477 -0.025348615 0.16747412
0.10375293 0.02614862 0.35570806 -0.048891343 0.25626248 0.06957037 -0.076021425 0.18466143
0.1750645 0.12598917 0.068109676 0.100812756 0.059678167 0.28212404 0.056133587 -0.01184254
-0.14217453 0.23066328 0.15699117 0.15855306 0.32165608 0.0551753 -0.06746923 -0.08271468
0.013538912 0.063078456 0.18058823 0.056072824 0.061274614 0.19791415 0.19647029 0.20050459
0.33784536 0.24944575 0.10681773 0.07869533 0.14050385 0.44955248 0.15576245 0.08099039
0.020344695 0.036176816 0.3066342 -0.0636715 -0.17922255 -0.021436708 0.40852064 0.08429071
0.1309803 -0.119225696 0.19741511 0.032914106 0.091539904 0.031303547 -0.0071716183 -0.054874316
-0.22514325 0.17343965 0.19214052 0.15734242 0.2617464 0.03585644 0.15609936 0.19817339
0.12138958 -0.119831845 0.06169625 0.043777794 0.20531224 -0.08496921 0.16338165 -0.16952215
-0.24310142 -0.088006474 -0.11634069 0.060554158 0.04928965 0.23714639 0.26580405 -0.06929781
0.04288557 -0.08873173 0.23932323 0.06838531 0.05313358 -0.083166435 0.013031473 0.22057194
0.24887381 -0.0521407 0.2507875 0.15372849 -0.041920334 0.041926436 -0.11042092 0.04101044
0.046486624 0.036134474 -0.06696632 -0.090328984 0.11970439 -0.033060778 -0.14417845 -0.20216465
0.1917154 0.050689436 0.1655852 -0.08830999 -0.015960462 0.1448124 0.026137516 -0.052259114
0.13068683 0.13463564 -0.027920553 0.038847722 -0.14641377 -0.16111307 0.1357309 0.08451788
0.1494112 -0.040936597 0.09377725 0.004604174 -0.05541077 0.04270044 0.008660848 0.0203111
0.014089038 -0.16657668 -0.2526783 0.13605049 -0.038510136 0.1586965 -0.12997791 -0.08146877
-0.12165958 0.004012524 -0.12524514 0.12918112 -0.06167707 -0.02069039 -0.034984484 0.05095772
-0.0024512382 0.13459109 -0.08645207 0.002560663 -0.031602725 0.25332543 0.11231309 0.16117314
-0.044346273 0.13760738 -0.09551591 0.06620589 -0.097887166 -0.09051089 -0.09013079 -0.061373353
-0.0791212 0.051033136 0.08566301 -0.07146364 0.13540663 -0.05732573 0.0037399423 -0.0025489614
-0.040186804 0.04714297 -0.13008487 0.05348781 -0.007990958 -0.01333053 0.046083126 -0.15683495
0.07447139 -0.016673 0.03539937 0.0029781652 -0.06510781 -0.28057605 0.017698629 0.06898266
-0.03528557 0.030664232 0.29495662 0.1857338 0.17566366 0.27907383 -0.03063817 0.08998492
0.26537812 0.037974115 0.34687555 0.012418369 0.23317772 0.10022274 -0.01655734 -0.027258027
0.22399458 0.006051307 0.19244748 -4.2982647e-06 -0.0038658176 0.056295983 0.06397967 0.20440285
-0.000686053 0.15434386 -0.08784735 0.0060607055 0.26237723 0.18326686 0.19927779 0.12745051
0.06516702 0.21413556 0.1824114 0.45209786 0.17741738 0.2959358 -0.083566725 -0.004210514
-0.012299636 0.15499294 -0.09446215 0.072901025 0.3097437 0.44307676 0.07864322 0.21806636
0.09358813 0.2969144 0.32306844 0.015568284 0.14277388 -0.11824448 0.13205995 0.31865352
-0.13739377 0.07592444 0.07863206 0.10274733 0.13101749 -0.1466524 -0.091175996 0.11563967

lstm.lstm_cell.bias_hh f4 [256]
00000000: e1bc 7ebd a37c 5e3d 3686 0e3d 42f2 453e
00000010: e6ba 953e f346 5c3e 2069 c3bd 2f1a ac3e
00000020: 8b87 1a3e 255a 7d3d a25b 963e 4797 bbbc
00000030: 3e03 563e ed6f 07be ff0b 3fbd c623 073e
00000040: acf8 113e 386c 8a3e 697f 423e b164 f13d
00000050: 0882 c13d 6ecc d53e dd09 3e3d 28f0 113c
00000060: f33b b7bd ba56 9c3e 1399 22bc 1051 213e
00000070: 69f0 f13d 3880 d93b c8b0 acbd 1a09 94bd
00000080: 7da7 98bd ba79 da3c 21e9 9a3e de4b 2f3d
00000090: a345 b93d 9202 413e b4e6 363d 76d5 a43e
000000a0: 36dc 603e 5c28 a03e ae61 2f3d 26cd 12bd
000000b0: c469 a73d 6f63 bf3e 598f 433c 6170 a93d
000000c0: fb0e 723e 230b 063e 3ab4 e23d 74b1 91bd
000000d0: 341a 5fbe ef8e 1a3e 2614 bb3e b0fb bf3c
000000e0: f35a 9d3e a63a 85bd 54eb 3d3e 1461 c03b
000000f0: 9760 053e 73ad a3bd b193 823d a000 21bd
00000100: faf0 23be 1051 533e 91ea 1ebc f6d7 fd3d
00000110: 6489 463e d493 ddbb 00ec 2d3d b4a7 0ebc
00000120: e41e 2c3e ead6 ff3a 5aa2 723e d254 0a3e
00000130: 057c 073e 3447 1f3d e546 6b3d 4743 11be
00000140: b35c a3bd d86f 003d c650 4ebe 9876 823d
00000150: e274 483d ca02 4a3d 9342 913e 261f 0dbc
00000160: fe7b eb3d 809b 12be 3c72 043e 4bb3 8b3d
00000170: 9c91 d83d c15e 48bc 5424 9dbd 18e3 043e
00000180: 2aba 7b3e 278c 1b3e bc35 4d3d 4637 9b3e
00000190: 6f1d 123d bbf4 183e bd11 cd3c f743 a0bc
000001a0: 18f9 8d3c 8ab8 a8bd efba 13be 51e6 bdbd
000001b0: 39f1 883d 6d55 0e3d 98df 78be dbdb c3bd
000001c0: 5984 363e 73bc 34be e5a7 c83d bb9b 0b3e
000001d0: 6706 82bd a071 7d3e d80f 77bc bdba e4bc
000001e0: 2b75 4b3c 6df6 643e d4a8 b0bc 8211 99bd
000001f0: d948 b6bd c85b 07bd 15df cf3d 4971 91bc
00000200: 48f3 9bbd 2bd7 3bbe 1d5f cb3d 3d0f b9bd
00000210: fc9f 4ebe 7a9f fb3d a969 9a3d b247 ff3d
00000220: 21c0 0d3e 0b72 883b 169c 28bd 5e02 103e
00000230: 49c6 b53d 6182 fa3d 1319 49bd d3a0 e2bd
00000240: 68a3 ddbd 219e bdbd 29bd e23c 1f44 c43d
00000250: 8193 823d f86a b03c 68d2 f23d 0352 ef3d
00000260: 717e 47bd f160 223e 07b0 4abd ef2b 94bd
00000270: ba7c 96bd 42e2 383e 718e de3d 243b bd3d
00000280: 9186 e1bd 5ced b53d 19f3 d6bb 0477 033d
00000290: 4a22 8abd cc7c 053e 3849 d5bd afb5 cd3d
000002a0: 3f96 0fbd d84a 8fbd 3384 4e3d 7b81 8bbd
000002b0: 52ff 993d 03d0 f03d 2576 37bc 108d 1bbc
000002c0: 3478 933d 71ae be3c 0a31 d03d 6383 cd3d
000002d0: 6e56 35be 5e2b 6ebd 514c 183d 59f8 4fbe
000002e0: a618 883d 2702 2e3e 8bdc 68bd 6ff9 3dbc
000002f0: 6b2d 26be 0d6d f1bd 486c 243d 1cb0 8fbd
00000300: 56e9 d4bd 5c1c a73b 949e 0b3e d1f4 ce3e
00000310: f583 513e 05da 3c3e 795f 183e efd5 a93c
00000320: 9f39 553d f197 033d 0797 1e3e 4104 0ebe
00000330: d40f 913e 23d0 043e dc2d ce3d eb55 143e
00000340: f085 dd3d 6f10 82bd 5653 463e 21bd aeba
00000350: 07ff 91bc 4bff 8a3e a868 fabb d1c4 683e
00000360: 2088 0ebd 3e50 853e f838 ca3d 5573 083e
00000370: aef1 423e 470a 643e baf0 4e3e ed77 9e3c
00000380: 6276 f73d 5478 7b3e f77a 103e b757 d03e
00000390: 8232 d13d ec52 823e 24d0 4b3d 7287 69bd
000003a0: fca1 d93c 61c6 25bc f8a0 873c 8f36 143e
000003b0: 899d 1a3e f6ce e93e 3bc8 f33d 075f 283e
000003c0: 649b 843e f554 163e e824 263e 7266 813d
000003d0: 4e5e 04bd 791e 44be e660 02bd f81e 083e
000003e0: 0f67 3fbe 04ac 393e 9253 bf3d d65f d13c
000003f0: b795 9f3e c8f2 0abe 082d cebd 558f 013e
-0.062191848 0.05431808 0.034795962 0.19330695 0.29244155 0.2151144 -0.095415354 0.33613726
0.15090768 0.061853547 0.29366785 -0.022899283 0.20899674 -0.1322629 -0.0466423 0.1319724
0.14255017 0.2703569 0.18993916 0.117867835 0.094486296 0.4175753 0.046396125 0.008907355
-0.08946981 0.30534917 -0.009924191 0.15753579 0.11813433 0.0066375993 -0.08432156 -0.072282985
-0.07453821 0.026669372 0.30255988 0.042796962 0.09046485 0.18848637 0.04465361 0.32194108
0.21959004 0.31280792 0.042817764 -0.035840176 0.0817447 0.3738055 0.011936032 0.08273388
0.23638527 0.13090186 0.11069532 -0.071139246 -0.2178734 0.15093587 0.3653881 0.023435444
0.3073345 -0.06505327 0.18546802 0.0058709476 0.13025127 -0.07992067 0.06375826 -0.039307237
-0.16009894 0.20636392 -0.00969948 0.12394707 0.19388348 -0.0067620073 0.042461395 -0.008706976
0.16808659 0.0019519005 0.23694745 0.13508919 0.13230903 0.038886264 0.057440657 -0.1418582
-0.07976665 0.031356663 -0.20148 0.06370276 0.048939593 0.049319066 0.28371105 -0.008613383
0.11498259 -0.14317131 0.12934202 0.06821307 0.10574648 -0.012229622 -0.07672945 0.12977254
0.24582735 0.15190183 0.050100073 0.30315608 0.0356726 0.14937107 0.025032872 -0.019563658
0.017330691 -0.08238323 -0.14426778 -0.09272445 0.066866346 0.034749437 -0.24304044 -0.095634185
0.17823924 -0.17650013 0.09797648 0.13633625 -0.063488774 0.24750376 -0.015079461 -0.027921075
0.012418072 0.22359629 -0.021564879 -0.074740425 -0.08900613 -0.033046514 0.101499714 -0.017754214
-0.076147616 -0.18343799 0.09930251 -0.090361096 -0.20178217 0.12286277 0.07539684 0.12464847
0.13842823 0.0041639856 -0.04116448 0.14063403 0.088757105 0.12231899 -0.04909618 -0.11065831
-0.10822183 -0.09258676 0.02767809 0.095833056 0.063757904 0.021535382 0.11856538 0.11685564
-0.04870457 0.15857293 -0.04948428 -0.07234942 -0.073480085 0.1805506 0.10867012 0.09239796
-0.11011995 0.08883163 -0.006559741 0.032095924 -0.06744821 0.13035887 -0.10414356 0.10044419
-0.035055395 -0.06996697 0.050419044 -0.06811806 0.075194016 0.11758425 -0.011197601 -0.009494081
0.07200661 0.02327654 0.101656035 0.10034826 -0.17708752 -0.058146827 0.037182156 -0.20309581
0.06645326 0.16993009 -0.05685095 -0.011595114 -0.16228263 -0.11788378 0.040142328 -0.07016012
-0.10396068 0.0050998162 0.13634712 0.40421155 0.20460494 0.18442543 0.1488017 0.020731894
0.052056905 0.032127324 0.154873 -0.1386881 0.28332388 0.12970023 0.10067341 0.144859
0.10816562 -0.06350791 0.19367728 -0.0013331511 -0.017821802 0.27147898 -0.0076418705 0.2273133
-0.034797788 0.26037782 0.09874147 0.13325246 0.19037506 0.22269545 0.20209017 0.019344294
0.120831266 0.2455762 0.14109407 0.4069192 0.10214712 0.2545389 0.049759045 -0.057013936
0.026566498 -0.010118098 0.016556248 0.14473937 0.15099157 0.4566571 0.11903425 0.164425
0.25899804 0.14680846 0.16225016 0.06318368 -0.0323165 -0.1915225 -0.03183069 0.13293064
-0.18691657 0.18132025 0.09342112 0.025558393 0.3116891 -0.13569176 -0.10067183 0.12652333

mlp.0.weight f4 [16, 64]
00000000: 1b34 a93e 475e 753e 825e 073e 1ecc 243e
00000010: 112c 04bf 0d02 6abe 9786 96be 4136 3bbe
00000020: 1917 e23d d1e0 91bc 8345 01be 4a70 4cbd
00000030: 6aa4 c3bd bb77 cf3c 0c61 d7bd e8a8 833e
00000040: 1ae5 bdbe 0f0e d9bd 2d9c 98bb 34dd 27be
00000050: 6208 423e c5e5 9bbe 6c2c 32be cf05 9cbc
00000060: 8616 aa3e d2b9 04be 0141 973e 21b1 b4bd
00000070: 065e 5fbe 44ae 26be cd38 f13d d300 8c3c
00000080: a83d 423e 826c db3d abdc a4be 9e61 b2be
00000090: baae 1ebc 4eba d1be 6ffa 8c3e 5975 d43d
000000a0: 79aa d5be eaf6 9d3e a689 7cbe e12c 5f3d
000000b0: 24e4 263e f104 f4bd 7f13 17be 89a2 863e
000000c0: f5b3 a43e 5338 cfbd 9776 e0be b3c1 993e
000000d0: fd3c 9b3d 2305 b4bd 959d a6bd c847 203d
000000e0: 5afc 933e 392a bb3d 98d9 3e3e 8b6a c63d
000000f0: 6f4c a3be 0883 093e fa2d 113e 12b6 a4be
00000100: 6e10 9e3e a30b 6d3e 8a0e 883e ad81 543d
00000110: d02c 10bf a887 843e b4d6 8fbd cd51 c1bd
00000120: cc67 0dbe efe5 863e 94e0 17be c4be b03d
00000130: de7f 183e f3b8 b83e 53cb 223d 916e cdbe
00000140: d404 01be 0572 dd3c babb a13e 268c 32be
00000150: 25bc 1d3e ee99 cfba d5c7 54be 86cb c5bc
00000160: 2b89 813e 02f0 30be 2630 8ebd 31d8 1dbe
00000170: d770 81bd 46e7 1c3e fc50 e4bd 0e38 31be
00000180: 5e70 48be f1bc 82be 7298 2cbd eae6 79be
00000190: 73a9 ae3d 159c 04bf 0512 143e 727a e0be
000001a0: 314f 823e 195e aabc 40a3 ed3d 4ffe af3d
000001b0: 7b95 75be 257d c2bd 52b0 eebd 6c34 88be
000001c0: 8879 68be 4e1f 163f ed14 41be 1f7e 85be
000001d0: 196c a0bd 2ffa 2fbe 38dd 1ebe f37f a13c
000001e0: f20a 273d 8a28 c33d bd07 ca3e a6a1 8d3e
000001f0: 47ee 443e de80 dc3d 4db2 a33e 090d 36be
00000200: 827b cf3e 82de 433d e143 9bbd a496 723e
00000210: e161 58be 583b 0c3d eb63 91bc 4a8b 70be
00000220: afed a1bd 845a 73be a7c5 22be e65f 8f3d
00000230: 0bba 64be 6b9b 06bc 81c5 50be 6bec ba3e
00000240: 28c6 34be fe21 073e d140 373e 232a d3bc
00000250: 384e fe3d 1e0d 47be 6018 933d b4ff a4bd
00000260: e119 993e d8a0 053e 2a8d fa3e 0c64 2dbe
00000270: ff6d 8fbe bb7e 53be 56df 853e b97a 043c
00000280: a8fe e53d 22d4 fcbd e7a1 15be baec 24be
00000290: 71c0 d23e 05b3 a8be de35 cf3e c67a 30bc
000002a0: 273f 3dbe 25ef c93e 0231 f7bd b671 ae3e
000002b0: 2d78 b83e 0d9a 3bbd 4dfd 83bc 8506 803e
000002c0: b900 a93d 58c5 9dbe fb68 e0bd adf5 dc3e
000002d0: 09ac 843e 0b37 18be 2dd0 2ebe fc6b bc3e
000002e0: e41e 153f cda3 28be 4d04 b53e a131 f63d
000002f0: 6956 95be 6db1 3c3c e3fe 403e 9476 82be
00000300: 0415 643e 5c08 3f3e 5fc1 0f3d 1f93 f83d
00000310: c08d 98be 9eef 69be 01c6 da3c 7d8e f2bd
00000320: 38f1 373d 9a56 26be de29 13be 19d1 db3c
00000330: 1055 43be 8dad 2bbe 6245 95bd cf5f 973e
00000340: 2c50 50be 8644 163e 23aa 953c 46c9 d33b
00000350: 2a94 403d 6612 1fbe 7afe 4d3d fe77 24be
00000360: 3019 173d 78d1 fabd 48da 903e f270 443c
00000370: 1f45 9fbe 4fea c7be f39d de3d 7e83 ea3d
00000380: ba6a 593e 133e 9abd aa5d 84be 0c0c 0dbe
00000390: 2622 aa3e cde2 8abe fcd8 bc3e 12a4 44bd
000003a0: 2b2d 9abe a8b8 303e 8d31 f3bd 2f04 053e
000003b0: 6a16 893e 1040 88bd cc62 ea3d 062b 263e
000003c0: 9c9d 073e 0357 61be e405 92be 4ae3 203e
000003d0: 23ec 823e da2d 8f3c 3b0b 773d c6d3 293e
000003e0: e897 f03e ae76 6cbd 4f39 3b3d 646e 0f3e
000003f0: 71c7 c5be 92f3 d63d 9530 0f3e 871b 03be
0.33047566 0.23961745 0.13219646 0.1609349 -0.5162974 -0.22852345 -0.2939956 -0.18282415
0.11039562 -0.017807396 -0.12624173 -0.049911775 -0.09552844 0.025325647 -0.10516557 0.25714803
-0.37088853 -0.105983846 -0.0046572895 -0.16392976 0.1894851 -0.30448738 -0.17399758 -0.019045739
0.3322031 -0.1296151 0.29541782 -0.08822847 -0.21813211 -0.16277415 0.11778412 0.017090237
0.18968832 0.107140556 -0.32199606 -0.348401 -0.009685213 -0.40962452 0.27534816 0.10373945
-0.41731623 0.30852443 -0.24661884 0.05448616 0.16297966 -0.11915005 -0.14753531 0.2629588
0.32168546 -0.10118165 -0.43840477 0.30030593 0.07579992 -0.08790042 -0.08135525 0.039130956
0.28903466 0.09138913 0.18637693 0.0968829 -0.31894252 0.1342889 0.14177695 -0.3217016
0.3087191 0.2314897 0.26573592 0.05188148 -0.5631838 0.25884748 -0.07023373 -0.094394304
-0.13809127 0.263473 -0.14831764 0.08630136 0.14892527 0.36078605 0.039744686 -0.40123418
-0.12599498 0.027031908 0.31588537 -0.17436275 0.15403803 -0.0015838721 -0.20779355 -0.0241449
0.25299963 -0.17279056 -0.06942777 -0.15414502 -0.063203506 0.15322599 -0.11148259 -0.1730654
-0.19574115 -0.25534776 -0.04213757 -0.24404493 0.085284136 -0.5180066 0.14459999 -0.43843418
0.25451043 -0.020796822 0.11603403 0.085934274 -0.23982804 -0.09496526 -0.11654724 -0.26602495
-0.2270261 0.5864152 -0.18855639 -0.26072785 -0.07833118 -0.17185281 -0.15514076 0.019714331
0.040781923 0.095292166 0.3945903 0.2766239 0.1923152 0.10766767 0.3197197 -0.1777841
0.40523916 0.04781962 -0.07581306 0.23690277 -0.21131088 0.034236282 -0.01774784 -0.23490635
-0.07906663 -0.23764998 -0.15895711 0.07000713 -0.22336595 -0.0082157655 -0.20387842 0.36508498
-0.17653716 0.1319656 0.17895819 -0.025776928 0.12417263 -0.19438598 0.071823835 -0.08056584
0.29902557 0.13049638 0.48935825 -0.16932696 -0.28013608 -0.20653813 0.26146954 0.0080859
0.112302125 -0.123451486 -0.14612542 -0.16105929 0.41162446 -0.3294908 0.40470785 -0.010771459
-0.18481122 0.39440265 -0.120698944 0.3407113 0.36029187 -0.04580121 -0.016111994 0.25004974
0.08252091 -0.30814624 -0.109575234 0.43156186 0.25912502 -0.14864747 -0.170716 0.36801136
0.5825026 -0.16468735 0.35354844 0.12021185 -0.29167488 0.011516911 0.18847232 -0.25481093
0.22273642 0.18655533 0.035096522 0.12137436 -0.29795647 -0.22845313 0.026705744 -0.11843584
0.04490778 -0.16243973 -0.1437144 0.026833104 -0.19075418 -0.16765423 -0.07288624 0.29565284
-0.20343083 0.14674577 0.018269604 0.0064632026 0.0470163 -0.15534362 0.050291516 -0.16061398
0.036889255 -0.12246984 0.28291535 0.011989819 -0.31107423 -0.3904595 0.1086997 0.114508614
0.21232119 -0.07531371 -0.2585271 -0.13774127 0.33229178 -0.2712616 0.36884296 -0.048008032
-0.30112585 0.17257941 -0.118746854 0.12989877 0.26774913 -0.06652844 0.11444625 0.1622735
0.13243717 -0.22005849 -0.2852012 0.15711704 0.25570783 0.017477918 0.060313445 0.16584691
0.46990895 -0.05773037 0.04570895 0.14006954 -0.38628724 0.10495676 0.13983376 -0.1280347

mlp.0.bias f4 [16]
00000000: 706b 873e bf68 cb3d f571 0d3e bf98 133d
00000010: 8851 953d 5129 cebd 3a50 e33c 6954 8f3d
00000020: 7d87 843e 7295 7c3d 8991 efbb a261 da3d
00000030: 97f8 743e 1ed3 4fbd a0ee 8a3e 26af f03d
0.26449156 0.09932088 0.13813002 0.036034342 0.072909415 -0.10066474 0.027748216 0.06998522
0.2588462 0.06166596 -0.0073110503 0.10663153 0.23922954 -0.050738446 0.2713518 0.11752157

mlp.3.weight f4 [2, 16]
00000000: dde7 14bf 86ac 1fbf 0eb0 87be f1ef 9ebe
00000010: 6aa9 17bf 774f 063f ddb9 1bbf 40ba a6be
00000020: 89e0 363f a6f8 d6be 2a90 d7be 28ec 233f
00000030: 661c 08bf b4ec 23be 3cd0 283f c8ab 1a3f
00000040: 253e 833e 1fb6 f33e 063e 1b3f 168c 063f
00000050: 18e6 ac3e d919 07bf 1f4e 923e c602 cc3e
00000060: c21f 9cbe 8302 a63e 84f7 883e beb4 1cbf
00000070: 0368 ac3e 3e06 1b3e e7a1 3fbf 0ff3 f0be
-0.58166295 -0.62372625 -0.26501507 -0.31042436 -0.5924288 0.52465004 -0.6083048 -0.32563972
0.71436363 -0.4198658 -0.42102176 0.6403222 -0.5316833 -0.16008264 0.6594274 0.6041837
0.2563335 0.47599885 0.60641515 0.52557504 0.33769298 -0.52773815 0.28575227 0.39845866
-0.3049298 0.3242379 0.2675134 -0.6121329 0.33673105 0.151391 -0.7485642 -0.4706044

mlp.3.bias f4 [2]
00000000: 4c9d 583e 1fcf 7abd
0.21153754 -0.061232682

weight f4 [15, 30]
00000000: c1f3 8ebf d828 313f f7e3 1bbf 4848 4e3f
00000010: 007d 353f 22f5 01bf 90c4 8dbf ea02 873e
00000020: e52d 14bf d2c4 fe3e 8149 91bf 8b11 453f
00000030: 2990 2bc0 567b 863d 2745 173e b4b0 2540
00000040: 7fbf 25bf f42d 863f ae95 763f 3cd7 df3e
00000050: 833f ce3f 8c3e c0be d024 4ebf 3664 5abf
00000060: ff8e 56be 43ff e33d 3108 c4be 78e8 24bf
00000070: 1e31 2abf c05d 3e3f 4d49 6bbd 60d5 f13b
00000080: 3b7b 74bf 547a 9e3f f89b 6cbe 0839 5e3e
00000090: a851 c9be 75c8 dbbe 3e0a 7f3f 1245 e7bf
000000a0: 883b ecbd 6411 663f 6dc0 ba3f bd98 c6be
000000b0: c152 9a3f b36b ecbd fe6c ac3f ca0b 5e3f
000000c0: 18b3 02bf 4718 ca3d 22c9 0bbc 82a5 85bf
000000d0: b6bc 953f a577 0cc0 42d1 373e 72f3 c1bf
000000e0: a4dd bfbe a08c 193f be7f 2ebf 847b 6f3e
000000f0: 8c56 e43f 02c9 8a3f e77c e2bf d8d2 303f
00000100: 86f5 093f 3254 87bf e406 433f 21db 25be
00000110: f7fd 38bf efeb 913f 59ca f0be 19b8 3dbf
00000120: c0ec 9cbf 3fe5 3cbf 0d13 99bf 6759 d5be
00000130: 0814 893d 142f 96bf 56c7 fa3f 1b03 ed3e
00000140: 9301 45bf 8187 423f ed0f c0be 6363 f4be
00000150: cee6 18c0 6bed 0a40 fb22 d9bf 5d97 c8bf
00000160: ce94 96bf 9175 de3f 9bfb 6fbb a8ca 573f
00000170: b75f 5abf 97e8 9e3f bd0e 1dbf 4f04 913f
00000180: b645 9e3f af5b 0bbf f499 833f 39c1 a33f
00000190: 60bc 0dbf 19e4 e6bf d885 9a3e 0272 03bf
000001a0: 9b1f 983f 9398 0f3e 2cdb 62bf 9866 78be
000001b0: ebd7 d73f 6af3 3cbf 9d43 b03f 47e7 043f
000001c0: 1e35 2b3f 59a6 2a3f 085d 943e fbe8 5cbf
000001d0: 0ef5 c6bf 42d1 a0bf b3db 8c3f cd3d 23be
000001e0: 533e 15bd c15a 82be 2fb6 773e 038f 293f
000001f0: 38c5 87bf c3ce 75bf 32f7 3b3d 7566 ecbf
00000200: f6f9 d63f b29d 1dbf fe5c 30be 1026 91be
00000210: be84 fc3e b471 383f 4890 b13e 7f5f 013f
00000220: 60e3 61be 6733 b4bf 63c4 b53f 0078 03c0
00000230: 014f 58bf 5e0f 4f3f 4291 1c3f 2de3 4a40
00000240: 9f04 0cbf fb86 85bf 5ecc 15be a933 a23e
00000250: 4ea2 1fc0 5c81 5c3f 370f 763e cee8 7b3e
00000260: 2714 183f bb62 dbbe 07fb 4dbd 9d0e 49bf
00000270: 94e1 193f 2c53 6a3f e431 a1bf 0808 f93e
00000280: 9ae0 ed3e 9dd0 3dbd 7063 273f b925 bfbf
00000290: 7014 bd3f 1417 f93d ff76 72bf 8058 e13e
000002a0: 7556 81bf 966e 17bf 54e4 27bf 8cd6 4dbd
000002b0: 2932 89bf d8ab 7ebf d3c2 e63e 60d4 1d3f
000002c0: bde6 ac3f 165a 3a3e 980e 223e 22df 82bf
000002d0: c869 3dc0 138d da3e c5b8 55bf 5d84 ca3f
000002e0: 89e3 093f ebc7 d63f dcb7 a93f 655d c63e
000002f0: 1efd 1dbe 7e5c 01bf fe9c 66bf 7388 da3f
00000300: 130a a6be 4fe6 0abf 2b51 4abf 64fc 16bf
00000310: abe8 dcbf 2733 213f 080a 21bf 1646 84bf
00000320: b847 15c0 8ae3 80bf 90e2 e03d 8352 e93f
00000330: 3f8e 2b3e 5f33 52bf 6c4a f3bf f845 af3f
00000340: 4a1a 5f3e 0e6d 8a3f 5e97 6740 9b03 4c3f
00000350: 4f9e 953f d66f 173f 35d3 46bf 59cb 083f
00000360: 0aa2 2e3f c250 2f3f b82f 68be f473 83bf
00000370: d72a ac3e 06eb 1d3f 6627 debf 274f a9bf
00000380: f919 aabf 1a54 093f 227a 843f f469 b13f
00000390: 5927 9c3f 672d 9c3f a66b 4e3f 2252 c9be
000003a0: 3b88 c03f ba6c 793f 18b5 a93f e703 423c
000003b0: ee6e b3be 7678 1b3f 5523 1140 378a 68bf
000003c0: e285 49be f64c 833f 4b54 9a3f 3d13 a13f
000003d0: be2f 84bf f097 71bf 9388 12bf fc97 1c3d
000003e0: 65cd c53f 9078 c73f 381e abbf d052 aebf
000003f0: abaa c4be 37ff 4abf ef98 babf 1d99 bcbe
-1.1168138 0.6920295 -0.6089472 0.8057904 0.7089386 -0.5076467 -1.1075611 0.2636941
-0.5788253 0.49759537 -1.1350557 0.76979893 -2.6806738 0.06566493 0.14772473 2.58891
-0.64745325 1.0482774 0.96322143 0.43718898 1.6113132 -0.3754772 -0.8052492 -0.8530916
-0.20952986 0.11132672 -0.382875 -0.6441722 -0.66481197 0.743618 -0.057442952 0.0073801726
-0.95500535 1.2381082 -0.23106372 0.21701443 -0.3932011 -0.42926374 0.99625003 -1.8067954
-0.11534792 0.89870286 1.4589974 -0.38788405 1.2056504 -0.115439795 1.3470762 0.8673674
-0.51054525 0.09867912 -0.0085318405 -1.0441134 1.1698215 -2.1948025 0.1795092 -1.5152419
-0.37473786 0.599802 -0.6816367 0.23386961 1.7838912 1.0842593 -1.7694367 0.6907172
0.53890264 -1.0572569 0.7618239 -0.16196872 -0.7226252 1.1400126 -0.4702938 -0.74109036
-1.225975 -0.737873 -1.1958939 -0.4166977 0.06693274 -1.1733117 1.9592083 0.46291432
-0.7695553 0.7598801 -0.3751215 -0.47732076 -2.3890872 2.1707408 -1.69638 -1.5671192
-1.1764162 1.7379628 -0.0036618474 0.84293604 -0.853023 1.2414731 -0.61350614 1.132944
1.2365024 -0.54436773 1.0281358 1.2793342 -0.5536556 -1.803836 0.3018024 -0.5134584
1.1884645 0.14023046 -0.8861568 -0.24257886 1.6862768 -0.7380892 1.3770634 0.519154
0.66877925 0.66660076 0.28977227 -0.86293 -1.5543535 -1.256386 1.1004547 -0.15941544
-0.03643639 -0.25459865 0.24190591 0.66233844 -1.0607061 -0.9601862 0.04589004 -1.8468767
1.6795032 -0.6156875 -0.17222974 -0.28349352 0.49320024 0.720485 0.3468039 0.5053634
-0.22059393 -1.4078187 1.4200557 -2.0541992 -0.8449555 0.80882823 0.61159146 3.1701157
-0.5469455 -1.0431818 -0.14628741 0.3168004 -2.4942813 0.86134887 0.24029242 0.24600527
0.5940575 -0.42848763 -0.050288226 -0.78537923 0.6010983 0.9153316 -1.259335 0.4863894
0.4646042 -0.046341527 0.65386105 -1.4933387 1.4771862 0.12162605 -0.94712824 0.44012833
-1.010451 -0.59153116 -0.65582776 -0.050253436 -1.0718433 -0.9948096 0.45070514 0.61652184
1.3507916 0.18198428 0.1582588 -1.0224345 -2.9595814 0.42685756 -0.8348506 1.5821644
0.53862816 1.677976 1.3259234 0.3874313 -0.15428588 -0.50531757 -0.900833 1.7072891
-0.3242956 -0.54257673 -0.790301 -0.5897887 -1.7258505 0.6296868 -0.6290593 -1.0333889
-2.3325024 -1.006944 0.10980713 1.8228306 0.16753481 -0.82109636 -1.9007087 1.3693228
0.21787372 1.0814531 3.6186137 0.79693 1.1688937 0.59155023 -0.77666026 0.53435284
0.68216 0.684826 -0.22674453 -1.0269761 0.33626434 0.6168674 -1.7355773 -1.322728
-1.3289176 0.53643954 1.0349772 1.3860459 1.2199508 1.2201356 0.8063301 -0.39320475
1.5041574 0.9743153 1.325839 0.011841751 -0.3504557 0.60730684 2.2677815 -0.908359
-0.19679978 1.0257862 1.2056974 1.2583996 -1.032707 -0.94372463 -0.57239646 0.03823088
1.5453306 1.5583668 -1.3368597 -1.3619022 -0.3841146 -0.79295677 -1.4577922 -0.36835566
