assignment_3/outputs/models/pos_neg_examples.pth (torch, 47612 bytes, 20 tensors)

embedding.weight f4 [15, 20]
0	0x3ff585ab	1.9181417
1	0x3fbe20f5	1.4853808
2	0x3f68dff9	0.90966755
3	0xc0069e64	-2.1034174
4	0x3f2d4a45	0.6769145
5	0xbf9e74ed	-1.2379433
6	0xbd320f07	-0.043471362
7	0xbfccfebd	-1.601524
8	0xbf406c8c	-0.7516563
9	0x3fd4942c	1.6607718
10	0xbec70997	-0.38874504
11	0xbfb4643e	-1.4093091
12	0xbf39d204	-0.72586083
13	0xbf102d6e	-0.5631932
14	0xbf452599	-0.77010494
15	0x3f461f45	0.77391464
16	0x3fd3f158	1.6558027
17	0xbe1ecab5	-0.15507014
18	0xbf00f616	-0.503755
19	0x3ee4490e	0.44586986
20	0xbf420e44	-0.7580302
21	0x3f8b1114	1.0864587
22	0x3f4c7506	0.79866064
23	0x3fd708c8	1.6799555
24	0x3fa1c414	1.2637963
25	0x3fa495ab	1.2858175
26	0x3f1d21af	0.6137952
27	0x3faa2af8	1.3294363
28	0xbe653256	-0.22382483
29	0x3d3c67ae	0.045997314
30	0xbe78a6a5	-0.2428232
31	0x3f5a08c0	0.851696
32	0xbfb122d0	-1.3838749
33	0xbf6000cf	-0.87501234
34	0xbe651438	-0.22370994
35	0x3fdb442d	1.7130181
36	0x3ea554b3	0.32291183
37	0xbedbc73f	-0.4292545
38	0x3e9f9f37	0.3117616
39	0xbf4811df	-0.7815227
40	0xbfc94784	-1.572495
41	0x3f80ec4f	1.0072116
42	0xbf644b06	-0.89176977
43	0xbf19a37f	-0.600151
44	0xbfa27a53	-1.269358
45	0x40079895	2.1186879
46	0xbf9ef5e9	-1.2418796
47	0xbf0191bb	-0.5061299
48	0xbf6a51e4	-0.91531205
49	0xbf2a3385	-0.6648486
50	0x3daeccef	0.08535182
51	0x3f07502d	0.52856714
52	0xbf006ead	-0.5016888
53	0x3f96e4b2	1.1788542
54	0xbf4ece97	-0.8078398
55	0xbf3bb851	-0.7332812
56	0xbfb24a32	-1.3928893
57	0x3d3506b6	0.044195853
58	0xbd62b8c0	-0.055351973
59	0x3f2da4fd	0.6782988
60	0xbdce7eb9	-0.10082764
61	0x3fec4fe6	1.8461883
62	0xbf976790	-1.182848
63	0x3fb05927	1.3777207
64	0x3fb97519	1.448886
65	0x3f585f7d	0.84520704
66	0x400e1e3f	2.220596
67	0x3f042879	0.51624256
68	0x3eae1c1d	0.34005824
69	0xbe43dff0	-0.19128394
70	0xbf86d9b3	-1.0535187
71	0x3fa32e61	1.2748529
72	0xbe29dc21	-0.16587879
73	0x3f040cc9	0.5158201
74	0x3d7e0d34	0.06202431
75	0x3eda62a5	0.42653385
76	0x3f144ad0	0.57926655
77	0xbf225025	-0.6340354
78	0xc00dc08f	-2.2148778
79	0xbf3d9cf7	-0.74067634
80	0x3bd03ded	0.0063550384
81	0xbeacb89b	-0.33734593
82	0xbfacb32d	-1.349218
83	0xbf18854c	-0.59578395
84	0x3f0c3ac4	0.5477717
85	0x3f040919	0.5157638
86	0x3f901b24	1.1258283
87	0x3d48572a	0.04891125
88	0x3f3e3645	0.7430156
89	0xbef5dc67	-0.48019716
90	0xbf84db04	-1.0379338
91	0x3f1cb11c	0.6120775
92	0xbfdbde7c	-1.7177272
93	0xbf561ff6	-0.8364252
94	0x3faa5272	1.330641
95	0x3ef6f999	0.48237303
96	0xc020baeb	-2.5114086
97	0x3efa799d	0.4892091
98	0x3f49eb37	0.78874534
99	0x3ceaa9b1	0.028645368
100	0x3f21a62f	0.631442
101	0x3f186ce6	0.59541166
102	0x3f8845de	1.0646322
103	0xbedf708f	-0.43640563
104	0xbe42dbf9	-0.19029225
105	0x3f402f34	0.75072026
106	0x3eccbc08	0.39987206
107	0x3e27d8c8	0.16391289
108	0x3e87f014	0.26550353
109	0x3fa0f91f	1.2576026
110	0x3a33f840	0.00068653
111	0xbe9c7bff	-0.30563352
112	0xbfba55fb	-1.4557489
113	0xbdf8f33f	-0.121557705
114	0xbf17939f	-0.59209627
115	0x3ef176f7	0.47161075
116	0x3f3a90a2	0.7287694
117	0x3d883b91	0.066519864
118	0xbec181d0	-0.37794352
119	0x3f02f52c	0.5115535
120	0xbc6959d4	-0.014242608
121	0x3e801566	0.25016326
122	0x3e04ee13	0.12981443
123	0x3f432a05	0.7623599
124	0x3f8d02c6	1.1016471
125	0x3eaf124e	0.34193653
126	0x3f358de6	0.70919645
127	0x3ece7d44	0.40329945
128	0x3ff67efc	1.9257503
129	0x3f80d5f2	1.0065291
130	0xbfb4fa2e	-1.4138849
131	0xbf919b93	-1.1375602
132	0xbe0fc144	-0.14038569
133	0x3fd023bd	1.6260906
134	0x3f28a047	0.65869564
135	0x3f147aa4	0.57999635
136	0x3f92f02d	1.1479546
137	0x3cbf823f	0.023377536
138	0xbfe6b3ef	-1.8023661
139	0x3f6dbce9	0.9286638
140	0xbec73903	-0.38910684
141	0x3f8451b3	1.0337433
142	0xbf2dff54	-0.67967725
143	0x3f213706	0.62974584
144	0xbf791698	-0.973001
145	0x3f76b380	0.96367645
146	0x3fcf6507	1.6202706
147	0x3fb80b00	1.4378357
148	0x3e858314	0.26076567
149	0xbe643c42	-0.22288612
150	0xbf3cc020	-0.7373066
151	0x3dc255d3	0.09489026
152	0x3eae3302	0.3402329
153	0x3f720e9c	0.9455354
154	0xbef76e5b	-0.48326382
155	0x3fcbec9d	1.5931584
156	0xc01d327b	-2.456206
157	0xbedf7493	-0.43643627
158	0xbf994ce0	-1.1976585
159	0x3f4ebf5a	0.8076073
160	0xbff44414	-1.9083276
161	0x3e6b0445	0.22950847
162	0x3cf9329c	0.03041964
163	0xbeadd242	-0.33949476
164	0x3e939fb2	0.28832775
165	0xbf399c9b	-0.72504586
166	0x3e207ace	0.15671846
167	0xbf8c95d3	-1.0983223
168	0xbfccd26b	-1.6001714
169	0x3fabfb44	1.3436055
170	0x3fa5a604	1.2941289
171	0x3d554035	0.052063186
172	0xbfc7de88	-1.5614786
173	0x3f3dac30	0.7409086
174	0x3f45b6d4	0.772321
175	0x40008ea5	2.0087063
176	0x3d1e822c	0.03869836
177	0x3de50130	0.11181867
178	0xbf4abdc8	-0.79195833
179	0xbe5f6c2b	-0.21818607
180	0x00000000	0.0
181	0x00000000	0.0
182	0x00000000	0.0
183	0x00000000	0.0
184	0x00000000	0.0
185	0x00000000	0.0
186	0x00000000	0.0
187	0x00000000	0.0
188	0x00000000	0.0
189	0x00000000	0.0
190	0x00000000	0.0
191	0x00000000	0.0
192	0x00000000	0.0
193	0x00000000	0.0
194	0x00000000	0.0
195	0x00000000	0.0
196	0x00000000	0.0
197	0x00000000	0.0
198	0x00000000	0.0
199	0x00000000	0.0
200	0x3f06ac01	0.5260621
201	0x40072ba1	2.112038
202	0xbf055057	-0.52075714
203	0xbf6e97f4	-0.9320061
204	0x3e3d9aef	0.18516134
205	0x3f88cae5	1.0686918
206	0x3fa73c85	1.3065344
207	0x3eeb6f6e	0.45983452
208	0xbf508b63	-0.8146269
209	0xbf82b7f8	-1.0212393
210	0xbefd669f	-0.49492356
211	0xbf179dce	-0.59225166
212	0x3e1e0500	0.15431595
213	0x3ee1ac39	0.44076708
214	0xbe17d9f0	-0.1482923
215	0xc0146160	-2.3184433
216	0xbecbc60b	-0.39799532
217	0x3f8a4d60	1.0804863
218	0xbfe3f35d	-1.7808644
219	0x3fc107a2	1.5080454
220	0x3e9e6f88	0.30944467
221	0xbf02d777	-0.51110023
222	0x3f85adf2	1.0443709
223	0x3fda1c23	1.7039837
224	0x3b3bc854	0.002865334
225	0x3fd54e2e	1.6664484
226	0x3e2c6f4b	0.1683933
227	0xbf874b29	-1.0569812
228	0xbf10c8c7	-0.5655636
229	0x3da9b01c	0.08285543
230	0x3ec787b6	0.38970727
231	0x3ffcc98e	1.974901
232	0xbda0cf96	-0.07852094
233	0xbf683d45	-0.9071849
234	0xc003d5c8	-2.0599232
235	0xbf89cefd	-1.0766293
236	0x3cd8f565	0.0264842
237	0x3d92fe41	0.07177401
238	0x3e3e03a6	0.1855608
239	0x3ed0c38c	0.4077419
240	0xbf6d1c1c	-0.92621017
241	0x3e8fac40	0.28061104
242	0xbf07d5ba	-0.53060496
243	0x3ef19ad9	0.47188452
244	0xbf5fea93	-0.87467307
245	0xbce17137	-0.027519805
246	0xbeb61a6b	-0.3556703
247	0x3fbc165b	1.4694322
248	0x3fa0cb54	1.2562051
249	0xbf35ffad	-0.71093255
250	0x3f5d1a85	0.8636859
251	0x3f0530ae	0.52027404
252	0x3f0a2291	0.53958994
253	0x3f1447fb	0.57922333
254	0x3f01806e	0.50586593
255	0x3e6cf97a	0.23142043

lstm.lstm_cell.weight_ih f4 [128, 20]
0	0x3dec4578	0.115366876
1	0x3e301779	0.17196454
2	0xbcf6552c	-0.03006991
3	0x3d4543a8	0.048160225
4	0xbde72884	-0.112870246
5	0xbcfb2a6f	-0.030659882
6	0x3e105785	0.14095886
7	0x3dd7922e	0.105259284
8	0xbdc4c410	-0.096077085
9	0xbe12d1f0	-0.14337897
10	0xbe0232aa	-0.1271464
11	0xbe2db65b	-0.16964094
12	0xbe0aa86d	-0.13540812
13	0xbd095218	-0.033525556
14	0x3e0246b1	0.12722279
15	0x3d013b48	0.031550676
16	0xbe076183	-0.13220792
17	0xbe0f8dcc	-0.14018935
18	0x3da285fb	0.07935711
19	0xbe086581	-0.1331997
20	0xbc844de8	-0.01615043
21	0x3dbc3237	0.09189265
22	0xbd9991e0	-0.074985266
23	0xbc47530f	-0.012165799
24	0xbc89a765	-0.016803453
25	0xbd3d15c6	-0.046163343
26	0xbda6d4f3	-0.081460856
27	0xbe24724c	-0.16059226
28	0xbe07e001	-0.13269044
29	0xbdc3774b	-0.09544238
30	0x3e3112b0	0.17292285
31	0xbdbdac03	-0.09261324
32	0xbdec2727	-0.11530905
33	0x3d5af1dd	0.053453315
34	0x3d4b255d	0.04959618
35	0x3dbc1d43	0.09185269
36	0x3e14c42a	0.14527956
37	0x3dbcf7a2	0.0922692
38	0xbe41649b	-0.18886034
39	0x3c35b7df	0.011091202
40	0x3dc15005	0.09439091
41	0xbca551ca	-0.020180602
42	0xbdea28a0	-0.1143353
43	0x3e2bb52c	0.1676833
44	0xbd7157a2	-0.058921464
45	0xbdbd69b5	-0.09248678
46	0xbe259188	-0.16168797
47	0x3ba08890	0.004899092
48	0x3d9a959a	0.075480655
49	0x3d250ea5	0.04029717
50	0x3cf97049	0.03044905
51	0xbdfbe669	-0.122998066
52	0xbe310db7	-0.17290388
53	0x3ba38145	0.0049897754
54	0x3e224446	0.15846357
55	0x3dd5493b	0.10414358
56	0xbdcf7c01	-0.10131074
57	0xbc892482	-0.016741041
58	0xbe0613a7	-0.13093434
59	0xbdb28dde	-0.08718465
60	0x3d02fd53	0.03197987
61	0x3dcbed55	0.09957377
62	0x3e189fc0	0.1490469
63	0xbe238ad6	-0.1597093
64	0x3de2828c	0.11060056
65	0xbdfb26c4	-0.12263253
66	0x3d892f88	0.06698519
67	0x3e130ffb	0.14361565
68	0x3b8f3b5f	0.0043710913
69	0x3e21871f	0.15774201
70	0xbe159704	-0.14608389
71	0xbd98d86a	-0.07463153
72	0x3dd47e9c	0.10375711
73	0xbd0032b2	-0.031298347
74	0xbd36de02	-0.044645317
75	0xbda07b13	-0.078359745
76	0x3df41f9d	0.11920092
77	0x3daae153	0.083437584
78	0x3d6a5f1a	0.057219602
79	0xbdcad0d0	-0.09903109
80	0xbe09be79	-0.13451566
81	0x3ce901b4	0.028443195
82	0x3d62b298	0.0553461
83	0xbda20fe1	-0.07913185
84	0xbd63b095	-0.055588324
85	0x3dd8fb09	0.10594756
86	0x3c742ac9	0.014902779
87	0xbc33da4d	-0.01097734
88	0xbd5bb44c	-0.05363874
89	0xbe2f02a8	-0.17090857
90	0xbe1b54b3	-0.15169029
91	0xbdba31d3	-0.090915345
92	0xbd9c87b4	-0.07643071
93	0x3d3a5c65	0.04549827
94	0xbd386020	-0.045013547
95	0xbdae0460	-0.08496928
96	0x3e27172e	0.16317436
97	0x3d5005b5	0.050786693
98	0x3dfde644	0.12397435
99	0xbdce10bb	-0.10061785
100	0xbd8ec143	-0.069704555
101	0x3d75b6c6	0.05998876
102	0xbe07375a	-0.13204709
103	0xbdd3c4a8	-0.103402436
104	0xbca39587	-0.019968761
105	0xbd426eb2	-0.04746885
106	0xbe035708	-0.12826169
107	0x3e019a44	0.12656504
108	0x3e1f63b5	0.15565379
109	0x3c364b56	0.01112636
110	0xbd27ae78	-0.04093787
111	0xbe1733bf	-0.14765833
112	0xbd5521ff	-0.052034374
113	0x3d33334b	0.04375009
114	0x3da72b23	0.081625246
115	0xbceae173	-0.028671956
116	0xbda579b1	-0.080798514
117	0x3dcf8c39	0.10134167
118	0xbe0fa49a	-0.14027634
119	0x3dedaaee	0.11604868
120	0xbd948cdf	-0.072534315
121	0xbc5bf905	-0.01342607
122	0xbcfd7ffd	-0.030944819
123	0x3c3c6899	0.011499547
124	0xbd581ec0	-0.0527637
125	0x3e062e49	0.13103594
126	0xbc9652cc	-0.018350028
127	0x3e063605	0.13106544
128	0x3e2429d9	0.16031589
129	0xbdad37e0	-0.08457923
130	0xbdff79e7	-0.12474423
131	0x3e157dee	0.1459882
132	0x3e05aa9a	0.1305336
133	0xbe11bd1c	-0.14232296
134	0xbc0a9b81	-0.008459927
135	0xbe3657bf	-0.1780691
136	0xbe144b02	-0.14481738
137	0x3d46116e	0.048356466
138	0x3d79cdd5	0.060987312
139	0x3d34a16a	0.04409925
140	0xbd4aed66	-0.049542807
141	0x3e255b74	0.16148168
142	0x3ca6e893	0.020374572
143	0xbde754b2	-0.11295451
144	0xbc0f5954	-0.008749325
145	0x3d2944fb	0.04132555
146	0x3d642b2c	0.055705234
147	0xbe0827d4	-0.13296443
148	0x3d8c8c8c	0.06862745
149	0xbdb79e01	-0.08965684
150	0xbe1a09ef	-0.15042852
151	0xbdc71776	-0.09721272
152	0x3e2ac181	0.16675378
153	0x3e1dce49	0.15410723
154	0x3e23f66d	0.16011973
155	0x3dcb0b54	0.0991427
156	0x3e061f7b	0.13097946
157	0xbcb40d7f	-0.021979092
158	0xbdbd897d	-0.092547394
159	0x3db98bcd	0.09059868
160	0xbdb7b6cd	-0.08970413
161	0xbe0334cf	-0.12813114
162	0xbd6738c1	-0.05645061
163	0x3d11fcee	0.035641603
164	0x3dcbcfbe	0.09951733
165	0xbd79e08d	-0.061005164
166	0xbde30bb4	-0.110862166
167	0x3d00cc14	0.031444624
168	0xbdcfdd48	-0.10149628
169	0xbde8156e	-0.113322124
170	0x3dc48673	0.09595957
171	0xbd034aac	-0.032053635
172	0x3e300553	0.17189531
173	0x3e358280	0.17725563
174	0x3d99039c	0.074713916
175	0x3d80ef9e	0.06295703
176	0x3d246e79	0.040144417
177	0x3c482c8b	0.012217651
178	0xbca8433d	-0.020539874
179	0x3c4ca0bd	0.012489495
180	0x3d8883df	0.066657774
181	0x3e2a394e	0.16623423
182	0xbd4be9f6	-0.04978367
183	0xbd9d856a	-0.07691462
184	0xbd3d4459	-0.04620776
185	0xbdae4c85	-0.08510689
186	0x3d0793cb	0.03309993
187	0x3e03558b	0.12825601
188	0x3e0f087f	0.13968085
189	0x3d9e32f5	0.07724563
190	0xbe08bffe	-0.13354489
191	0xbdbac1e9	-0.09119017
192	0xbd4fb2e6	-0.05070772
193	0xbd2b3b79	-0.041804764
194	0x3c319772	0.01083933
195	0xbe272808	-0.16323864
196	0x3d4fd652	0.0507415
197	0xbe0b87f9	-0.13626088
198	0xbdd1fd7f	-0.10253429
199	0xbe187b37	-0.14890753
200	0x3e1f34fd	0.15547557
201	0xbe3a6091	-0.182009
202	0x3e06256d	0.13100214
203	0xbc71f3ef	-0.014767631
204	0xbcbed3e8	-0.023294404
205	0x3dd620bb	0.104554616
206	0xbcfc0b95	-0.030767241
207	0x3ddf762b	0.109112106
208	0x3df722cd	0.120671846
209	0xbe206752	-0.15664414
210	0x3d97802f	0.07397496
211	0x3d0fbe97	0.03509387
212	0x3d3bf593	0.045888495
213	0x3c63f090	0.013912335
214	0x3d64578a	0.055747546
215	0xbdba6c0e	-0.09102641
216	0xbd0c16c8	-0.034201413
217	0x3e37011c	0.17871517
218	0x3e04e02c	0.1297614
219	0x397eaf3a	0.00024288605
220	0xbe2497ad	-0.16073485
221	0x3c7f48f4	0.015581358
222	0xbdeb8c6a	-0.11501391
223	0x3e15a4d9	0.14613666
224	0xbde5ed7a	-0.11226936
225	0xbcaf8a72	-0.02142832
226	0xbd012638	-0.03153059
227	0x3cd9bfb7	0.026580675
228	0x3e2f0611	0.17092158
229	0x3c8142aa	0.015778858
230	0x3dc6879d	0.09693835
231	0x3e04cd03	0.12968831
232	0x3e131142	0.14362052
233	0xbd81dec1	-0.06341315
234	0xbd4a49f7	-0.049386945
235	0x3dab44e5	0.0836275
236	0xbd33cb23	-0.0438949
237	0x3d9d4262	0.07678677
238	0xbd251fc1	-0.040313486
239	0xbdfe21d4	-0.12408796
240	0x3d9b556c	0.07584652
241	0x3c3f3901	0.011671306
242	0x3da64a96	0.08119695
243	0x3e3182f5	0.17335112
244	0x3e0806a3	0.13283782
245	0x3e2f2433	0.17103653
246	0x39beec38	0.0003641562
247	0xbe1fc3a6	-0.15601978
248	0xbe02b63b	-0.12764828
249	0xbde37e5a	-0.11108084
250	0xbe14628a	-0.14490715
251	0xbdb868de	-0.09004377
252	0xbe17abab	-0.1481158
253	0xbe28f14e	-0.164983
254	0xbda5bc1e	-0.08092521
255	0xbe408bdb	-0.1880335

lstm.lstm_cell.weight_hh f4 [128, 32]
0	0x3d6d114a	0.057877816
1	0x3d3f9f41	0.046782736
2	0xbd1ebb33	-0.038752746
3	0x3c997774	0.018733718
4	0xbd9d1438	-0.07669872
5	0xbdce5a49	-0.10075814
6	0xbe2e4cc9	-0.17021479
7	0xbe13f221	-0.14447834
8	0xbde869a4	-0.11348274
9	0x3e2a6076	0.1663836
10	0x3d0b61f0	0.034028947
11	0xbe2a9599	-0.1665863
12	0xbdb35241	-0.08755923
13	0x3d32fc2a	0.043697514
14	0xbd5b7778	-0.05358073
15	0xbd2d097d	-0.042245377
16	0xbd8a68e5	-0.06758288
17	0xbd2e99e9	-0.04262725
18	0x3cedd5c4	0.029032595
19	0x3c59269b	0.013253833
20	0x3de184f1	0.11011685
21	0x3de26752	0.11054863
22	0x3e0fbb2d	0.14036246
23	0xbc93707d	-0.017997975
24	0xbdb82d2f	-0.08992993
25	0x3bbb82b4	0.005722368
26	0xbdfc57e2	-0.1232145
27	0x3d87ddf2	0.066341296
28	0xbca10531	-0.019655796
29	0xbd7e67f9	-0.062110875
30	0xbe131dfd	-0.14366908
31	0x3db0274a	0.08601244
32	0x3dbc9662	0.09208371
33	0x3e294536	0.16530308
34	0xbd824120	-0.06360078
35	0x3d49e2cc	0.049288556
36	0x3b220cdb	0.00247269
37	0xbdd52898	-0.10408133
38	0xbe01a374	-0.12660009
39	0x3db13c26	0.086540505
40	0xbdf3a50b	-0.11896714
41	0x3dff2407	0.124580435
42	0x3d56982e	0.052391224
43	0x3d53387d	0.051567543
44	0x3def5c6d	0.11687551
45	0x3dab0c22	0.083519235
46	0x3d9e20b5	0.07721082
47	0x3dd0c1b8	0.10193199
48	0xbdb86302	-0.09003259
49	0xbdc92d52	-0.09823097
50	0xbc9385b3	-0.018008089
51	0x3dd25c8c	0.10271558
52	0x3e01d21e	0.1267781
53	0x3e052016	0.13000521
54	0xbd89afb9	-0.067229696
55	0xbd1c3b5e	-0.038142554
56	0xbe079b7e	-0.1324291
57	0x3de2fb9c	0.11083147
58	0xbdfaa208	-0.12237936
59	0xbdb5d7a3	-0.0887902
60	0x3e1b080e	0.15139791
61	0x3d4d0e34	0.050062373
62	0xbd92a382	-0.07160093
63	0xbe00986b	-0.12558143
64	0xbdfa977a	-0.12235923
65	0x3e0da26c	0.1383149
66	0xbe28862b	-0.16457431
67	0x3e20441d	0.15650983
68	0x3e0fd464	0.14045864
69	0x3ca0121e	0.019539889
70	0xbc80701f	-0.015678464
71	0x3e1081b7	0.14111982
72	0x3d9d597b	0.07683083
73	0x3e2e73fa	0.17036429
74	0x3e15d5b5	0.14632304
75	0xbdeb017a	-0.11474891
76	0x3ddd1ace	0.10796128
77	0x3db21c73	0.086968325
78	0xbe001d7f	-0.12511252
79	0x3da57712	0.080793515
80	0xbdb12393	-0.08649363
81	0xbdd89dfa	-0.10577007
82	0x398446b8	0.00025229692
83	0xbcda1377	-0.02662061
84	0xbd28cd81	-0.04121161
85	0xbde4ec57	-0.11177891
86	0x3db97265	0.09055022
87	0x3e4624f3	0.19350033
88	0xbd2dbba4	-0.042415276
89	0xbde82163	-0.11334493
90	0xbc571623	-0.013127836
91	0xbe19eadc	-0.15030998
92	0xbe0f6191	-0.14002062
93	0xbd69795b	-0.0570005
94	0x3dd43d20	0.10363221
95	0xbe0c9562	-0.1372886
96	0xbd08450e	-0.03326898
97	0xbdb180df	-0.08667158
98	0xbe327d06	-0.17430505
99	0xbd2fa991	-0.04288632
100	0xbc6b2e5c	-0.014354315
101	0xbcda9bae	-0.026685562
102	0x3dfdf5fa	0.12400432
103	0x3d85e042	0.065369144
104	0x3dcb5a05	0.09929279
105	0x3d7dbcf7	0.06194779
106	0x3c31b46d	0.0108462395
107	0x3dbeecac	0.09322485
108	0xbdea4e93	-0.11440768
109	0x3db10bbc	0.08644816
110	0x3daaee51	0.083462365
111	0xbd85c78a	-0.065322
112	0xbc4eeeda	-0.012630189
113	0xbe08864e	-0.13332483
114	0xbe1798f9	-0.14804448
115	0x3b553970	0.0032535456
116	0x3d035031	0.0320589
117	0xbd29662e	-0.04135721
118	0x3d1c1a91	0.038111273
119	0xbe10a1dd	-0.14124246
120	0xbdd2430b	-0.10266694
121	0x3df6e628	0.120556176
122	0xbe30b7d6	-0.17257628
123	0x3cb010e1	0.021492423
124	0x3e0f3287	0.13984118
125	0x3e0a8535	0.13527377
126	0x3d63537e	0.055499546
127	0xbe305c9a	-0.17222825
128	0x3c69e463	0.014275643
129	0xbd64ad11	-0.05582911
130	0xbd29deda	-0.041472293
131	0x3e033d85	0.12816437
132	0xbd8997f4	-0.06718436
133	0xbe0ae354	-0.13563281
134	0xbe09880a	-0.13430801
135	0x3dd3a3c0	0.10333967
136	0x3c71b824	0.014753375
137	0x3e2e0a00	0.16996002
138	0x3d034492	0.032047816
139	0xbe267e09	-0.16259016
140	0x3d7939b9	0.060846064
141	0x3e1f4332	0.15552977
142	0x3de7249b	0.11286279
143	0x3d702237	0.05862638
144	0xbdfcbab0	-0.12340295
145	0xbdcb2c67	-0.099205784
146	0x3de397a9	0.11112911
147	0xbdea96cd	-0.11454544
148	0x3d322935	0.04349633
149	0xbcbddb39	-0.023175823
150	0x3d77ad41	0.060467962
151	0x3bfbbde2	0.007682548
152	0xbe086e8a	-0.13323417
153	0xbd9aa586	-0.07551102
154	0x3e26241c	0.16224712
155	0x3cd7b28c	0.026330255
156	0x3dbfec51	0.09371246
157	0xbdb609e8	-0.08888608
158	0x3e0cb1a7	0.13739644
159	0xbd1e82e4	-0.038699046
160	0xbd6299aa	-0.055322327
161	0x3d107c96	0.035275064
162	0xbd604045	-0.054748792
163	0xbd90866d	-0.0705689
164	0xbcd8f7f3	-0.026485419
165	0xbc2d9b96	-0.010596177
166	0xbdc01777	-0.093794756
167	0x3d8d6d82	0.069056526
168	0xbe285d39	-0.16441812
169	0x3deafc24	0.11473873
170	0x3e305ede	0.17223689
171	0x3d099cf8	0.033596963
172	0xbd2ab7e1	-0.041679267
173	0xbe21b106	-0.15790185
174	0x3daf6060	0.08563304
175	0x3e04d7ab	0.12972896
176	0x3e1ffb4d	0.15623207
177	0xb88556a8	-6.358075e-05
178	0x3d88738a	0.06662662
179	0x3e2a20d7	0.1661409
180	0x3cdb4c49	0.026769774
181	0xbdbc6499	-0.09198875
182	0xbe1ddc61	-0.15416099
183	0x3daab66d	0.08335576
184	0x3d9aee26	0.075649545
185	0x3e1a689a	0.15078965
186	0xbdada456	-0.0847861
187	0x3da71e9b	0.081601344
188	0xbd8079a7	-0.06273203
189	0xbd4f3e52	-0.050596543
190	0x3dd90465	0.10596541
191	0xbe1b3c9e	-0.15159842
192	0x3e117c2d	0.14207526
193	0x3d817d4f	0.06322729
194	0xbdd0d407	-0.10196691
195	0x3dda0965	0.10646323
196	0xbd265706	-0.040610336
197	0x3c09fac6	0.008421605
198	0xbd2ef10d	-0.042710353
199	0xbe29b063	-0.16571192
200	0xbc4cb076	-0.012493243
201	0x3dd8024b	0.10547312
202	0xbbd6af5d	-0.0065516667
203	0xbdcdc8d9	-0.10048074
204	0x3af0f30f	0.0018382984
205	0x3d3e8eee	0.046523027
206	0xbd7ff9a6	-0.062493943
207	0xbe147576	-0.14497933
208	0xbdca9453	-0.09891572
209	0xbce14a8a	-0.027501363
210	0x3d837ee5	0.064206876
211	0x3e136aa6	0.14396152
212	0xbb96ea77	-0.004605587
213	0x3d9d9014	0.07693496
214	0x3de0d066	0.10977249
215	0xbd95bf82	-0.07311918
216	0xbd55349c	-0.052052125
217	0x3e01dde7	0.12682305
218	0x3dfd14ca	0.12357481
219	0x3d480e80	0.048841953
220	0xbe1786b2	-0.14797476
221	0x3dc92e15	0.098232426
222	0xbe0c4f31	-0.13702084
223	0x3dc80e7c	0.09768388
224	0x3cba33b9	0.022729741
225	0x3d6bd8e0	0.057579875
226	0xbe30cd4b	-0.17265813
227	0xbd7a64da	-0.061131336
228	0x3da01041	0.078156
229	0x3e0de52a	0.1385695
230	0xbd661314	-0.056170538
231	0x3e2879ce	0.16452715
232	0xbd40ba16	-0.047052465
233	0xbdd8148c	-0.10550794
234	0xbd9f94e3	-0.0779207
235	0x3bbb5577	0.0057169753
236	0xbd2bf93a	-0.041985728
237	0x3dbad203	0.09122088
238	0xbdc89552	-0.097941056
239	0xbd4b7b71	-0.04967827
240	0xbe3cb23b	-0.18427365
241	0x3e0d5dc1	0.13805296
242	0xbcbbb2bc	-0.022912376
243	0xbe0ce31d	-0.13758512
244	0xbc1274f7	-0.008939019
245	0x3bc4f7fc	0.0060110074
246	0x3d60aaf9	0.054850552
247	0xbcb87fdd	-0.022521907
248	0x3de78608	0.11304861
249	0xbd74d921	-0.059777383
250	0xbd561b51	-0.052272145
251	0xbd3b153e	-0.045674555
252	0x3d031e13	0.032011103
253	0x3e0ffbe4	0.14060932
254	0xbb8dc936	-0.0043269647
255	0x3e0e5cf1	0.13902642

lstm.lstm_cell.bias_ih f4 [128]
0	0x3e0a8f46	0.13531217
1	0xbe0a15f1	-0.13484932
2	0xbd8d1299	-0.06888313
3	0x3e0e9991	0.13925768
4	0xbe04bb30	-0.12962031
5	0xbe32241a	-0.17396584
6	0xbd704bf2	-0.058666177
7	0xbe14e905	-0.14542015
8	0x3d3607b6	0.044440947
9	0xbcc8cb22	-0.024510924
10	0xbd8c9e46	-0.06866126
11	0x3dd62990	0.10457146
12	0xbbe1fdd3	-0.0068967133
13	0xbe1a0f9e	-0.1504502
14	0xbe377e1a	-0.17919198
15	0x3de3391f	0.11094879
16	0x3dbd1c47	0.09233909
17	0x3dd6b5c9	0.104838915
18	0xbe219531	-0.15779568
19	0xbc87a189	-0.016556518
20	0x3e16ac84	0.14714247
21	0x3e16f01d	0.14740033
22	0x3e008ec5	0.12554462
23	0x3e1f5903	0.15561299
24	0xbd5f8a1e	-0.05457508
25	0xbe0d2f76	-0.13787636
26	0x3dda4935	0.106584944
27	0x3de4c255	0.111698784
28	0xbd83e456	-0.06440036
29	0xbc4bda79	-0.012442225
30	0x389dec82	7.5303964e-05
31	0xbe1b8068	-0.15185702
32	0xbd83ef12	-0.064420834
33	0xbd54c25a	-0.05194316
34	0x3d7a1216	0.061052404
35	0xbd44daf9	-0.04806039
36	0x3d9ebe03	0.077510856
37	0x3e25875b	0.16164915
38	0xbd29e7a0	-0.04148066
39	0xbd3b54e6	-0.045735262
40	0xbdeeb582	-0.116557136
41	0xbc02d69f	-0.00798574
42	0xbe362e6e	-0.17791149
43	0x3e048ede	0.12945125
44	0x3e0ff166	0.1405693
45	0x3d6a3415	0.057178576
46	0x3e21c250	0.1579678
47	0x3db5433c	0.088507146
48	0x3e06ec21	0.13176014
49	0x3e2872a4	0.16449982
50	0xbe1237da	-0.14279118
51	0xbad15270	-0.0015970003
52	0x3d701f90	0.05862385
53	0xbd1ed22e	-0.03877466
54	0xbdf29425	-0.118446626
55	0xbd7c213b	-0.06155513
56	0xbdafa80f	-0.085769765
57	0xbd7189a8	-0.05896917
58	0xbe05c14a	-0.13062015
59	0xbd6dad5d	-0.05802666
60	0x3dbc2424	0.09186581
61	0xbd96e314	-0.073675305
62	0x3da17e5a	0.07885428
63	0xbe171e75	-0.14757712
64	0xbe029bb7	-0.12754713
65	0x3cecf072	0.028923247
66	0x3e32fc00	0.17478943
67	0xbe2c2d46	-0.16814145
68	0x3d8e1840	0.06938219
69	0x3d115cd5	0.035488922
70	0xbe0b9475	-0.1363085
71	0xbe07c971	-0.13260438
72	0x3dafb39c	0.0857918
73	0xbdbdb397	-0.0926277
74	0x3e05979e	0.13046119
75	0xbdeb14fa	-0.1147861
76	0x3e049a5e	0.12949511
77	0xbdd1ca7b	-0.10243698
78	0x3d94a050	0.0725714
79	0x3d78d0d6	0.060746036
80	0xbe19a000	-0.15002441
81	0xbdc92376	-0.09821217
82	0xbd6b61cc	-0.057466313
83	0x3c4ab55c	0.012372341
84	0x3dd00df5	0.10158912
85	0xbdba7458	-0.09104222
86	0x3c8afd57	0.016966505
87	0xbdbf9af0	-0.09355724
88	0xbdb12405	-0.08649448
89	0x3e02d1f8	0.12775409
90	0xbd6a65c2	-0.05722595
91	0xbe17d644	-0.1482783
92	0x3b8cfaa6	0.0043023406
93	0xbc5cbb0e	-0.013472332
94	0x3d6a7fb5	0.057250697
95	0xbdb21d7d	-0.08697031
96	0x3c7bf78e	0.015378846
97	0xbd9eb246	-0.07748847
98	0xbde27394	-0.11057201
99	0x3d39c8f5	0.045357663
100	0x3d64a340	0.05581975
101	0x3cf8388e	0.030300405
102	0x3e1e83b4	0.15479928
103	0x3c987562	0.01861066
104	0x3c1d46c7	0.009599394
105	0xbc94ab38	-0.01814805
106	0xbe3f01e3	-0.18653063
107	0x3d9d28b6	0.076737806
108	0x3df6d391	0.12052072
109	0x3cd683c1	0.026185872
110	0xbe157fc8	-0.14599526
111	0x3e230be7	0.15922509
112	0x3d6b34ad	0.057423282
113	0x3e09543c	0.13411039
114	0x3d89950c	0.067178816
115	0x3d4b5658	0.04964289
116	0xbd7171de	-0.058946483
117	0x3d254883	0.040352356
118	0x3d805cc1	0.062676914
119	0xbcace712	-0.021106277
120	0xbde6a658	-0.11262196
121	0xbdc96619	-0.09833927
122	0xbe1aa252	-0.15100983
123	0xbd99d754	-0.07511774
124	0xbd1b6762	-0.03794039
125	0x3e188779	0.14895429
126	0xbdb5b0a6	-0.08871584
127	0xbe30bb29	-0.17258896

lstm.lstm_cell.bias_hh f4 [128]
0	0x3dd65f18	0.104673564
1	0x3e282aa0	0.1642251
2	0xbe0ead41	-0.13933279
3	0x3b96872c	0.0045937505
4	0x3d704e00	0.058668137
5	0x3dd8a954	0.10579172
6	0xbd3b848a	-0.045780696
7	0x3da8b34e	0.08237325
8	0x3e02be43	0.12767892
9	0x3de15115	0.11001793
10	0x3d8e583e	0.069504246
11	0x3dea1eac	0.114316314
12	0xbe33ce68	-0.17559206
13	0x3d3e828b	0.046511214
14	0x3dff4825	0.12464932
15	0xbe0f803b	-0.1401376
16	0xbe0e2f86	-0.13885316
17	0xbe0d9aff	-0.13828658
18	0x3d3ef2c5	0.04661824
19	0x3e3a0657	0.18166481
20	0xbca33a39	-0.019925224
21	0xbd867925	-0.06566075
22	0x3c81a735	0.0158268
23	0xbe1df497	-0.15425335
24	0x3d00b443	0.03142191
25	0xbdf01ebd	-0.11724613
26	0xbde4ea2d	-0.11177478
27	0xbe0515e7	-0.12996636
28	0xbd7a1cd3	-0.061062645
29	0x3df44228	0.11926681
30	0x3d363ef7	0.04449364
31	0x3e030dc5	0.12798221
32	0xbe25a14e	-0.16174814
33	0xbe0f3ffe	-0.13989255
34	0x3dd3b4fd	0.10337255
35	0x3e1231bf	0.14276789
36	0x3e176694	0.14785224
37	0xbe259621	-0.16170551
38	0x3d9a6359	0.0753848
39	0xbe353536	-0.1769608
40	0xbd6cc48b	-0.057804625
41	0x3c14dfd0	0.009086564
42	0x3d883fc6	0.06652789
43	0xbd34626d	-0.04403918
44	0xbe28bab0	-0.16477466
45	0xbe25a1c2	-0.16174987
46	0xbda41236	-0.08011286
47	0x3e096756	0.13418326
48	0x3dbaf10b	0.091280065
49	0x3db59524	0.08866337
50	0xbe282992	-0.16422108
51	0xbe1615e8	-0.14656794
52	0x3e1f8398	0.15577543
53	0x3dfdfa17	0.124012165
54	0xbd8dcf1c	-0.069242686
55	0x3c10705e	0.008815853
56	0x3e04512c	0.1292159
57	0x3e260da8	0.16216147
58	0xbe0d824f	-0.1381924
59	0xbdbd110d	-0.09231768
60	0x3d72c619	0.059270952
61	0x3e0e503f	0.13897799
62	0x3d0c86cb	0.034308236
63	0xbc56cb05	-0.013109927
64	0xbc187926	-0.009306228
65	0x3e2f9566	0.17146835
66	0xbe02c68a	-0.12771049
67	0x3d9aedf2	0.07564916
68	0xbe095855	-0.13412602
69	0x3caf2397	0.021379275
70	0xbe22aaf9	-0.15885533
71	0x3de1c6ab	0.11024221
72	0xbdd06b46	-0.10176711
73	0x3bf3f6b8	0.0074451827
74	0xbdd5957f	-0.10428905
75	0x3cc1bff9	0.02365111
76	0xbdb89742	-0.09013225
77	0xbdd23ee1	-0.102658994
78	0xbd9aecde	-0.0756471
79	0x3df0b78e	0.1175376
80	0x3c5b7136	0.013393691
81	0xbd510aed	-0.05103581
82	0x3e0b2e05	0.13591774
83	0x3d3e46ca	0.04645423
84	0xbd2fd01f	-0.04292309
85	0xbcd8046f	-0.026369302
86	0xbda012d8	-0.07816094
87	0xbd8ad6e6	-0.0677927
88	0xbd6c36b4	-0.057669356
89	0x3d5f52ad	0.054522205
90	0xbe2a34d7	-0.1662172
91	0xbe0631bd	-0.13104911
92	0x3deca212	0.1155435
93	0xbcfac288	-0.030610338
94	0x39f594dc	0.0004684095
95	0x3d8502c5	0.06494669
96	0xbd9208fb	-0.07130619
97	0x3e08c470	0.13356185
98	0xbd33331d	-0.043749917
99	0x3c80c685	0.015719661
100	0xbdf8ac3b	-0.12142225
101	0x3d8e4bfa	0.06948085
102	0xbe095b89	-0.13413824
103	0x3de0bbce	0.10973321
104	0xbcf98801	-0.03046036
105	0xbd741ffa	-0.059600808
106	0xbd99303e	-0.074799046
107	0x3d99af84	0.0750418
108	0x3e1f97c9	0.15585245
109	0x3d6839b7	0.056695666
110	0x3dcd4387	0.100226454
111	0xbe181328	-0.14851058
112	0xbcc3c561	-0.023897829
113	0xbdc03cac	-0.09386572
114	0xbe0bc045	-0.13647564
115	0x3d5573a3	0.052112233
116	0xbd7e78a0	-0.062126756
117	0x3d348977	0.04407641
118	0xbd8414f3	-0.06449308
119	0xbe2fb2d7	-0.17158066
120	0xbdb9b8b6	-0.09068434
121	0xbe339027	-0.17535459
122	0x3d49eef4	0.04930015
123	0xbe0e04e2	-0.1386905
124	0x3e017b22	0.12644628
125	0x3da5a60f	0.08088314
126	0xbdbf29f3	-0.09334173
127	0xbd496117	-0.049164858

mlp.0.weight f4 [16, 32]
0	0xbe20686c	-0.15664834
1	0x3e0526f6	0.13003144
2	0xbd8a0bc1	-0.06740523
3	0xbd117516	-0.035512052
4	0x3c9ccd1f	0.019140778
5	0x3dadc252	0.08484329
6	0xbd475763	-0.048667323
7	0x3dadec7a	0.0849237
8	0x3dbe89b7	0.09303611
9	0xbca8d070	-0.020607203
10	0x3df354a3	0.118813775
11	0xbe1583e2	-0.1460109
12	0xbdcc7ea3	-0.099850915
13	0xbc4ba10b	-0.012428532
14	0xbcd1e8a5	-0.025623629
15	0x3d728911	0.059212748
16	0x3e041c0e	0.12901327
17	0xbe0e0ba6	-0.13871631
18	0x3dbc0320	0.091802835
19	0x3d1224ad	0.035679508
20	0x3e0ec2e4	0.13941532
21	0x3db5fc28	0.088859856
22	0xbd2bc747	-0.041938093
23	0xbc890c19	-0.016729401
24	0xbdf7016b	-0.12060817
25	0x3d202e80	0.039106846
26	0x3e268f49	0.16265596
27	0x3d7a0c3c	0.061046824
28	0x3e1c14a9	0.15242256
29	0x3d822ea7	0.063565545
30	0x3c95617f	0.018234966
31	0xbd1c0012	-0.038086005
32	0xbe1ab35c	-0.15107483
33	0xbc837661	-0.016047658
34	0x3e191ae7	0.14951669
35	0x3e1f9566	0.15584335
36	0xbd80ba6f	-0.062855594
37	0x3e167342	0.14692405
38	0x3e11fc17	0.14256321
39	0xbe22c245	-0.1589442
40	0xbe356fb0	-0.17718387
41	0xbdc3dbbd	-0.09563396
42	0xbcde0d3c	-0.02710592
43	0x3d790778	0.06079814
44	0x3d5b5c5c	0.053554878
45	0x3df0849d	0.11744044
46	0xbdae579d	-0.08512805
47	0x3df8ae5f	0.12142634
48	0x3ccbcdc9	0.0248784
49	0xbe108e52	-0.14116791
50	0xbe08681e	-0.13320968
51	0x3d9cd2d3	0.07657399
52	0x3e288212	0.16455868
53	0xbdf5348e	-0.11972915
54	0x3c89edd5	0.01683704
55	0xbe2eb4e5	-0.17061193
56	0x3dd1f16e	0.10251127
57	0x3d5dedad	0.054181743
58	0xbd527d84	-0.051389232
59	0x3da79b18	0.08183879
60	0x3da4314c	0.08017215
61	0x3dfd7191	0.12375177
62	0x3af06cfb	0.0018343026
63	0xbb5b0f45	-0.003342585
64	0x3dc0c318	0.09412211
65	0x3d523a93	0.051325392
66	0xbe1492b7	-0.14509092
67	0xbd5a7661	-0.05333555
68	0x3dd39138	0.10330433
69	0xbdc7ccca	-0.09755857
70	0x3e13449f	0.14381646
71	0xbca97c7c	-0.020689242
72	0x3e2f6dab	0.17131679
73	0xbdc2f41f	-0.09519219
74	0x3e0c0179	0.13672437
75	0xbd912b66	-0.07088356
76	0x3dfe0c2b	0.124046646
77	0x3de17ce6	0.110101506
78	0x3d7edbe6	0.06222143
79	0x3d22b5b1	0.039724056
80	0x3ddbeac5	0.10738138
81	0xbd72f23d	-0.059313048
82	0xbd69d03b	-0.05708335
83	0x3d298e2a	0.041395344
84	0xbdff424f	-0.12463819
85	0x3c8060a5	0.015671084
86	0x3d97737c	0.07395074
87	0xbe132619	-0.14370002
88	0x3b47fb52	0.0030514789
89	0x3c06d43e	0.008229313
90	0xbe0b2f55	-0.13592274
91	0x3e1e48ee	0.15457508
92	0xbb7e2fec	-0.0038785888
93	0xbe263da9	-0.16234459
94	0xbd5978c0	-0.05309367
95	0x3d2efe3e	0.042722933
96	0x3e12b6a5	0.14327486
97	0xbd8c0d0a	-0.068384245
98	0x3e1229dc	0.1427378
99	0xbd870911	-0.06593526
100	0xbe05477d	-0.13015552
101	0xbd66b91f	-0.05632889
102	0xbdc668dd	-0.0968797
103	0x3d8466d0	0.064649224
104	0x3e038ecc	0.12847441
105	0xbe0be90f	-0.13663124
106	0xbdf7bfc9	-0.12097127
107	0x3dc91b7e	0.09819697
108	0xbd260b2d	-0.040538
109	0x3e307217	0.17231022
110	0x3e152988	0.14566624
111	0xbdf9ff9c	-0.12206957
112	0x3dc68264	0.09692839
113	0xbe2b52c0	-0.16730785
114	0x3d7d1ab0	0.06179303
115	0xbdd98b00	-0.10622215
116	0xbbd4010a	-0.0064698504
117	0x3e3a1e50	0.18175626
118	0x3cecdba8	0.028913334
119	0xbd9fb076	-0.07797329
120	0x3db9f51c	0.09079954
121	0xbcc0ebe2	-0.023549978
122	0x3e1d3bef	0.15354894
123	0xbdedfd04	-0.116205245
124	0xbd186cbb	-0.03721307
125	0xbe1bccf7	-0.15214907
126	0xbde0239c	-0.10944292
127	0xbd2b07a8	-0.04175535
128	0xbe0051cb	-0.12531202
129	0xbdd473b2	-0.1037363
130	0xbd679dcf	-0.056546982
131	0xbde249dd	-0.110492446
132	0xbde01a4f	-0.10942518
133	0x3ceff82b	0.02929314
134	0xbe193cee	-0.14964649
135	0x3dc66c06	0.096885726
136	0x3ded4904	0.11586192
137	0x3e166c65	0.14689787
138	0x3d157651	0.03648979
139	0x3ac61ee3	0.0015115406
140	0xbd4e3b67	-0.05034962
141	0xbdc65ef8	-0.096860826
142	0x3dfd41cc	0.123660654
143	0x3ddc7258	0.10763997
144	0x3e019576	0.12654671
145	0xbd455e18	-0.048185438
146	0xbdf76955	-0.12080637
147	0x3d82dff3	0.06390371
148	0x3e2a6665	0.16640623
149	0xbd2c36e6	-0.042044543
150	0x3e07cdaf	0.13262056
151	0x3df11fed	0.117736675
152	0x3d51033a	0.051028468
153	0xbd6e6002	-0.05819703
154	0xbd881da5	-0.06646279
155	0xbd40bdba	-0.047055937
156	0x3b708cb6	0.0036704964
157	0xbcb13f40	-0.021636605
158	0xbe3db0d7	-0.1852449
159	0xbe071d88	-0.13194859
160	0xbd552e13	-0.052045893
161	0x3e15fd64	0.14647442
162	0x3db1e47d	0.08686159
163	0xbe269273	-0.16266803
164	0xbe05bf0f	-0.13061164
165	0xbdc4817f	-0.09595012
166	0x3e207b1b	0.15671961
167	0x3d0848fc	0.03327273
168	0x3e08ecef	0.13371633
169	0xbe1a69b9	-0.15079392
170	0x3e16b87b	0.14718811
171	0x3e18dd3e	0.14928147
172	0x3b89d185	0.004205885
173	0xbdb30128	-0.08740455
174	0x3d95dff6	0.07318108
175	0xbdb19ce6	-0.08672504
176	0xbdb5fa19	-0.08885593
177	0x3d764622	0.060125478
178	0xbe0418ea	-0.12900129
179	0x3d8980ad	0.06713996
180	0xbc3d672a	-0.011560241
181	0xbaf5b1e5	-0.0018745033
182	0x3af4cdfc	0.0018677111
183	0x3d1c9492	0.038227625
184	0xbdea7917	-0.11448877
185	0x3d7c7e01	0.061643604
186	0xbe343627	-0.17598782
187	0x3d8e068c	0.069348425
188	0xbe0a003f	-0.13476656
189	0x3e2fbd63	0.17162089
190	0x3cc12fdd	0.023582393
191	0x3d2a5758	0.041587204
192	0x3d428ad3	0.047495674
193	0x3d336fba	0.043807723
194	0xbd75adf6	-0.059980355
195	0xbe31d329	-0.17365707
196	0x3dd2fe82	0.1030245
197	0x3dd56610	0.104198575
198	0xbd0b7334	-0.034045413
199	0x3c50fb35	0.012755205
200	0xbb36d728	-0.002789924
201	0xbd1943f9	-0.03741834
202	0x3df4f35d	0.1196048
203	0xbdddb1b6	-0.10824911
204	0xbe219f26	-0.15783367
205	0xbcb59d71	-0.0221698
206	0xbde384e9	-0.11109335
207	0xbdf4c1c5	-0.11951021
208	0xbd5b0e9d	-0.053480733
209	0x3a2619ba	0.0006336231
210	0x3ddd175d	0.10795472
211	0x3de2a71f	0.11067032
212	0x3e1603f7	0.1464995
213	0x3e039e01	0.12853242
214	0x3d582cba	0.05277703
215	0xbb082705	-0.002077521
216	0xbc1d0a55	-0.009584983
217	0xbe0ebc8a	-0.1393911
218	0x3cea28c8	0.0285839
219	0xbd2d82fb	-0.04236124
220	0xbd2e5282	-0.042559154
221	0x3e0ee87f	0.13955878
222	0x3d97ed98	0.07418364
223	0x3df553f0	0.119789004
224	0x3df44107	0.119264655
225	0xbddc04d9	-0.10743112
226	0x3d3c28a9	0.045937214
227	0xbc8c0ea2	-0.017096821
228	0x3d67e3bd	0.056613673
229	0x3dca720a	0.098850325
230	0xbd20f616	-0.039297186
231	0x3e02a2dd	0.1275744
232	0x3c4c4a40	0.012468874
233	0xbce9ec97	-0.028555198
234	0x3df7935e	0.12088655
235	0x3e070b20	0.13187838
236	0xbd37813f	-0.044800993
237	0x3dda9f4e	0.10674916
238	0xbd3620ac	-0.044464752
239	0xbc2bc108	-0.010483034
240	0xbdf6ee2b	-0.12057146
241	0xbd8ff9d0	-0.0703007
242	0x3c950c1b	0.018194249
243	0xbd3bcd50	-0.045850098
244	0xbc4f1043	-0.012638154
245	0x3d42d872	0.0475697
246	0xbd857042	-0.06515552
247	0x3dc9b69a	0.098492816
248	0x3e2c4823	0.16824393
249	0x3e0b08de	0.13577601
250	0x3e248b03	0.16068654
251	0xbd3415fe	-0.043966286
252	0x3a20f89e	0.00061405625
253	0xbd5e1361	-0.0542177
254	0xbda5fa2b	-0.081043564
255	0xbd0d5f7a	-0.03451488

mlp.0.bias f4 [16]
0	0xbde64025	-0.11242703
1	0x3db7d96b	0.08977016
2	0xb983eb41	-0.00025161545
3	0xbd2fc6ce	-0.042914204
4	0xbde4f72f	-0.11179959
5	0xbb4ccefd	-0.0031251304
6	0x3dce4c7d	0.10073183
7	0xbdbb4583	-0.09144118
8	0x3d8f8843	0.07008412
9	0xbe239046	-0.15973005
10	0xbd88d9d7	-0.06682175
11	0xbd44cd85	-0.04804756
12	0xbe2b92ec	-0.16755265
13	0x3d5446d5	0.051825363
14	0xbe11e72e	-0.14248344
15	0x3dd092cd	0.1018425

mlp.3.weight f4 [2, 16]
0	0x3d7c4d9c	0.06159745
1	0x3c4ad97e	0.012380956
2	0xbdf1695f	-0.11787676
3	0xbdb75ffc	-0.089538544
4	0x3d89827a	0.067143396
5	0x3e74b51e	0.23897216
6	0xbdf5cb3b	-0.12001654
7	0xbe28fb5d	-0.16502137
8	0xbdcc6516	-0.09980218
9	0xbe403bab	-0.18772762
10	0xbce0ab2c	-0.027425371
11	0xbe29ce03	-0.16582493
12	0x3e321994	0.1739257
13	0x3e3baf4d	0.1832859
14	0xbe23d055	-0.15997441
15	0x3e6b22f4	0.22962552
16	0x3d29a6e4	0.041418925
17	0xbe2c26c9	-0.1681167
18	0x3d8a84d6	0.06763618
19	0xbe63c5fe	-0.22243497
20	0xbe0ec09e	-0.13940665
21	0xbe375f64	-0.17907482
22	0xbe0e194f	-0.13876842
23	0xbd7274b0	-0.059193313
24	0x3d3bbeb9	0.045836184
25	0x3d64c50d	0.055851985
26	0xbe7fd923	-0.24985175
27	0xbe80d9cc	-0.25166166
28	0xbcfa8ffa	-0.030586231
29	0x3e548427	0.20753537
30	0x3dbf83f7	0.09351342
31	0x3e5b272e	0.21401665

mlp.3.bias f4 [2]
0	0xbdd7d92d	-0.1053947
1	0x3d67f741	0.056632284

weight f4 [15, 20]
0	0x3ff585ab	1.9181417
1	0x3fbe20f5	1.4853808
2	0x3f68dff9	0.90966755
3	0xc0069e64	-2.1034174
4	0x3f2d4a45	0.6769145
5	0xbf9e74ed	-1.2379433
6	0xbd320f07	-0.043471362
7	0xbfccfebd	-1.601524
8	0xbf406c8c	-0.7516563
9	0x3fd4942c	1.6607718
10	0xbec70997	-0.38874504
11	0xbfb4643e	-1.4093091
12	0xbf39d204	-0.72586083
13	0xbf102d6e	-0.5631932
14	0xbf452599	-0.77010494
15	0x3f461f45	0.77391464
16	0x3fd3f158	1.6558027
17	0xbe1ecab5	-0.15507014
18	0xbf00f616	-0.503755
19	0x3ee4490e	0.44586986
20	0xbf420e44	-0.7580302
21	0x3f8b1114	1.0864587
22	0x3f4c7506	0.79866064
23	0x3fd708c8	1.6799555
24	0x3fa1c414	1.2637963
25	0x3fa495ab	1.2858175
26	0x3f1d21af	0.6137952
27	0x3faa2af8	1.3294363
28	0xbe653256	-0.22382483
29	0x3d3c67ae	0.045997314
30	0xbe78a6a5	-0.2428232
31	0x3f5a08c0	0.851696
32	0xbfb122d0	-1.3838749
33	0xbf6000cf	-0.87501234
34	0xbe651438	-0.22370994
35	0x3fdb442d	1.7130181
36	0x3ea554b3	0.32291183
37	0xbedbc73f	-0.4292545
38	0x3e9f9f37	0.3117616
39	0xbf4811df	-0.7815227
40	0xbfc94784	-1.572495
41	0x3f80ec4f	1.0072116
42	0xbf644b06	-0.89176977
43	0xbf19a37f	-0.600151
44	0xbfa27a53	-1.269358
45	0x40079895	2.1186879
46	0xbf9ef5e9	-1.2418796
47	0xbf0191bb	-0.5061299
48	0xbf6a51e4	-0.91531205
49	0xbf2a3385	-0.6648486
50	0x3daeccef	0.08535182
51	0x3f07502d	0.52856714
52	0xbf006ead	-0.5016888
53	0x3f96e4b2	1.1788542
54	0xbf4ece97	-0.8078398
55	0xbf3bb851	-0.7332812
56	0xbfb24a32	-1.3928893
57	0x3d3506b6	0.044195853
58	0xbd62b8c0	-0.055351973
59	0x3f2da4fd	0.6782988
60	0xbdce7eb9	-0.10082764
61	0x3fec4fe6	1.8461883
62	0xbf976790	-1.182848
63	0x3fb05927	1.3777207
64	0x3fb97519	1.448886
65	0x3f585f7d	0.84520704
66	0x400e1e3f	2.220596
67	0x3f042879	0.51624256
68	0x3eae1c1d	0.34005824
69	0xbe43dff0	-0.19128394
70	0xbf86d9b3	-1.0535187
71	0x3fa32e61	1.2748529
72	0xbe29dc21	-0.16587879
73	0x3f040cc9	0.5158201
74	0x3d7e0d34	0.06202431
75	0x3eda62a5	0.42653385
76	0x3f144ad0	0.57926655
77	0xbf225025	-0.6340354
78	0xc00dc08f	-2.2148778
79	0xbf3d9cf7	-0.74067634
80	0x3bd03ded	0.0063550384
81	0xbeacb89b	-0.33734593
82	0xbfacb32d	-1.349218
83	0xbf18854c	-0.59578395
84	0x3f0c3ac4	0.5477717
85	0x3f040919	0.5157638
86	0x3f901b24	1.1258283
87	0x3d48572a	0.04891125
88	0x3f3e3645	0.7430156
89	0xbef5dc67	-0.48019716
90	0xbf84db04	-1.0379338
91	0x3f1cb11c	0.6120775
92	0xbfdbde7c	-1.7177272
93	0xbf561ff6	-0.8364252
94	0x3faa5272	1.330641
95	0x3ef6f999	0.48237303
96	0xc020baeb	-2.5114086
97	0x3efa799d	0.4892091
98	0x3f49eb37	0.78874534
99	0x3ceaa9b1	0.028645368
100	0x3f21a62f	0.631442
101	0x3f186ce6	0.59541166
102	0x3f8845de	1.0646322
103	0xbedf708f	-0.43640563
104	0xbe42dbf9	-0.19029225
105	0x3f402f34	0.75072026
106	0x3eccbc08	0.39987206
107	0x3e27d8c8	0.16391289
108	0x3e87f014	0.26550353
109	0x3fa0f91f	1.2576026
110	0x3a33f840	0.00068653
111	0xbe9c7bff	-0.30563352
112	0xbfba55fb	-1.4557489
113	0xbdf8f33f	-0.121557705
114	0xbf17939f	-0.59209627
115	0x3ef176f7	0.47161075
116	0x3f3a90a2	0.7287694
117	0x3d883b91	0.066519864
118	0xbec181d0	-0.37794352
119	0x3f02f52c	0.5115535
120	0xbc6959d4	-0.014242608
121	0x3e801566	0.25016326
122	0x3e04ee13	0.12981443
123	0x3f432a05	0.7623599
124	0x3f8d02c6	1.1016471
125	0x3eaf124e	0.34193653
126	0x3f358de6	0.70919645
127	0x3ece7d44	0.40329945
128	0x3ff67efc	1.9257503
129	0x3f80d5f2	1.0065291
130	0xbfb4fa2e	-1.4138849
131	0xbf919b93	-1.1375602
132	0xbe0fc144	-0.14038569
133	0x3fd023bd	1.6260906
134	0x3f28a047	0.65869564
135	0x3f147aa4	0.57999635
136	0x3f92f02d	1.1479546
137	0x3cbf823f	0.023377536
138	0xbfe6b3ef	-1.8023661
139	0x3f6dbce9	0.9286638
140	0xbec73903	-0.38910684
141	0x3f8451b3	1.0337433
142	0xbf2dff54	-0.67967725
143	0x3f213706	0.62974584
144	0xbf791698	-0.973001
145	0x3f76b380	0.96367645
146	0x3fcf6507	1.6202706
147	0x3fb80b00	1.4378357
148	0x3e858314	0.26076567
149	0xbe643c42	-0.22288612
150	0xbf3cc020	-0.7373066
151	0x3dc255d3	0.09489026
152	0x3eae3302	0.3402329
153	0x3f720e9c	0.9455354
154	0xbef76e5b	-0.48326382
155	0x3fcbec9d	1.5931584
156	0xc01d327b	-2.456206
157	0xbedf7493	-0.43643627
158	0xbf994ce0	-1.1976585
159	0x3f4ebf5a	0.8076073
160	0xbff44414	-1.9083276
161	0x3e6b0445	0.22950847
162	0x3cf9329c	0.03041964
163	0xbeadd242	-0.33949476
164	0x3e939fb2	0.28832775
165	0xbf399c9b	-0.72504586
166	0x3e207ace	0.15671846
167	0xbf8c95d3	-1.0983223
168	0xbfccd26b	-1.6001714
169	0x3fabfb44	1.3436055
170	0x3fa5a604	1.2941289
171	0x3d554035	0.052063186
172	0xbfc7de88	-1.5614786
173	0x3f3dac30	0.7409086
174	0x3f45b6d4	0.772321
175	0x40008ea5	2.0087063
176	0x3d1e822c	0.03869836
177	0x3de50130	0.11181867
178	0xbf4abdc8	-0.79195833
179	0xbe5f6c2b	-0.21818607
180	0x00000000	0.0
181	0x00000000	0.0
182	0x00000000	0.0
183	0x00000000	0.0
184	0x00000000	0.0
185	0x00000000	0.0
186	0x00000000	0.0
187	0x00000000	0.0
188	0x00000000	0.0
189	0x00000000	0.0
190	0x00000000	0.0
191	0x00000000	0.0
192	0x00000000	0.0
193	0x00000000	0.0
194	0x00000000	0.0
195	0x00000000	0.0
196	0x00000000	0.0
197	0x00000000	0.0
198	0x00000000	0.0
199	0x00000000	0.0
200	0x3f06ac01	0.5260621
201	0x40072ba1	2.112038
202	0xbf055057	-0.52075714
203	0xbf6e97f4	-0.9320061
204	0x3e3d9aef	0.18516134
205	0x3f88cae5	1.0686918
206	0x3fa73c85	1.3065344
207	0x3eeb6f6e	0.45983452
208	0xbf508b63	-0.8146269
209	0xbf82b7f8	-1.0212393
210	0xbefd669f	-0.49492356
211	0xbf179dce	-0.59225166
212	0x3e1e0500	0.15431595
213	0x3ee1ac39	0.44076708
214	0xbe17d9f0	-0.1482923
215	0xc0146160	-2.3184433
216	0xbecbc60b	-0.39799532
217	0x3f8a4d60	1.0804863
218	0xbfe3f35d	-1.7808644
219	0x3fc107a2	1.5080454
220	0x3e9e6f88	0.30944467
221	0xbf02d777	-0.51110023
222	0x3f85adf2	1.0443709
223	0x3fda1c23	1.7039837
224	0x3b3bc854	0.002865334
225	0x3fd54e2e	1.6664484
226	0x3e2c6f4b	0.1683933
227	0xbf874b29	-1.0569812
228	0xbf10c8c7	-0.5655636
229	0x3da9b01c	0.08285543
230	0x3ec787b6	0.38970727
231	0x3ffcc98e	1.974901
232	0xbda0cf96	-0.07852094
233	0xbf683d45	-0.9071849
234	0xc003d5c8	-2.0599232
235	0xbf89cefd	-1.0766293
236	0x3cd8f565	0.0264842
237	0x3d92fe41	0.07177401
238	0x3e3e03a6	0.1855608
239	0x3ed0c38c	0.4077419
240	0xbf6d1c1c	-0.92621017
241	0x3e8fac40	0.28061104
242	0xbf07d5ba	-0.53060496
243	0x3ef19ad9	0.47188452
244	0xbf5fea93	-0.87467307
245	0xbce17137	-0.027519805
246	0xbeb61a6b	-0.3556703
247	0x3fbc165b	1.4694322
248	0x3fa0cb54	1.2562051
249	0xbf35ffad	-0.71093255
250	0x3f5d1a85	0.8636859
251	0x3f0530ae	0.52027404
252	0x3f0a2291	0.53958994
253	0x3f1447fb	0.57922333
254	0x3f01806e	0.50586593
255	0x3e6cf97a	0.23142043

weight_ih f4 [128, 20]
0	0x3dec4578	0.115366876
1	0x3e301779	0.17196454
2	0xbcf6552c	-0.03006991
3	0x3d4543a8	0.048160225
4	0xbde72884	-0.112870246
5	0xbcfb2a6f	-0.030659882
6	0x3e105785	0.14095886
7	0x3dd7922e	0.105259284
8	0xbdc4c410	-0.096077085
9	0xbe12d1f0	-0.14337897
10	0xbe0232aa	-0.1271464
11	0xbe2db65b	-0.16964094
12	0xbe0aa86d	-0.13540812
13	0xbd095218	-0.033525556
14	0x3e0246b1	0.12722279
15	0x3d013b48	0.031550676
16	0xbe076183	-0.13220792
17	0xbe0f8dcc	-0.14018935
18	0x3da285fb	0.07935711
19	0xbe086581	-0.1331997
20	0xbc844de8	-0.01615043
21	0x3dbc3237	0.09189265
22	0xbd9991e0	-0.074985266
23	0xbc47530f	-0.012165799
24	0xbc89a765	-0.016803453
25	0xbd3d15c6	-0.046163343
26	0xbda6d4f3	-0.081460856
27	0xbe24724c	-0.16059226
28	0xbe07e001	-0.13269044
29	0xbdc3774b	-0.09544238
30	0x3e3112b0	0.17292285
31	0xbdbdac03	-0.09261324
32	0xbdec2727	-0.11530905
33	0x3d5af1dd	0.053453315
34	0x3d4b255d	0.04959618
35	0x3dbc1d43	0.09185269
36	0x3e14c42a	0.14527956
37	0x3dbcf7a2	0.0922692
38	0xbe41649b	-0.18886034
39	0x3c35b7df	0.011091202
40	0x3dc15005	0.09439091
41	0xbca551ca	-0.020180602
42	0xbdea28a0	-0.1143353
43	0x3e2bb52c	0.1676833
44	0xbd7157a2	-0.058921464
45	0xbdbd69b5	-0.09248678
46	0xbe259188	-0.16168797
47	0x3ba08890	0.004899092
48	0x3d9a959a	0.075480655
49	0x3d250ea5	0.04029717
50	0x3cf97049	0.03044905
51	0xbdfbe669	-0.122998066
52	0xbe310db7	-0.17290388
53	0x3ba38145	0.0049897754
54	0x3e224446	0.15846357
55	0x3dd5493b	0.10414358
56	0xbdcf7c01	-0.10131074
57	0xbc892482	-0.016741041
58	0xbe0613a7	-0.13093434
59	0xbdb28dde	-0.08718465
60	0x3d02fd53	0.03197987
61	0x3dcbed55	0.09957377
62	0x3e189fc0	0.1490469
63	0xbe238ad6	-0.1597093
64	0x3de2828c	0.11060056
65	0xbdfb26c4	-0.12263253
66	0x3d892f88	0.06698519
67	0x3e130ffb	0.14361565
68	0x3b8f3b5f	0.0043710913
69	0x3e21871f	0.15774201
70	0xbe159704	-0.14608389
71	0xbd98d86a	-0.07463153
72	0x3dd47e9c	0.10375711
73	0xbd0032b2	-0.031298347
74	0xbd36de02	-0.044645317
75	0xbda07b13	-0.078359745
76	0x3df41f9d	0.11920092
77	0x3daae153	0.083437584
78	0x3d6a5f1a	0.057219602
79	0xbdcad0d0	-0.09903109
80	0xbe09be79	-0.13451566
81	0x3ce901b4	0.028443195
82	0x3d62b298	0.0553461
83	0xbda20fe1	-0.07913185
84	0xbd63b095	-0.055588324
85	0x3dd8fb09	0.10594756
86	0x3c742ac9	0.014902779
87	0xbc33da4d	-0.01097734
88	0xbd5bb44c	-0.05363874
89	0xbe2f02a8	-0.17090857
90	0xbe1b54b3	-0.15169029
91	0xbdba31d3	-0.090915345
92	0xbd9c87b4	-0.07643071
93	0x3d3a5c65	0.04549827
94	0xbd386020	-0.045013547
95	0xbdae0460	-0.08496928
96	0x3e27172e	0.16317436
97	0x3d5005b5	0.050786693
98	0x3dfde644	0.12397435
99	0xbdce10bb	-0.10061785
100	0xbd8ec143	-0.069704555
101	0x3d75b6c6	0.05998876
102	0xbe07375a	-0.13204709
103	0xbdd3c4a8	-0.103402436
104	0xbca39587	-0.019968761
105	0xbd426eb2	-0.04746885
106	0xbe035708	-0.12826169
107	0x3e019a44	0.12656504
108	0x3e1f63b5	0.15565379
109	0x3c364b56	0.01112636
110	0xbd27ae78	-0.04093787
111	0xbe1733bf	-0.14765833
112	0xbd5521ff	-0.052034374
113	0x3d33334b	0.04375009
114	0x3da72b23	0.081625246
115	0xbceae173	-0.028671956
116	0xbda579b1	-0.080798514
117	0x3dcf8c39	0.10134167
118	0xbe0fa49a	-0.14027634
119	0x3dedaaee	0.11604868
120	0xbd948cdf	-0.072534315
121	0xbc5bf905	-0.01342607
122	0xbcfd7ffd	-0.030944819
123	0x3c3c6899	0.011499547
124	0xbd581ec0	-0.0527637
125	0x3e062e49	0.13103594
126	0xbc9652cc	-0.018350028
127	0x3e063605	0.13106544
128	0x3e2429d9	0.16031589
129	0xbdad37e0	-0.08457923
130	0xbdff79e7	-0.12474423
131	0x3e157dee	0.1459882
132	0x3e05aa9a	0.1305336
133	0xbe11bd1c	-0.14232296
134	0xbc0a9b81	-0.008459927
135	0xbe3657bf	-0.1780691
136	0xbe144b02	-0.14481738
137	0x3d46116e	0.048356466
138	0x3d79cdd5	0.060987312
139	0x3d34a16a	0.04409925
140	0xbd4aed66	-0.049542807
141	0x3e255b74	0.16148168
142	0x3ca6e893	0.020374572
143	0xbde754b2	-0.11295451
144	0xbc0f5954	-0.008749325
145	0x3d2944fb	0.04132555
146	0x3d642b2c	0.055705234
147	0xbe0827d4	-0.13296443
148	0x3d8c8c8c	0.06862745
149	0xbdb79e01	-0.08965684
150	0xbe1a09ef	-0.15042852
151	0xbdc71776	-0.09721272
152	0x3e2ac181	0.16675378
153	0x3e1dce49	0.15410723
154	0x3e23f66d	0.16011973
155	0x3dcb0b54	0.0991427
156	0x3e061f7b	0.13097946
157	0xbcb40d7f	-0.021979092
158	0xbdbd897d	-0.092547394
159	0x3db98bcd	0.09059868
160	0xbdb7b6cd	-0.08970413
161	0xbe0334cf	-0.12813114
162	0xbd6738c1	-0.05645061
163	0x3d11fcee	0.035641603
164	0x3dcbcfbe	0.09951733
165	0xbd79e08d	-0.061005164
166	0xbde30bb4	-0.110862166
167	0x3d00cc14	0.031444624
168	0xbdcfdd48	-0.10149628
169	0xbde8156e	-0.113322124
170	0x3dc48673	0.09595957
171	0xbd034aac	-0.032053635
172	0x3e300553	0.17189531
173	0x3e358280	0.17725563
174	0x3d99039c	0.074713916
175	0x3d80ef9e	0.06295703
176	0x3d246e79	0.040144417
177	0x3c482c8b	0.012217651
178	0xbca8433d	-0.020539874
179	0x3c4ca0bd	0.012489495
180	0x3d8883df	0.066657774
181	0x3e2a394e	0.16623423
182	0xbd4be9f6	-0.04978367
183	0xbd9d856a	-0.07691462
184	0xbd3d4459	-0.04620776
185	0xbdae4c85	-0.08510689
186	0x3d0793cb	0.03309993
187	0x3e03558b	0.12825601
188	0x3e0f087f	0.13968085
189	0x3d9e32f5	0.07724563
190	0xbe08bffe	-0.13354489
191	0xbdbac1e9	-0.09119017
192	0xbd4fb2e6	-0.05070772
193	0xbd2b3b79	-0.041804764
194	0x3c319772	0.01083933
195	0xbe272808	-0.16323864
196	0x3d4fd652	0.0507415
197	0xbe0b87f9	-0.13626088
198	0xbdd1fd7f	-0.10253429
199	0xbe187b37	-0.14890753
200	0x3e1f34fd	0.15547557
201	0xbe3a6091	-0.182009
202	0x3e06256d	0.13100214
203	0xbc71f3ef	-0.014767631
204	0xbcbed3e8	-0.023294404
205	0x3dd620bb	0.104554616
206	0xbcfc0b95	-0.030767241
207	0x3ddf762b	0.109112106
208	0x3df722cd	0.120671846
209	0xbe206752	-0.15664414
210	0x3d97802f	0.07397496
211	0x3d0fbe97	0.03509387
212	0x3d3bf593	0.045888495
213	0x3c63f090	0.013912335
214	0x3d64578a	0.055747546
215	0xbdba6c0e	-0.09102641
216	0xbd0c16c8	-0.034201413
217	0x3e37011c	0.17871517
218	0x3e04e02c	0.1297614
219	0x397eaf3a	0.00024288605
220	0xbe2497ad	-0.16073485
221	0x3c7f48f4	0.015581358
222	0xbdeb8c6a	-0.11501391
223	0x3e15a4d9	0.14613666
224	0xbde5ed7a	-0.11226936
225	0xbcaf8a72	-0.02142832
226	0xbd012638	-0.03153059
227	0x3cd9bfb7	0.026580675
228	0x3e2f0611	0.17092158
229	0x3c8142aa	0.015778858
230	0x3dc6879d	0.09693835
231	0x3e04cd03	0.12968831
232	0x3e131142	0.14362052
233	0xbd81dec1	-0.06341315
234	0xbd4a49f7	-0.049386945
235	0x3dab44e5	0.0836275
236	0xbd33cb23	-0.0438949
237	0x3d9d4262	0.07678677
238	0xbd251fc1	-0.040313486
239	0xbdfe21d4	-0.12408796
240	0x3d9b556c	0.07584652
241	0x3c3f3901	0.011671306
242	0x3da64a96	0.08119695
243	0x3e3182f5	0.17335112
244	0x3e0806a3	0.13283782
245	0x3e2f2433	0.17103653
246	0x39beec38	0.0003641562
247	0xbe1fc3a6	-0.15601978
248	0xbe02b63b	-0.12764828
249	0xbde37e5a	-0.11108084
250	0xbe14628a	-0.14490715
251	0xbdb868de	-0.09004377
252	0xbe17abab	-0.1481158
253	0xbe28f14e	-0.164983
254	0xbda5bc1e	-0.08092521
255	0xbe408bdb	-0.1880335
