assignment_3/outputs/models/pos_neg_examples.pth (torch, 49276 bytes, 20 tensors)

embedding.weight f4 [15, 30]
00000000: 9b83 6ebf d6ee 063f d549 fdbe 41b3 6b3f
00000010: 6217 0d3f 9b46 fcbe 3970 57bf 2931 d43d
00000020: f456 dfbe 1b39 203f c195 63bf b7d4 133f
00000030: a7a5 1cc0 5329 4cbe 67d0 c73d 1719 1240
00000040: 15ae 07bf ada6 463f d136 6e3f 0616 263f
00000050: 3f32 9a3f 9d93 abbd 56a6 5dbf 6dd3 11bf
00000060: d448 f5bd 8be1 043d 185f 3dbf 73c0 21bf
00000070: 4985 25bf 1638 2c3f 9630 a23d 2270 813d
00000080: 1604 5dbf 58f5 ab3f a3f5 0bbf af92 553e
00000090: 8a34 22be 6c18 8abe b867 803f 4fec b9bf
000000a0: 80ea abbd d21d 2e3f f20b ab3f 359d 0dbf
000000b0: 880c 663f f76c e5be e108 aa3f e5c8 423f
000000c0: a9dd dbbe 66e1 e13d 2d24 aabe 324d 6dbf
000000d0: 5d95 933f ff53 01c0 0ca9 7a3e 9bec c5bf
000000e0: e675 42bf 5792 063f b548 42bf 9062 283e
000000f0: 2790 f63f 359c 923f 0100 cabf a724 473f
00000100: 981f 913e aa27 85bf ec29 8e3f ebe7 d5bd
00000110: 5dbb f7be 7510 a13f 0bb9 c4be 2d16 72bf
00000120: 1f70 92bf c963 70bf e4dc 8fbf e8a2 06bf
00000130: a0d2 c03d 28d0 97bf 7366 e43f 39be a63e
00000140: c498 83bf 3cb5 673f d250 1ebe 2d55 b7be
00000150: caa0 fcbf 6940 0040 59ad cbbf 0915 aebf
00000160: b8f0 91bf edbd cf3f 9992 1ebe d6a7 743f
00000170: 6007 48bf f7a2 cb3f 131f 15bf 0071 3f3f
00000180: a587 af3f 0804 88be 90cb 863f d9a9 a63f
00000190: ca44 61bf a393 d2bf 32c6 803e 8ac2 45bf
000001a0: 4518 873f 647b 703e 965f 6dbf 8007 e0be
000001b0: bac3 bd3f 0d34 61bf a5ab 893f efe2 e93e
000001c0: f5cc 343f 3240 413f b392 6a3e 52dd 8abf
000001d0: d1ba 95bf a4a9 94bf d8de 223f ea20 a53d
000001e0: 57c7 b4bb 84ab dabc 9d4b 893e d599 413f
000001f0: 3dda 94bf 913c 71bf 9d30 a63e ffad ebbf
00000200: 0ef9 e83f 76d4 ccbe de87 7bbe 0911 afbe
00000210: 0eec e63e da25 a33e bcc4 8f3e 8838 203f
00000220: dd6a e7bd 854a a2bf 720d a23f f401 babf
00000230: 39e8 00bf c4fd 463f a153 c03e 14a2 3740
00000240: 142c bdbe 6a5f 72bf 4820 86be ab9b 6e3e
00000250: 30c4 25c0 b5cc 5a3f eaf1 c73e 65fd b33e
00000260: a4a2 ff3e c0ca 02bc 4cca c6be 497c 36bf
00000270: 9169 833f dc59 8e3f ec97 89bf 1870 233f
00000280: dba1 0d3f cd3c b3be 1419 333f 6cfd f2bf
00000290: 257b c13f 0bb9 8f3d 4fb2 70bf f82e 9b3e
000002a0: 7e34 68bf 1dd0 f9be 6fff 62bf 0406 363e
000002b0: ac6c 66bf 3ace 8fbf 8c80 2d3f 6775 203f
000002c0: 8339 8a3f 7e7f 543e 074c ddbc f3e7 84bf
000002d0: 327d 3fc0 c6c3 1d3f 1306 38bf 8c6e d43f
000002e0: 787f bd3e 11d3 dd3f d19f aa3f dbc7 393f
000002f0: 6df3 85be c7ad acbe ec9b 8abf 62ad bd3f
00000300: cca3 06bf 0fc6 59bf bb22 55bf 67af f6be
00000310: a50f e6bf 5068 4d3f 4229 3ebf d293 68bf
00000320: 8720 14c0 8abd 96bf c7cb 61bc 4837 ca3f
00000330: 5db3 853e 5fec 3cbf da62 fdbf b978 ba3f
00000340: cd33 463e 9b12 783f a637 5140 decb 123f
00000350: c907 8f3f 7e5a 2d3f 92a3 6bbf d408 b63e
00000360: 2f4e 5a3f 765b 303f 355e debc 52f1 3ebf
00000370: e25f 9d3e 63db f93e 06dd b8bf 2881 cbbf
00000380: bafe 9bbf bfd7 cc3e 54f7 813f e90b 9a3f
00000390: 90c4 8b3f d4af 983f d197 183f f7cc 69be
000003a0: a3f3 973f 6749 3b3f f19a a03f 25bf aebe
000003b0: 5e57 02bf 0933 113f 175f e73f e088 30bf
000003c0: 71db 42be aed4 7e3f 0930 933f 554d a03f
000003d0: 6d38 96bf 00dc 3fbf 8ae4 6dbe 4b9e 463e
000003e0: cfb8 d63f d7e9 ba3f 3066 8bbf b796 aabf
000003f0: 367d 99be bb7d 64bf a260 a8bf 397e b5be
-0.93169564 0.52708185 -0.49470392 0.92070395 0.55113804 -0.49272618 -0.84155613 0.10360939
-0.43621027 0.62587136 -0.8890038 0.5774645 -2.4476106 -0.19937639 0.097565465 2.2827814
-0.53000003 0.7759808 0.93052393 0.64877355 1.2046584 -0.083777644 -0.86581933 -0.56963235
-0.119767815 0.032441657 -0.73973227 -0.6318428 -0.646565 0.6727308 0.07919423 0.06320216
-0.8633436 1.3434248 -0.54671687 0.20856737 -0.15840355 -0.26971757 1.0031652 -1.4525241
-0.08394337 0.6801425 1.336302 -0.55318004 0.8986287 -0.44809696 1.328396 0.7608779
-0.4294255 0.110293195 -0.33230725 -0.92695916 1.1529957 -2.0207517 0.24478549 -1.5462831
-0.7596115 0.52567047 -0.7589219 0.16443849 1.9262742 1.1453921 -1.5781251 0.777903
0.28344417 -1.040273 1.1106544 -0.104446255 -0.48385134 1.2583147 -0.38422427 -0.9456509
-1.1440467 -0.9390226 -1.1239285 -0.52592325 0.094151735 -1.1860399 1.7843765 0.32567003
-1.0280995 0.90510917 -0.15460518 -0.3580717 -1.9736569 2.0039313 -1.5912277 -1.360017
-1.1401587 1.6229836 -0.1548561 0.955686 -0.78136253 1.5909108 -0.5825054 0.747818
1.371327 -0.26565576 1.0530872 1.3020583 -0.8799559 -1.6451305 0.2515121 -0.7724997
1.0554281 0.2348457 -0.9272398 -0.43755722 1.4825356 -0.8797005 1.0755507 0.4568095
0.7062524 0.7548858 0.22907524 -1.0848792 -1.1697637 -1.161427 0.6362128 0.080629185
-0.005516927 -0.026693113 0.268155 0.75625354 -1.1629101 -0.9423304 0.32458964 -1.8412474
1.8201005 -0.40005845 -0.24563548 -0.34192684 0.4510197 0.31864816 0.28079784 0.6258626
-0.112996794 -1.2678992 1.2660353 -1.4531846 -0.50354344 0.77730966 0.37563804 2.8692675
-0.3694769 -0.9467684 -0.26196504 0.2330157 -2.5900993 0.8546861 0.39051753 0.35154262
0.49928772 -0.00798291 -0.38826215 -0.71283394 1.0266591 1.1121173 -1.0749488 0.63842916
0.55325097 -0.35007325 0.6996014 -1.8983588 1.5115706 0.07017716 -0.9402208 0.30309272
-0.90705097 -0.4879159 -0.8867101 0.17775732 -0.9000957 -1.123481 0.6777427 0.6267914
1.0798801 0.2075176 -0.027013792 -1.0383285 -2.9920163 0.6162685 -0.7188427 1.6596236
0.37011313 1.7330037 1.3330022 0.7257058 -0.26162282 -0.33726332 -1.0828834 1.4818537
-0.52593684 -0.8506784 -0.8325612 -0.48180696 -1.7973524 0.80237293 -0.74281704 -0.90850556
-2.3144853 -1.1776593 -0.013781494 1.579812 0.26113406 -0.73798174 -1.9795792 1.4568092
0.19355698 0.9690339 3.2690215 0.57342327 1.1174251 0.67716205 -0.92046463 0.3555361
0.8527555 0.6888956 -0.02714453 -0.74586976 0.30737215 0.4880019 -1.4442451 -1.589879
-1.2187111 0.4000835 1.0153604 1.2034885 1.0919361 1.1928658 0.59606653 -0.22832094
1.1871227 0.7315888 1.2547284 -0.34130207 -0.5091456 0.567185 1.8075894 -0.68958855
-0.19029023 0.99543273 1.1499034 1.25236 -1.173597 -0.7494507 -0.23231712 0.19396321
1.6775149 1.4602612 -1.089056 -1.3327245 -0.2997834 -0.8925435 -1.315449 -0.35447863

lstm.lstm_cell.weight_ih f4 [128, 30]
00000000: a8e4 0a3d cc0d c03e 998e 2a3e 2a0a 063e
00000010: 640e 65be 365f 0abe 7f6f 7e3e 408d 5dbd
00000020: 579c 79bd d1e5 0fbd f469 aebd cfa6 fc3a
00000030: 2039 4cbe fdbb 12be a447 783e eb6f 25be
00000040: 52ae a1bd 0133 19bd 55b4 57bd 92f1 e7bd
00000050: 9977 153b 619d 663e 0a28 ab3d b06c 65bd
00000060: b67d 3e3e 9266 1c3e 1c44 223e 0b34 71be
00000070: de34 ec3d bcac aabd 5b90 8e3d 8b03 593e
00000080: 90ce 52bd 3600 b2bd d0e1 dc3d d15c f9bd
00000090: df61 13be ec20 8c3e cce8 d3bd 12db d0bd
000000a0: ef1b 303e 572e 473c e78e cbbd e9bd 233e
000000b0: afc1 b03e ec08 353d c405 f13d e821 893e
000000c0: 2157 1fbd 4de4 89bd 6d87 023d 1377 153d
000000d0: 6bd7 813e b92c 82be 3d0b 303e 536e 183d
000000e0: af22 193e 2a98 88bd 9c4f 933e 1e85 e1be
000000f0: 3de5 af3e af6b 583e fa38 eabd 355c 7bbc
00000100: 5901 43be c016 2abe 87b5 13be fa9c 5cbe
00000110: f9f0 f13d d378 cc3d 2be0 78be 3fae 56be
00000120: 662b 2abe 3d68 403d 88a6 b5bd 00d5 593e
00000130: 57d8 17bd adde 07be d45a a63e 28a4 50be
00000140: e5fa 613e c814 5c3e 533f fdbc 991b a0bd
00000150: 5cfa b33d 4a05 05be 6ac1 b13d d415 b3be
00000160: e9a0 2f3d f164 553e 5685 11be da7f 8e3c
00000170: 3cd6 893e b750 5fbc 443e 91bd cc82 babd
00000180: 74da e7bd fef4 91be 2553 1f3e 144e 52bd
00000190: 4852 89bc c714 23bd 9919 cdbd 67d5 26be
000001a0: 1f9e a5bb e5d7 253e bc2b 48bd 0072 5c3e
000001b0: d607 e1bc c59f c1bd 2982 ecbd ed21 833c
000001c0: 96b3 86bd fa20 1e3e 1430 1e3e 0942 96be
000001d0: b65a 983d 4f1e 7a3e 5370 53be ecd0 20be
000001e0: 00a2 8a3c 83e6 5ebe 5739 cdbd ccd1 f1bb
000001f0: 1fa0 253e 2e7b e7bd 4c41 1dbe 6b46 12be
00000200: 0d75 7a3d 3867 19bc 5d5a 543d 9e58 983d
00000210: 55ed 1fbf 129b 3d3e 5dc3 5bba 8011 1d3e
00000220: 93cd 91bd 9e76 ac3e 1e84 033d e8ec f8bd
00000230: 1298 12bd 2fee 913e 65ff 393d ef15 eb3c
00000240: fe67 a53b a8cb 743e 3b60 a0be dedb 4bbd
00000250: f05c a1bc 5bc4 943d 3e0a 463e afed 0f3e
00000260: 7773 213d f4f7 7dbd 8cfe 133d 7007 59be
00000270: f16c 4cbe 1cf1 e4bd 6789 533e 82d8 d53c
00000280: 85cd efbd 6e5c 85bd a94d cfbe e7da e43d
00000290: a4f4 4abe ae49 d4bb f01f 173e bec7 493e
000002a0: b7dc 0c3e dd38 a53c 1ec0 173d c064 503d
000002b0: e1cf 123e 09cd 7ebd d2bf 78bd bf20 95bc
000002c0: 9f0f 4fbe 9993 1abe 6f8e ec3d c77d 143e
000002d0: b30b 1cbd f2b5 233e 2de1 173e 8e90 54bd
000002e0: a643 243d b700 c8bd 1a27 373e e456 c4bd
000002f0: 0b1c ecbd 6b51 073e c463 8b3d 160f 13bd
00000300: 8a52 35bc 09c0 be3d b03c 8fbe 69ac c93c
00000310: 4840 70be 7aa8 9c3d 48e3 453e 1492 edbc
00000320: c871 ec3d e392 063e f9ae 283e e31b 4f3e
00000330: 72cf 41be 9db8 a33e dc79 d9bc d768 e9bd
00000340: b960 673e 1852 3fbd 80f4 5f3e ba50 cb3c
00000350: 7d9b 4ebc 44e5 38bd ff32 82bd b65d 8abd
00000360: a723 4d3e b611 c23e 532d 45be f186 58be
00000370: c0cd be3d 6adc 9b3d eaba 7bbc 4d4f 94be
00000380: 7de3 babd f7cd 243e 91c7 6ebc 5b76 05bd
00000390: 445a be3d 3618 1a3d 4906 0cbd 5292 b2bc
000003a0: 68a8 83be 25e7 8dbe dd63 8b3e c639 353e
000003b0: 903d 3d3c 5eb1 20be c883 9dbc 6d06 9dbe
000003c0: 745f a2bd ab9e 45be 4e02 e9bd c64a f0bd
000003d0: 9a31 6e3e 9279 c8bc 4906 07be cd87 62be
000003e0: e24a 9bbc 1098 52bd 88fb eabb c078 b43d
000003f0: 055e 08be b830 343e 8c92 00be 5c8d 9abe
0.03390947 0.37510526 0.16655959 0.13089815 -0.22368771 -0.13512883 0.2484722 -0.054089785
-0.060940113 -0.03513128 -0.08516303 0.0019275787 -0.19943666 -0.14329524 0.24246079 -0.16155975
-0.07894577 -0.037402157 -0.052662212 -0.11325373 0.0022806881 0.22520973 0.08357246 -0.056011856
0.18602642 0.15273502 0.15846294 -0.23555009 0.11533521 -0.08333728 0.06961127 0.21192758
-0.051466525 -0.086914465 0.10785258 -0.121759064 -0.14392804 0.27368867 -0.10347137 -0.10198034
0.17198156 0.012157044 -0.09939366 0.15990414 0.3452277 0.04419796 0.11768678 0.2678368
-0.038901452 -0.06732998 0.031867433 0.03649051 0.25359663 -0.25424746 0.17191787 0.03721459
0.14954637 -0.06669648 0.28771675 -0.44046873 0.34354582 0.21134828 -0.11436649 -0.015341808
-0.19043483 -0.16610241 -0.14424716 -0.21544257 0.1181354 0.09983983 -0.24304263 -0.20964907
-0.16618118 0.04697441 -0.08869654 0.2127266 -0.037071552 -0.13268538 0.3249117 -0.2037512
0.22068365 0.21492302 -0.030913984 -0.07817764 0.08787987 -0.12990299 0.08679469 -0.3497759
0.042878065 0.20839287 -0.1421102 0.017394949 0.2692126 -0.013630084 -0.07091954 -0.09106979
-0.113209635 -0.28507227 0.15559061 -0.051343992 -0.016762868 -0.039814737 -0.10014648 -0.16292344
-0.00505425 0.16195638 -0.048869833 0.21527863 -0.027469557 -0.09454302 -0.115482636 0.016007388
-0.06577222 0.15442267 0.15448028 -0.29347256 0.07439177 0.24425624 -0.20648317 -0.15704697
0.01692295 -0.2176762 -0.10020702 -0.007379746 0.16174363 -0.113027915 -0.1535694 -0.14284675
0.061146785 -0.009362988 0.05184399 0.074387774 -0.62471515 0.18516186 -0.00083832984 0.15338707
-0.07119288 0.33684248 0.03210842 -0.12154561 -0.035789557 0.28502032 0.04540958 0.028696982
0.005047797 0.23905814 -0.31323418 -0.04977023 -0.019697636 0.07264014 0.19339845 0.14055513
0.039416756 -0.062004045 0.036131427 -0.21194243 -0.19963433 -0.111788005 0.20657884 0.026104216
-0.117091216 -0.0651177 -0.40488937 0.11174565 -0.19819885 -0.00647851 0.14758277 0.19705102
0.13756071 0.020168716 0.03704845 0.050877333 0.14337112 -0.062207256 -0.06072981 -0.018204091
-0.20220803 -0.15095367 0.115506046 0.14501105 -0.038097095 0.15987375 0.14831991 -0.05189567
0.040103577 -0.09765761 0.1788601 -0.095868856 -0.11528786 0.13214652 0.06806138 -0.03590306
-0.011067042 0.093139715 -0.27975988 0.024618344 -0.23462021 0.07649322 0.19324982 -0.02900032
0.115451396 0.1314197 0.16472997 0.20225482 -0.1892679 0.31976786 -0.026547365 -0.1139695
0.2259549 -0.04670915 0.21870613 0.024818767 -0.0126103135 -0.04514052 -0.06357383 -0.06756155
0.20033132 0.37904137 -0.19255571 -0.21145226 0.093165874 0.076104 -0.015364388 -0.28966752
-0.09125421 0.16094194 -0.0145739475 -0.032583576 0.092945606 0.037620746 -0.03418568 -0.021798287
-0.2571442 -0.27715412 0.27224627 0.1769782 0.011550322 -0.1569266 -0.019227877 -0.30668965
-0.079283625 -0.19298808 -0.11377393 -0.11733012 0.23261109 -0.024472032 -0.13185991 -0.22122116
-0.018956605 -0.05141455 -0.007171098 0.08812094 -0.13317116 0.1759671 -0.12555903 -0.30185974

lstm.lstm_cell.weight_hh f4 [128, 32]
00000000: 3059 173e f991 c43e 0536 f5bd 52a8 7cbe
00000010: 87df 88bd eaa4 593e baa4 c53d b95f 47be
00000020: 72d2 913e 608d 293e 2300 473c 128a 4a3e
00000030: f414 50be 1eb5 af3e e1e7 15bd b9bf 5e3d
00000040: ac4e 143e 04ce ad3e bf63 323d 0b5f 5b3e
00000050: 66f8 db3d bbe4 e33e 1504 b4be 9276 99be
00000060: 9a24 5a3d 324b acbe 1b11 6abe 1602 98bc
00000070: 91f4 a6be ab38 da3d e64f f2be d097 2d3e
00000080: 3558 07be e814 e03e 5358 e8bd c651 86bd
00000090: 07ec 12be ac99 d53d 6055 263e bc36 29bd
000000a0: c0db 8cbd 0323 14bd c8b4 13be 02cd 5b3e
000000b0: ddf4 a73c ce1c acbd a022 bf3e a83a 703e
000000c0: ade4 573d 6256 9abe 8fa9 06be ac63 a83d
000000d0: cdc6 b5bc ed30 493e 765c 50be 9195 8f3e
000000e0: c593 a3be aaf4 5cbe 3a07 43be 42b1 3fbe
000000f0: d8fe dcbe fdee b73e 3f90 92bd dbc2 1b3d
00000100: 24c6 433e 6224 503e b918 bcbe dc9d 123e
00000110: 1686 19be 289e 5dbd 74fa 163e 22a3 e1bd
00000120: 4d0a 99bc 15e8 12bd 8ea8 933e d113 d13d
00000130: 33fa 133d 9f5b 873d 04a6 99bd 2da9 383d
00000140: c6d6 153d bb4c ac3d 4bb0 55bd cdfb 1ebc
00000150: 496b 513c 883b a63e 4446 20be dfb0 7c3e
00000160: 55d8 3bbe 2e8b e53d 7352 3cbe d8bf 90bd
00000170: e69c 29bc 149d eb3d af61 69be 0f31 1b3e
00000180: e64a 58bc 4fdf a93e 2ec0 36ba ce2d 06be
00000190: e9e7 193d df46 df3d 46a6 183e 4422 40be
000001a0: c42b 543d dedd cebd 3cab 843c af38 833e
000001b0: cc67 ccbc 1372 1e3d f1cb 10be b263 ee3d
000001c0: 7187 0dbd 3429 0f3e 731e 9e3e 68e5 50be
000001d0: d1e1 0c3e 7678 063e 69cb 9ebd 4463 f93c
000001e0: 6267 263e 39de 3bbe ff0f 44be c344 833e
000001f0: 5e38 8e3e df51 973d 1d8c f83c 5e1a 423d
00000200: d04d a2be 7b16 6dbe f409 62be 75a1 0d3e
00000210: 93fd be3e 111a 78be 52d7 103d 11f3 c6bd
00000220: b7f3 44be db7f 763b 2e8a 8bbc 26d4 a8bc
00000230: f6f8 473d 1641 babe 5562 67be dc60 02be
00000240: 77d5 a2be f09d 07be e808 853d 42f5 80be
00000250: d3e1 fb3d abb9 13bd 37ed 5a3e 1902 d8bb
00000260: d56f 68bd b1d2 1abe 0b4c 203e ef1c 773e
00000270: 33f2 a6bd 4e4c 9dbd d14a a6bc a8f7 00be
00000280: da30 793e 75e1 b93d 11d0 9ebd 2b7f c1bd
00000290: 6207 babd 43b5 213e 4bb3 403e bf9f 183e
000002a0: f42b 8dbe 096c c1be dba9 ad3d 236a ae3d
000002b0: d7e6 043e 4f82 ba3e 0f4f b83d b737 953d
000002c0: 7d5c f53e 774c 48be 519c 8fbe ee96 893e
000002d0: cec4 a83e ca05 96be 6148 59be 5731 163e
000002e0: b4a1 683d e194 b03e 9b30 c5bd 88ac 8fbe
000002f0: 66e4 2cbe bd3a 96be 4fd7 953d 96ff c73d
00000300: 89dc 413e f6b0 273d 51bf ba3e 75e9 8d3e
00000310: d1c3 7fbe 6b4e 48bd 6ad5 923a 3517 243e
00000320: a4fa 0fbc 4784 103e cdf2 c2bd 67d2 473d
00000330: fef8 08be 17fd 003e 516a a03e e633 8bbe
00000340: dbee ef3d 8b5e ad3e 2787 0b3d d555 1bbd
00000350: e9c6 933e cbfc 0c3b 29f0 e3bd a808 80be
00000360: 1d7d a8bd d533 a4bd a07f 1abe e4d6 a93d
00000370: 0561 9d3d 223d d8bd f3d6 843e f953 0fbc
00000380: 8894 b13e 1ba3 2fbe 7c59 07be c53d 5bbe
00000390: 316c 633e 0652 913e d500 3e3d 2123 ca3d
000003a0: cfbb 463e daec 553d ec93 3cbe 8435 3d3e
000003b0: c7af 1dbe 7b17 b23e bc96 763e 5544 6bbd
000003c0: 500c a13e 00f8 553e d93a 36bd 4645 dc3d
000003d0: e20b 60bc 213f 43be 1d9c 1cbd f3fc d93d
000003e0: 5ebb 09be ebd5 be3d 80af 28bd 893e acbc
000003f0: 3885 7bbd fe03 0b3d 2de1 febc acbf 293e
0.14780116 0.38392618 -0.11973194 -0.24673584 -0.066832595 0.21254316 0.0965056 -0.19470109
0.2848087 0.16557837 0.012146029 0.19779232 -0.20320493 0.3431787 -0.03659809 0.05438206
0.14483136 0.3394624 0.043552157 0.21422975 0.107407376 0.44510445 -0.35159364 -0.29973274
0.053257562 -0.3365112 -0.22858088 -0.018555682 -0.32608464 0.1065534 -0.47326583 0.16952443
-0.13217242 0.4376595 -0.113449715 -0.06558566 -0.1434785 0.10429701 0.16243505 -0.041311964
-0.068778515 -0.036166202 -0.14424431 0.21464923 0.020502502 -0.084039316 0.37331104 0.23459876
0.052708317 -0.3014403 -0.13150619 0.08222136 -0.022189522 0.1964757 -0.20347771 0.28043798
-0.31948677 -0.21577707 -0.19045725 -0.18719962 -0.4316318 0.3592452 -0.07156419 0.038027626
0.19118553 0.20326379 -0.36737612 0.14318031 -0.14992556 -0.054105908 0.14743978 -0.11017443
-0.01868167 -0.035865862 0.28839535 0.10208858 0.03612728 0.06609272 -0.07502368 0.045083214
0.036581777 0.08413073 -0.05217008 -0.009703589 0.012781926 0.32467294 -0.15651804 0.24676846
-0.18344243 0.11208187 -0.18390827 -0.07067841 -0.010352349 0.1150457 -0.2279117 0.15155433
-0.013201451 0.33178183 -0.0006971386 -0.1310341 0.037574682 0.109021895 0.14907178 -0.18763071
0.05179955 -0.101009116 0.016194932 0.25629184 -0.024951838 0.03868301 -0.14140297 0.11640109
-0.034552995 0.13980561 0.30882606 -0.20400012 0.13758017 0.1313189 -0.07753641 0.030442841
0.16250375 -0.1834649 -0.19146727 0.256384 0.2777738 0.073886625 0.030340249 0.047388427
-0.3169999 -0.23153107 -0.2207411 0.13831122 0.37302837 -0.24228694 0.035361595 -0.0971433
-0.19233595 0.003761283 -0.017033663 -0.020608973 0.048821412 -0.36377782 -0.22596104 -0.12732261
-0.31803486 -0.13243842 0.06495839 -0.25187117 0.12298932 -0.03606574 0.21379553 -0.006592047
-0.056747276 -0.15119435 0.15654008 0.24132131 -0.081516646 -0.076805696 -0.020299347 -0.12594473
0.24335042 0.09076206 -0.07754529 -0.094480835 -0.090834394 0.15791802 0.18818395 0.14904688
-0.27572596 -0.37777737 0.08479663 0.08516338 0.12978683 0.36427543 0.08999454 0.072860174
0.47922125 -0.19560419 -0.28048947 0.26872963 0.3296265 -0.29301292 -0.21219017 0.14667259
0.056794837 0.34488586 -0.096284114 -0.28061318 -0.16884002 -0.2934169 0.073164575 0.09765546
0.18931784 0.040940247 0.36474088 0.27717176 -0.24977042 -0.04890291 0.0011202518 0.16024478
-0.008787785 0.1411296 -0.09518967 0.04878464 -0.13376233 0.12596546 0.31331113 -0.27188033
0.1171548 0.33861193 0.03406444 -0.037923653 0.28862694 0.002151298 -0.11129791 -0.25006604
-0.082269885 -0.08017699 -0.15087748 0.0829294 0.07684521 -0.10558535 0.25945243 -0.008748048
0.34683633 -0.17152064 -0.1321773 -0.21410282 0.2220924 0.2838289 0.046387512 0.098699816
0.19407581 0.052227832 -0.18415803 0.18477446 -0.15399085 0.3478354 0.24080938 -0.057438213
0.31454706 0.20895386 -0.044489715 0.107554 -0.013674708 -0.1906705 -0.03823482 0.10643949
-0.13450381 0.09318145 -0.041182995 -0.021025913 -0.061406344 0.033939354 -0.031113232 0.16577023

lstm.lstm_cell.bias_ih f4 [128]
00000000: bcfb b93e 9147 773e 51eb 893e dea7 793e
00000010: 4c71 5d3e 4bbc 4ebd e744 95bc 920b 30ba
00000020: 6b64 38bd e26a 3d3e 8c86 1f3e c02d a73d
00000030: a4d2 f53d cd7d a1bc 7cac b5bc 0aca d2bc
00000040: b911 5c3d 1bb9 06bd 6172 883e 8a81 06bd
00000050: 0830 0abe 151a ae3e 64a8 853d 8eac 753e
00000060: 8d28 063e 7141 aa3c 2099 12be ba72 ddbc
00000070: 7afb 4bbe 729b b7bc 18b3 eaba 877c ae3d
00000080: 079c 673e aecd 253d 72a5 bd3c 26a3 88bd
00000090: 26e8 c53d 5011 bc3c 2dd7 6b3e 4774 8e3e
000000a0: 2f0c 0f3e 9d9b c93d fbee e5bd e5e2 083d
000000b0: abf8 37be 678d 643e e604 16be c896 6cbd
000000c0: 2343 393e 3a7d 193e 187f 623e 22ad 85bd
000000d0: f4b1 5f3d b474 16be c461 1dbe 56f9 af3c
000000e0: f216 08bc 1f6a a03d 5183 a63d f481 02bd
000000f0: bb20 20be 7f2e 353e de62 463e f8cb 873e
00000100: a88a 3ebe 5c88 4bbe 2382 7ebd 51a5 583d
00000110: 87b9 25be 7629 b5bd 60d6 483d fad6 983d
00000120: 8438 f3bc 0ccb 1d3d ede8 0c3e 5b42 813d
00000130: 4709 6a3d 350b 0abe 270e 31be 0085 253e
00000140: ed43 12bd 3d1b 41be 3778 313d 4b09 1ebe
00000150: d9c1 13bc cd1d 02be 364c 00be 7574 ae3d
00000160: c5d9 45bd 3a75 d5bd fe62 7abe a9c9 f73d
00000170: 0923 e73d 1ade bc3b ca5b 5e3c fd56 5cbd
00000180: 848c ea3d 0253 dc3d a05a 1c3e 60ff 4d3e
00000190: c58f 433e 9c54 873e 474d 3ebe 8540 083e
000001a0: 0c7b bb3e 9a7b 93bd 620f 6b3e 463b 12be
000001b0: d364 3dbe 7c3b 963e c32b 28bd af7e aebd
000001c0: 1147 353e e198 2bbd a384 8c3e 722e 5bbd
000001d0: 32fe a3bd bddb 553e 2b1a 65be 00ad 89bd
000001e0: e7f9 133d f788 013e 8335 c43d 15f9 b9bd
000001f0: 036c 6a3d 28ac 14bd df5c 0fbe e43f 473e
0.3632487 0.24148394 0.26937345 0.24380443 0.2162525 -0.05047254 -0.018221332 -0.00067155913
-0.04501764 0.18497804 0.1557867 0.08163023 0.12003067 -0.019713307 -0.022176974 -0.025731105
0.05372784 -0.032891374 0.26649764 -0.03283838 -0.13494885 0.34004274 0.065262586 0.23991606
0.13101406 0.020783158 -0.14316225 -0.027032245 -0.1992015 -0.02241299 -0.0017906157 0.085198455
0.22618113 0.040479355 0.02315018 -0.06671743 0.096634194 0.022957474 0.23031302 0.27823088
0.13969491 0.09844134 -0.112272225 0.03341951 -0.17965953 0.22319566 -0.14650306 -0.057760984
0.18092017 0.14989176 0.22118795 -0.06527163 0.05461307 -0.14692956 -0.15369326 0.021481197
-0.008306252 0.07832741 0.08130515 -0.031862214 -0.15637486 0.17693518 0.19373652 0.26522803
-0.1860758 -0.19876236 -0.062135827 0.052892033 -0.16184054 -0.08845799 0.04903257 0.074628785
-0.029690035 0.03852372 0.13760729 0.063114844 0.057137754 -0.13480838 -0.17290555 0.16164017
-0.03570931 -0.18858047 0.043327536 -0.15433232 -0.009018385 -0.1270668 -0.12529072 0.08518306
-0.048303384 -0.1042275 -0.24451825 0.120990105 0.11285979 0.0057637813 0.013571689 -0.053793896
0.114525825 0.1075802 0.15268946 0.20116949 0.19097812 0.2643174 -0.18584166 0.13305862
0.36617315 -0.072013095 0.22955087 -0.14280424 -0.18495493 0.29342258 -0.04105736 -0.08520257
0.17702891 -0.041893844 0.27444944 -0.05351109 -0.08007468 0.20884605 -0.22373264 -0.0672245
0.036126997 0.12649904 0.09580519 -0.09080712 0.057231914 -0.036296993 -0.14000271 0.19457966

lstm.lstm_cell.bias_hh f4 [128]
00000000: d713 f23d a31d e1bd 0994 1f3e 2c96 d33d
00000010: 5d55 d4bc b66f cbbd 1695 3a3e 02c4 03bd
00000020: 0028 4dbd 61fa 083d 89ae f73c 2cbe e83c
00000030: 838b 493d 0572 57be 4284 8f3c 508f 603d
00000040: aa6b 8ebc 94fb e23d 494b 353e 152b 463e
00000050: cbfb 91bd 721d 943e 034d 35bd 19ba e43d
00000060: ba1f 2e3d 782e 5e3e 3c9e 0d3e a852 b23d
00000070: 9190 8ebe ed13 8b3d 270c 09bd 75da b13d
00000080: b639 8d3e b21b 40be 96d1 8c3e 356c 08be
00000090: 0d87 033e 7722 553e 82cb 963d b3b7 863d
000000a0: 7cd3 c33e e00f 323e 5e67 bc3d f5d0 a5bd
000000b0: ff14 7dbe 6250 3d3e 9d24 4cbd bdac 903c
000000c0: 23f6 2f3e 67f1 7a3e a661 903e 22c4 e03c
000000d0: e84c 423d b44f 95be 3553 6b3d dd47 00bd
000000e0: 64db 1e3d b126 7a3d 194f ad3d c943 2cbe
000000f0: 4f4a 8fbd e329 973d f846 083e 87ea c43e
00000100: 843a c53d a771 de3d 24f0 f53a 6124 083e
00000110: 254b afbd cf34 b0bd f125 b23d 3ad3 27be
00000120: 5688 903c 4136 073c dfb6 0e3d 7ee0 9c3e
00000130: 6933 cebc 61e8 933d c6a4 fbbc 46f3 983d
00000140: 7308 cbbd 33af eb3d c747 ff3c ae89 a03d
00000150: 4391 97bd cc70 c8bd e257 20be b16e d53d
00000160: 9dba 683d 3994 6a3d 7d12 36bd 9be9 46be
00000170: 2e36 25be 5f64 93bd 33a5 553d 5e02 f63d
00000180: 0493 46bd f387 113e bf4f ac3d c973 033e
00000190: e1ba 5fbd 72f7 9a3e 0cbf 0fbd 0d88 903e
000001a0: 71e0 673e 3e03 7abe c4e8 f93d 3c3c 2bbd
000001b0: ca65 413d 9611 de3e bb9f 12bd 03c2 1fbe
000001c0: f185 153d 9ce2 cc3b adf8 ac39 580c 123e
000001d0: 9a22 8a3d 59d3 423e d2a6 11bd 83cd 30bd
000001e0: 60e7 45bc b810 6a3e 9eda 6d3e 06a6 11be
000001f0: bd3b 94be 4ec6 a8bd 8fea 50be 5c1d 1b3e
0.118201904 -0.10991981 0.15583815 0.103313774 -0.02591961 -0.099334165 0.18220934 -0.03216935
-0.050086975 0.033441905 0.030234592 0.028410994 0.049205314 -0.21039589 0.01751912 0.054824173
-0.017385323 0.11083141 0.177045 0.19352372 -0.07128104 0.28928715 -0.044262897 0.11168308
0.042510726 0.21697414 0.13829893 0.08707172 -0.2784467 0.0679091 -0.033458855 0.086842455
0.27583092 -0.18760565 0.2750365 -0.13322528 0.12844487 0.20813929 0.07363035 0.065780066
0.38247287 0.17388868 0.09199403 -0.08096496 -0.2471504 0.18487695 -0.049839605 0.017660493
0.17183737 0.2450615 0.281995 0.027437273 0.047436625 -0.2916237 0.0574524 -0.031318534
0.038783446 0.061072055 0.08462352 -0.16822733 -0.06996595 0.07381036 0.13308322 0.3846018
0.096303016 0.10861521 0.0018763584 0.13295127 -0.085592546 -0.086038224 0.08698643 -0.1638917
0.017643135 0.008252681 0.03484237 0.30640024 -0.025170999 0.07222057 -0.030718219 0.07468276
-0.09913721 0.11508026 0.031162156 0.0783876 -0.07400753 -0.09787139 -0.15658525 0.10421503
0.056818593 0.057270262 -0.044451226 -0.19425051 -0.16133949 -0.07196879 0.0521595 0.1201217
-0.04848005 0.14212017 0.08413648 0.12837137 -0.05462158 0.3026691 -0.035094306 0.28228799
0.22644211 -0.244153 0.122026 -0.04180549 0.047216214 0.43372792 -0.035796862 -0.15601353
0.03650469 0.0062526 0.00032991674 0.14262521 0.06744881 0.19025935 -0.035559483 -0.04316474
-0.01207909 0.2285794 0.23227927 -0.14223489 -0.28951827 -0.082409486 -0.20401977 0.15147918

mlp.0.weight f4 [16, 32]
00000000: e9f9 c13e ba27 fabd c654 9a3e d28a 2f3d
00000010: a608 deba e28b 7c3e ddc5 853e 3735 ef3c
00000020: 6ed0 4d3e 0d88 123d 3814 efbd 5474 b53d
00000030: a3a4 e0bc ef7e bd3d 5381 02be 62c7 76be
00000040: f69b 5d3e 467e 543d 6e60 513e 9886 82bd
00000050: 01e8 303c 3cff 3ebe e115 0d3e 377f 7cbd
00000060: 911e 1fbe 8fcb 60bd 2024 cc3c b707 dc3d
00000070: 2391 8f3d b36d 04be fd0e e3bd 3129 1d3d
00000080: 6a7c c5be 3e11 853c 36f9 eebe 4ccd 753e
00000090: cce7 9abd 9cec 01be 2e40 08be 0dc7 f3be
000000a0: 9e15 f9be b884 0dbe 96e8 c13e 8dd4 3a3c
000000b0: e006 ef3d fac8 d8be 7d4c 8abe 025c 7e3e
000000c0: b305 91bc af02 47be 8e0c 2cbe a6d6 49be
000000d0: f066 6e3e dcb6 41bd 32aa 6abe 6a8f 58bd
000000e0: c909 6e3d d0fc 17be 5060 50be 3aa3 55be
000000f0: 97b2 753e e4d4 053e 70a9 a6bc ddb9 46be
00000100: 57cd 953e f01f 4abe e22b e63e eb35 19be
00000110: b705 fa3d 94f9 b93d d45c 2a3e 4eeb c23d
00000120: e766 4d3e c874 68be 7589 8ebe 82d0 803d
00000130: e0a4 f7bc a328 ac3e 05dd e6bd 4e2f d1bd
00000140: 34c7 003e c117 023c a924 b53e 0f1f ef3c
00000150: 4044 c6bd d309 2b3c e4ca 91bb 2a3d 04be
00000160: 5004 2c3d 931a b8bd 448b 96bc bafc 053e
00000170: 5214 8cbd c52e 38bd 9d13 683e b423 4fbd
00000180: 4815 18be 737a 9d3c 1ca2 46bd 3114 88bd
00000190: 0ee1 f83d bad4 943c d811 17be d9a7 a63d
000001a0: 2250 56bd 0aa5 58bc 0091 55bd f216 0bbe
000001b0: bb27 81bd 085e 0a3e bf15 6ebe dae1 04be
000001c0: 1552 2fbe 9cf9 b1bd be48 e13c 0a35 1d3e
000001d0: 0b14 053e ba2b 7cbd e6ae e43b 1dd5 1b3c
000001e0: 7289 60bd b42e 0c3e 371c 123e aa2e 7b3d
000001f0: 8d3c 323d 5ae1 6e3e afa7 29bd 8632 22be
00000200: 8070 52be f9e9 8c3b d8a9 bc3c 470d 1b3e
00000210: 4445 07be 867f 5fbe 812a 62be a2c4 11be
00000220: ae4a 94bd f964 8e3e d000 a63d 49f6 46be
00000230: 2778 263d 5c4b 283d a275 ab3d 8fe6 6f3e
00000240: 8d31 c4bd 4b37 963c 7d09 49be ef36 2fbe
00000250: 0bda 303d fcc2 353e 98cf bdbc 0a0e 07be
00000260: 56d4 663e adb3 083c 2109 f33d db0e 7abe
00000270: 400b 7abd 15bc 19bc c3a1 d53a 8813 88be
00000280: cd7c b83e 521b 18be e808 a23e 2836 23be
00000290: 8ae4 6b3d f935 c33d cd8a 2f3e 3963 803e
000002a0: 86f1 753e 8aef 2ebe 3596 4bbe ad28 983e
000002b0: 7a03 95bd bb29 823e b28c b53d bd92 83be
000002c0: 718c 933e caa6 083e 5a5d f63e 8f9f 0ebd
000002d0: b2a6 8bbb a8ef 73be b261 0a3e 7fe6 313e
000002e0: bbfc 4d3e 6aa4 173d 81fa 64bd 823d 1c3e
000002f0: 47bb 313e 03ac c0bd 337a af3d 1805 1e3e
00000300: 24a0 5a3e 3446 a6bc 41e1 813e b1f0 49be
00000310: adbc 0cbd 73c9 863e 5af0 463d d4af 433e
00000320: 04b8 ce3e 2f1c 82bd bc3b 24be 3b5b 593d
00000330: 490a c0bd 40be ab3e 57b9 2ebe 90fa 23bd
00000340: ef35 6c3e ebf3 0b3e 7399 e53e 57d8 9fbd
00000350: b415 dabc a93f 6abd b78a 14bd 44f1 95be
00000360: c7fe 9c3d 0614 3b3e e6e0 06bd c2f7 863d
00000370: c1f7 953d 5088 643c 673a 19bd 88ea 5b3e
00000380: 6010 86be b14a 8d3e bcbe e8be 3dfd 3c3e
00000390: d9f1 233d ebb4 a23d c855 2e3d 3c21 b9be
000003a0: 9e71 a6be 6e02 803d 16cd 903e 30b2 a23e
000003b0: d178 6abd e8e7 e3be 7b0d 16be 4f0f 223e
000003c0: b7f8 51be 89b9 26be f433 d4be 88ff 91bd
000003d0: 60d4 6d3e 4eec ac3d 7dab 8dbe 9513 0c3e
000003e0: 22c7 32be f883 15be caef 78be 35bd 8f3c
000003f0: 8f76 7fbd d8aa 0d3e d4fa 29be 25db d53d
0.3788598 -0.122146085 0.30142802 0.042857 -0.0016939833 0.24662736 0.2612752 0.02920018
0.20099041 0.03577428 -0.11673778 0.088600785 -0.027422255 0.09252726 -0.12744646 -0.24099496
0.21641526 0.051878236 0.20446941 -0.06373328 0.010797502 -0.18652052 0.13777877 -0.06164476
-0.15539004 -0.05488163 0.02491957 0.10743659 0.070101045 -0.12932472 -0.11086843 0.03836936
-0.38571483 0.016243573 -0.46674508 0.24004096 -0.07563743 -0.12687916 -0.13305733 -0.476128
-0.48649305 -0.1382016 0.3787276 0.011403215 0.11671233 -0.42340833 -0.2701148 0.24839786
-0.017702913 -0.19434617 -0.16801664 -0.19710788 0.23281455 -0.04729353 -0.22916487 -0.052871145
0.0581148 -0.14842534 -0.2034924 -0.20863047 0.23993908 0.13069493 -0.020344466 -0.19406839
0.29258224 -0.19738746 0.44955355 -0.14961974 0.12208121 0.090808064 0.16636974 0.09517537
0.20058785 -0.22700799 -0.27839246 0.0628977 -0.030229986 0.33624753 -0.11272625 -0.10214101
0.1257599 0.007940234 0.35379532 0.029189615 -0.096809864 0.010439354 -0.0044492353 -0.12913957
0.0419963 -0.08989444 -0.018376954 0.13084689 -0.06839813 -0.044966478 0.22663732 -0.05057116
-0.14851868 0.019223427 -0.048494443 -0.06644476 0.12152301 0.018167842 -0.147529 0.08137483
-0.052322514 -0.013222942 -0.052140236 -0.13582972 -0.06306406 0.13512433 -0.23250483 -0.1297678
-0.17121156 -0.08690187 0.027500506 0.15352264 0.12995927 -0.06156514 0.0069788573 0.009511259
-0.054818578 0.13689691 0.14268576 0.0613238 0.043514777 0.23328152 -0.04141968 -0.15839586
-0.20550728 0.0043003527 0.023030207 0.15141784 -0.13210016 -0.2182599 -0.22086526 -0.14235166
-0.072408065 0.2781141 0.08105624 -0.19429888 0.04064193 0.041087493 0.08372046 0.23427795
-0.095797636 0.018336913 -0.19632526 -0.17110799 0.043176692 0.17750162 -0.023170277 -0.13188949
0.22541937 0.008343619 0.118669756 -0.2441973 -0.061045885 -0.009383221 0.0016298819 -0.265774
0.36032715 -0.14854172 0.3164742 -0.15938628 0.057591 0.09531779 0.17142792 0.250757
0.24017915 -0.17083564 -0.19881518 0.29718533 -0.07276054 0.25422463 0.08864726 -0.2569789
0.28818086 0.13344875 0.48118097 -0.034820136 -0.004261815 -0.2382189 0.1351383 0.17373084
0.2011594 0.03702203 -0.05590296 0.15257838 0.17356597 -0.09407809 0.085682295 0.1543163
0.21350151 -0.020297147 0.25367168 -0.19720723 -0.034359623 0.2632557 0.04856906 0.19110042
0.40374768 -0.06353032 -0.16038412 0.05306552 -0.09376962 0.33543587 -0.17062889 -0.040033877
0.23067449 0.13667266 0.44843635 -0.078049354 -0.026621677 -0.057189617 -0.0362651 -0.29285634
0.076657824 0.18269357 -0.032929324 0.06590225 0.07322646 0.013948515 -0.037409212 0.21476185
-0.26184368 0.27596048 -0.4545802 0.18455978 0.040025566 0.079446636 0.042562276 -0.36158168
-0.32508558 0.062504634 0.28281468 0.3177657 -0.057244126 -0.44512868 -0.1465358 0.15826152
-0.20505033 -0.16281714 -0.41445887 -0.07128817 0.23225546 0.08443509 -0.27669898 0.13679345
-0.17458776 -0.14601123 -0.24310222 0.017546276 -0.062368926 0.13834703 -0.1659959 0.10442189

mlp.0.bias f4 [16]
00000000: 0ca6 193e cc28 a93e b8a5 2c3e 5627 27be
00000010: fde7 14be 98b1 063e 8670 c13d 5c8c 873e
00000020: a461 0cbd aa67 89bd 29b7 b23d 3144 ce3e
00000030: 1064 023e fa27 85be 7443 493e 9874 323e
0.15004748 0.33038938 0.16860092 -0.16323599 -0.14541622 0.13153684 0.0944529 0.26474273
-0.034272805 -0.067092255 0.08726341 0.402864 0.12733483 -0.26007062 0.19654638 0.1742729

mlp.3.weight f4 [2, 16]
00000000: 4fdb 18bc 3c95 59be af93 c23e d133 a43d
00000010: 6dab b8be 9544 583e 0921 8f3e f64a bebe
00000020: f6db 093f 2918 3d3c 0499 a4be 45c2 e4be
00000030: ee47 9c3e 6830 88bd 360f f53d 966f 00bf
00000040: ffa8 90be 6a26 043f cb99 babe 5007 a4bb
00000050: c490 783e 3d5d f8be 72bd 69be 4f7e ec3e
00000060: 827f 15bf fd4a 74bd 69f5 a33e 8c7c c63e
00000070: fba7 66bd 9ae6 6a3b f035 bdbe aed9 d03e
-0.009329631 -0.21248335 0.380033 0.08017696 -0.36068287 0.21119912 0.2795489 -0.37166566
0.5385126 0.011541405 -0.32147992 -0.44679466 0.30523628 -0.06649858 0.11965792 -0.50170267
-0.28253934 0.51621115 -0.3644546 -0.0050057545 0.24273974 -0.48508635 -0.22826174 0.46190116
-0.58397686 -0.059641827 0.3202317 0.38766897 -0.056312542 0.0035843016 -0.36955214 0.40791076

mlp.3.bias f4 [2]
00000000: 08e3 f03d 5594 953e
0.11762053 0.2921473

weight f4 [15, 30]
00000000: 9b83 6ebf d6ee 063f d549 fdbe 41b3 6b3f
00000010: 6217 0d3f 9b46 fcbe 3970 57bf 2931 d43d
00000020: f456 dfbe 1b39 203f c195 63bf b7d4 133f
00000030: a7a5 1cc0 5329 4cbe 67d0 c73d 1719 1240
00000040: 15ae 07bf ada6 463f d136 6e3f 0616 263f
00000050: 3f32 9a3f 9d93 abbd 56a6 5dbf 6dd3 11bf
00000060: d448 f5bd 8be1 043d 185f 3dbf 73c0 21bf
00000070: 4985 25bf 1638 2c3f 9630 a23d 2270 813d
00000080: 1604 5dbf 58f5 ab3f a3f5 0bbf af92 553e
00000090: 8a34 22be 6c18 8abe b867 803f 4fec b9bf
000000a0: 80ea abbd d21d 2e3f f20b ab3f 359d 0dbf
000000b0: 880c 663f f76c e5be e108 aa3f e5c8 423f
000000c0: a9dd dbbe 66e1 e13d 2d24 aabe 324d 6dbf
000000d0: 5d95 933f ff53 01c0 0ca9 7a3e 9bec c5bf
000000e0: e675 42bf 5792 063f b548 42bf 9062 283e
000000f0: 2790 f63f 359c 923f 0100 cabf a724 473f
00000100: 981f 913e aa27 85bf ec29 8e3f ebe7 d5bd
00000110: 5dbb f7be 7510 a13f 0bb9 c4be 2d16 72bf
00000120: 1f70 92bf c963 70bf e4dc 8fbf e8a2 06bf
00000130: a0d2 c03d 28d0 97bf 7366 e43f 39be a63e
00000140: c498 83bf 3cb5 673f d250 1ebe 2d55 b7be
00000150: caa0 fcbf 6940 0040 59ad cbbf 0915 aebf
00000160: b8f0 91bf edbd cf3f 9992 1ebe d6a7 743f
00000170: 6007 48bf f7a2 cb3f 131f 15bf 0071 3f3f
00000180: a587 af3f 0804 88be 90cb 863f d9a9 a63f
00000190: ca44 61bf a393 d2bf 32c6 803e 8ac2 45bf
000001a0: 4518 873f 647b 703e 965f 6dbf 8007 e0be
000001b0: bac3 bd3f 0d34 61bf a5ab 893f efe2 e93e
000001c0: f5cc 343f 3240 413f b392 6a3e 52dd 8abf
000001d0: d1ba 95bf a4a9 94bf d8de 223f ea20 a53d
000001e0: 57c7 b4bb 84ab dabc 9d4b 893e d599 413f
000001f0: 3dda 94bf 913c 71bf 9d30 a63e ffad ebbf
00000200: 0ef9 e83f 76d4 ccbe de87 7bbe 0911 afbe
00000210: 0eec e63e da25 a33e bcc4 8f3e 8838 203f
00000220: dd6a e7bd 854a a2bf 720d a23f f401 babf
00000230: 39e8 00bf c4fd 463f a153 c03e 14a2 3740
00000240: 142c bdbe 6a5f 72bf 4820 86be ab9b 6e3e
00000250: 30c4 25c0 b5cc 5a3f eaf1 c73e 65fd b33e
00000260: a4a2 ff3e c0ca 02bc 4cca c6be 497c 36bf
00000270: 9169 833f dc59 8e3f ec97 89bf 1870 233f
00000280: dba1 0d3f cd3c b3be 1419 333f 6cfd f2bf
00000290: 257b c13f 0bb9 8f3d 4fb2 70bf f82e 9b3e
000002a0: 7e34 68bf 1dd0 f9be 6fff 62bf 0406 363e
000002b0: ac6c 66bf 3ace 8fbf 8c80 2d3f 6775 203f
000002c0: 8339 8a3f 7e7f 543e 074c ddbc f3e7 84bf
000002d0: 327d 3fc0 c6c3 1d3f 1306 38bf 8c6e d43f
000002e0: 787f bd3e 11d3 dd3f d19f aa3f dbc7 393f
000002f0: 6df3 85be c7ad acbe ec9b 8abf 62ad bd3f
00000300: cca3 06bf 0fc6 59bf bb22 55bf 67af f6be
00000310: a50f e6bf 5068 4d3f 4229 3ebf d293 68bf
00000320: 8720 14c0 8abd 96bf c7cb 61bc 4837 ca3f
00000330: 5db3 853e 5fec 3cbf da62 fdbf b978 ba3f
00000340: cd33 463e 9b12 783f a637 5140 decb 123f
00000350: c907 8f3f 7e5a 2d3f 92a3 6bbf d408 b63e
00000360: 2f4e 5a3f 765b 303f 355e debc 52f1 3ebf
00000370: e25f 9d3e 63db f93e 06dd b8bf 2881 cbbf
00000380: bafe 9bbf bfd7 cc3e 54f7 813f e90b 9a3f
00000390: 90c4 8b3f d4af 983f d197 183f f7cc 69be
000003a0: a3f3 973f 6749 3b3f f19a a03f 25bf aebe
000003b0: 5e57 02bf 0933 113f 175f e73f e088 30bf
000003c0: 71db 42be aed4 7e3f 0930 933f 554d a03f
000003d0: 6d38 96bf 00dc 3fbf 8ae4 6dbe 4b9e 463e
000003e0: cfb8 d63f d7e9 ba3f 3066 8bbf b796 aabf
000003f0: 367d 99be bb7d 64bf a260 a8bf 397e b5be
-0.93169564 0.52708185 -0.49470392 0.92070395 0.55113804 -0.49272618 -0.84155613 0.10360939
-0.43621027 0.62587136 -0.8890038 0.5774645 -2.4476106 -0.19937639 0.097565465 2.2827814
-0.53000003 0.7759808 0.93052393 0.64877355 1.2046584 -0.083777644 -0.86581933 -0.56963235
-0.119767815 0.032441657 -0.73973227 -0.6318428 -0.646565 0.6727308 0.07919423 0.06320216
-0.8633436 1.3434248 -0.54671687 0.20856737 -0.15840355 -0.26971757 1.0031652 -1.4525241
-0.08394337 0.6801425 1.336302 -0.55318004 0.8986287 -0.44809696 1.328396 0.7608779
-0.4294255 0.110293195 -0.33230725 -0.92695916 1.1529957 -2.0207517 0.24478549 -1.5462831
-0.7596115 0.52567047 -0.7589219 0.16443849 1.9262742 1.1453921 -1.5781251 0.777903
0.28344417 -1.040273 1.1106544 -0.104446255 -0.48385134 1.2583147 -0.38422427 -0.9456509
-1.1440467 -0.9390226 -1.1239285 -0.52592325 0.094151735 -1.1860399 1.7843765 0.32567003
-1.0280995 0.90510917 -0.15460518 -0.3580717 -1.9736569 2.0039313 -1.5912277 -1.360017
-1.1401587 1.6229836 -0.1548561 0.955686 -0.78136253 1.5909108 -0.5825054 0.747818
1.371327 -0.26565576 1.0530872 1.3020583 -0.8799559 -1.6451305 0.2515121 -0.7724997
1.0554281 0.2348457 -0.9272398 -0.43755722 1.4825356 -0.8797005 1.0755507 0.4568095
0.7062524 0.7548858 0.22907524 -1.0848792 -1.1697637 -1.161427 0.6362128 0.080629185
-0.005516927 -0.026693113 0.268155 0.75625354 -1.1629101 -0.9423304 0.32458964 -1.8412474
1.8201005 -0.40005845 -0.24563548 -0.34192684 0.4510197 0.31864816 0.28079784 0.6258626
-0.112996794 -1.2678992 1.2660353 -1.4531846 -0.50354344 0.77730966 0.37563804 2.8692675
-0.3694769 -0.9467684 -0.26196504 0.2330157 -2.5900993 0.8546861 0.39051753 0.35154262
0.49928772 -0.00798291 -0.38826215 -0.71283394 1.0266591 1.1121173 -1.0749488 0.63842916
0.55325097 -0.35007325 0.6996014 -1.8983588 1.5115706 0.07017716 -0.9402208 0.30309272
-0.90705097 -0.4879159 -0.8867101 0.17775732 -0.9000957 -1.123481 0.6777427 0.6267914
1.0798801 0.2075176 -0.027013792 -1.0383285 -2.9920163 0.6162685 -0.7188427 1.6596236
0.37011313 1.7330037 1.3330022 0.7257058 -0.26162282 -0.33726332 -1.0828834 1.4818537
-0.52593684 -0.8506784 -0.8325612 -0.48180696 -1.7973524 0.80237293 -0.74281704 -0.90850556
-2.3144853 -1.1776593 -0.013781494 1.579812 0.26113406 -0.73798174 -1.9795792 1.4568092
0.19355698 0.9690339 3.2690215 0.57342327 1.1174251 0.67716205 -0.92046463 0.3555361
0.8527555 0.6888956 -0.02714453 -0.74586976 0.30737215 0.4880019 -1.4442451 -1.589879
-1.2187111 0.4000835 1.0153604 1.2034885 1.0919361 1.1928658 0.59606653 -0.22832094
1.1871227 0.7315888 1.2547284 -0.34130207 -0.5091456 0.567185 1.8075894 -0.68958855
-0.19029023 0.99543273 1.1499034 1.25236 -1.173597 -0.7494507 -0.23231712 0.19396321
1.6775149 1.4602612 -1.089056 -1.3327245 -0.2997834 -0.8925435 -1.315449 -0.35447863

weight_ih f4 [128, 30]
00000000: a8e4 0a3d cc0d c03e 998e 2a3e 2a0a 063e
00000010: 640e 65be 365f 0abe 7f6f 7e3e 408d 5dbd
00000020: 579c 79bd d1e5 0fbd f469 aebd cfa6 fc3a
00000030: 2039 4cbe fdbb 12be a447 783e eb6f 25be
00000040: 52ae a1bd 0133 19bd 55b4 57bd 92f1 e7bd
00000050: 9977 153b 619d 663e 0a28 ab3d b06c 65bd
00000060: b67d 3e3e 9266 1c3e 1c44 223e 0b34 71be
00000070: de34 ec3d bcac aabd 5b90 8e3d 8b03 593e
00000080: 90ce 52bd 3600 b2bd d0e1 dc3d d15c f9bd
00000090: df61 13be ec20 8c3e cce8 d3bd 12db d0bd
000000a0: ef1b 303e 572e 473c e78e cbbd e9bd 233e
000000b0: afc1 b03e ec08 353d c405 f13d e821 893e
000000c0: 2157 1fbd 4de4 89bd 6d87 023d 1377 153d
000000d0: 6bd7 813e b92c 82be 3d0b 303e 536e 183d
000000e0: af22 193e 2a98 88bd 9c4f 933e 1e85 e1be
000000f0: 3de5 af3e af6b 583e fa38 eabd 355c 7bbc
00000100: 5901 43be c016 2abe 87b5 13be fa9c 5cbe
00000110: f9f0 f13d d378 cc3d 2be0 78be 3fae 56be
00000120: 662b 2abe 3d68 403d 88a6 b5bd 00d5 593e
00000130: 57d8 17bd adde 07be d45a a63e 28a4 50be
00000140: e5fa 613e c814 5c3e 533f fdbc 991b a0bd
00000150: 5cfa b33d 4a05 05be 6ac1 b13d d415 b3be
00000160: e9a0 2f3d f164 553e 5685 11be da7f 8e3c
00000170: 3cd6 893e b750 5fbc 443e 91bd cc82 babd
00000180: 74da e7bd fef4 91be 2553 1f3e 144e 52bd
00000190: 4852 89bc c714 23bd 9919 cdbd 67d5 26be
000001a0: 1f9e a5bb e5d7 253e bc2b 48bd 0072 5c3e
000001b0: d607 e1bc c59f c1bd 2982 ecbd ed21 833c
000001c0: 96b3 86bd fa20 1e3e 1430 1e3e 0942 96be
000001d0: b65a 983d 4f1e 7a3e 5370 53be ecd0 20be
000001e0: 00a2 8a3c 83e6 5ebe 5739 cdbd ccd1 f1bb
000001f0: 1fa0 253e 2e7b e7bd 4c41 1dbe 6b46 12be
00000200: 0d75 7a3d 3867 19bc 5d5a 543d 9e58 983d
00000210: 55ed 1fbf 129b 3d3e 5dc3 5bba 8011 1d3e
00000220: 93cd 91bd 9e76 ac3e 1e84 033d e8ec f8bd
00000230: 1298 12bd 2fee 913e 65ff 393d ef15 eb3c
00000240: fe67 a53b a8cb 743e 3b60 a0be dedb 4bbd
00000250: f05c a1bc 5bc4 943d 3e0a 463e afed 0f3e
00000260: 7773 213d f4f7 7dbd 8cfe 133d 7007 59be
00000270: f16c 4cbe 1cf1 e4bd 6789 533e 82d8 d53c
00000280: 85cd efbd 6e5c 85bd a94d cfbe e7da e43d
00000290: a4f4 4abe ae49 d4bb f01f 173e bec7 493e
000002a0: b7dc 0c3e dd38 a53c 1ec0 173d c064 503d
000002b0: e1cf 123e 09cd 7ebd d2bf 78bd bf20 95bc
000002c0: 9f0f 4fbe 9993 1abe 6f8e ec3d c77d 143e
000002d0: b30b 1cbd f2b5 233e 2de1 173e 8e90 54bd
000002e0: a643 243d b700 c8bd 1a27 373e e456 c4bd
000002f0: 0b1c ecbd 6b51 073e c463 8b3d 160f 13bd
00000300: 8a52 35bc 09c0 be3d b03c 8fbe 69ac c93c
00000310: 4840 70be 7aa8 9c3d 48e3 453e 1492 edbc
00000320: c871 ec3d e392 063e f9ae 283e e31b 4f3e
00000330: 72cf 41be 9db8 a33e dc79 d9bc d768 e9bd
00000340: b960 673e 1852 3fbd 80f4 5f3e ba50 cb3c
00000350: 7d9b 4ebc 44e5 38bd ff32 82bd b65d 8abd
00000360: a723 4d3e b611 c23e 532d 45be f186 58be
00000370: c0cd be3d 6adc 9b3d eaba 7bbc 4d4f 94be
00000380: 7de3 babd f7cd 243e 91c7 6ebc 5b76 05bd
00000390: 445a be3d 3618 1a3d 4906 0cbd 5292 b2bc
000003a0: 68a8 83be 25e7 8dbe dd63 8b3e c639 353e
000003b0: 903d 3d3c 5eb1 20be c883 9dbc 6d06 9dbe
000003c0: 745f a2bd ab9e 45be 4e02 e9bd c64a f0bd
000003d0: 9a31 6e3e 9279 c8bc 4906 07be cd87 62be
000003e0: e24a 9bbc 1098 52bd 88fb eabb c078 b43d
000003f0: 055e 08be b830 343e 8c92 00be 5c8d 9abe
0.03390947 0.37510526 0.16655959 0.13089815 -0.22368771 -0.13512883 0.2484722 -0.054089785
-0.060940113 -0.03513128 -0.08516303 0.0019275787 -0.19943666 -0.14329524 0.24246079 -0.16155975
-0.07894577 -0.037402157 -0.052662212 -0.11325373 0.0022806881 0.22520973 0.08357246 -0.056011856
0.18602642 0.15273502 0.15846294 -0.23555009 0.11533521 -0.08333728 0.06961127 0.21192758
-0.051466525 -0.086914465 0.10785258 -0.121759064 -0.14392804 0.27368867 -0.10347137 -0.10198034
0.17198156 0.012157044 -0.09939366 0.15990414 0.3452277 0.04419796 0.11768678 0.2678368
-0.038901452 -0.06732998 0.031867433 0.03649051 0.25359663 -0.25424746 0.17191787 0.03721459
0.14954637 -0.06669648 0.28771675 -0.44046873 0.34354582 0.21134828 -0.11436649 -0.015341808
-0.19043483 -0.16610241 -0.14424716 -0.21544257 0.1181354 0.09983983 -0.24304263 -0.20964907
-0.16618118 0.04697441 -0.08869654 0.2127266 -0.037071552 -0.13268538 0.3249117 -0.2037512
0.22068365 0.21492302 -0.030913984 -0.07817764 0.08787987 -0.12990299 0.08679469 -0.3497759
0.042878065 0.20839287 -0.1421102 0.017394949 0.2692126 -0.013630084 -0.07091954 -0.09106979
-0.113209635 -0.28507227 0.15559061 -0.051343992 -0.016762868 -0.039814737 -0.10014648 -0.16292344
-0.00505425 0.16195638 -0.048869833 0.21527863 -0.027469557 -0.09454302 -0.115482636 0.016007388
-0.06577222 0.15442267 0.15448028 -0.29347256 0.07439177 0.24425624 -0.20648317 -0.15704697
0.01692295 -0.2176762 -0.10020702 -0.007379746 0.16174363 -0.113027915 -0.1535694 -0.14284675
0.061146785 -0.009362988 0.05184399 0.074387774 -0.62471515 0.18516186 -0.00083832984 0.15338707
-0.07119288 0.33684248 0.03210842 -0.12154561 -0.035789557 0.28502032 0.04540958 0.028696982
0.005047797 0.23905814 -0.31323418 -0.04977023 -0.019697636 0.07264014 0.19339845 0.14055513
0.039416756 -0.062004045 0.036131427 -0.21194243 -0.19963433 -0.111788005 0.20657884 0.026104216
-0.117091216 -0.0651177 -0.40488937 0.11174565 -0.19819885 -0.00647851 0.14758277 0.19705102
0.13756071 0.020168716 0.03704845 0.050877333 0.14337112 -0.062207256 -0.06072981 -0.018204091
-0.20220803 -0.15095367 0.115506046 0.14501105 -0.038097095 0.15987375 0.14831991 -0.05189567
0.040103577 -0.09765761 0.1788601 -0.095868856 -0.11528786 0.13214652 0.06806138 -0.03590306
-0.011067042 0.093139715 -0.27975988 0.024618344 -0.23462021 0.07649322 0.19324982 -0.02900032
0.115451396 0.1314197 0.16472997 0.20225482 -0.1892679 0.31976786 -0.026547365 -0.1139695
0.2259549 -0.04670915 0.21870613 0.024818767 -0.0126103135 -0.04514052 -0.06357383 -0.06756155
0.20033132 0.37904137 -0.19255571 -0.21145226 0.093165874 0.076104 -0.015364388 -0.28966752
-0.09125421 0.16094194 -0.0145739475 -0.032583576 0.092945606 0.037620746 -0.03418568 -0.021798287
-0.2571442 -0.27715412 0.27224627 0.1769782 0.011550322 -0.1569266 -0.019227877 -0.30668965
-0.079283625 -0.19298808 -0.11377393 -0.11733012 0.23261109 -0.024472032 -0.13185991 -0.22122116
-0.018956605 -0.05141455 -0.007171098 0.08812094 -0.13317116 0.1759671 -0.12555903 -0.30185974
